notebooks/paper-plots/models/guided-w-1.pt (torch, 27411 bytes, 6 tensors)

layers.0.weight f4 [100, 10]
000000 4a 2e a7 be 67 d4 2f 3e 0d c9 6b be 3c 24 63 bf
       -0.32652503 0.17170869 -0.23025914 -0.88727164
000010 b6 70 87 be 55 d5 0e bf ea 28 7a 3e 96 2e 8c 3f
       -0.2645318 -0.5579427 0.2442967 1.0951717
000020 f9 86 03 3f 25 b8 6c be a2 bf f8 bd a3 56 b4 be
       0.51377827 -0.2311712 -0.12145926 -0.3522235
000030 5c 6a 1c be bf 9e 14 bd ed aa c3 3c f7 eb 02 3e
       -0.15274948 -0.036284205 0.023885215 0.12785326
000040 c4 f1 2a bd f6 f8 b1 bd 3a 5a f7 3d 10 be 17 be
       -0.041734472 -0.08690064 0.12077756 -0.14818597
000050 00 4a ac be bf 81 04 bf 85 db 24 3e 50 05 c4 3e
       -0.33650208 -0.51760477 0.16099365 0.38285303
000060 30 53 85 bd 05 dd 3a 3e f4 70 0a 3e 03 c3 ee bc
       -0.065100074 0.18248375 0.1351965 -0.029145723
000070 8c 55 2d 3e 1b b1 50 be c0 b0 ce bf ea 4b 0e 3d
       0.16927165 -0.2038006 -1.614769 0.034740366
000080 37 90 2c 3f ff ca b6 be a1 14 18 bd 7d ce 0e bf
       0.67407554 -0.3570175 -0.03712905 -0.55783826
000090 4c 1e 0a 3f 48 3f c7 3f 10 9a 12 3e 0a 96 16 bf
       0.5395248 1.5566187 0.14316583 -0.5882269
0000a0 40 2d ce 3e 63 af 93 bf d2 1e 4c 3f e3 93 c7 3e
       0.40268898 -1.1537899 0.7973453 0.38980016
0000b0 80 24 89 3f ce 7e cc be 6b fa 9d be bf 4c 3e bf
       1.0714264 -0.39940494 -0.30855116 -0.74335855
0000c0 c7 ba fb bd 3a 98 14 bf 98 48 8f bf 70 45 49 bf
       -0.12291484 -0.5804478 -1.1194029 -0.7862158
0000d0 a5 7e 2f bf 73 b6 1e bd a7 94 38 3f 4e 01 19 bf
       -0.6855262 -0.038748216 0.72101825 -0.59767616
0000e0 3f ab 70 3f 83 65 31 be 25 59 b8 be 82 b5 44 bf
       0.940113 -0.1732388 -0.36005512 -0.7683946
0000f0 a7 e7 72 be a5 5d 86 3f 6e 11 4f be 98 7c 6b bd
       -0.23721181 1.0497328 -0.20221493 -0.05749187
000100 bf 7d 9a 3e 44 1a 2d bd c0 c1 85 3e 8f 2e 2f bf
       0.30174062 -0.042261377 0.26124382 -0.6843042
000110 70 46 69 bf 59 e5 4a bc 52 b9 12 be 35 0a 18 3e
       -0.91123104 -0.012383782 -0.14328507 0.14847644
000120 b1 da 59 be e5 9d a1 3e 2a 3d a6 be 3c 99 35 bc
       -0.2127483 0.31565776 -0.3246854 -0.011083897
000130 0d c6 26 be f1 2f 3f be b1 0f 08 3e 5f 71 58 be
       -0.16286488 -0.18670632 0.13287236 -0.21136998
000140 da b3 2d 3e 0c 94 8f 3f aa 68 54 3f 77 77 75 3f
       0.16963139 1.1217055 0.82972205 0.95885414
000150 26 f9 ea 3e 31 c5 eb be 1a e8 49 bf 37 65 d6 be
       0.4589321 -0.46048883 -0.78869784 -0.41874096
000160 fd 12 39 be 23 2b d9 bd 10 f8 c5 be b7 05 12 bf
       -0.1807365 -0.10603931 -0.3866582 -0.5703997
000170 cc 44 9a 3f 6a 09 1f bf 41 db 0b be 91 c6 45 bf
       1.2052245 -0.6212374 -0.13657857 -0.77256113
000180 fb 29 cf be 39 ba 13 bf d5 22 79 bf 2c 6d c0 be
       -0.40461716 -0.5770603 -0.97318774 -0.37583292
000190 dd d3 fa 3d b3 be 29 bf da 96 6e 3e d3 6b 89 bd
       0.12247441 -0.6630661 0.23299733 -0.06710019
0001a0 be 17 a0 3e 19 48 86 3e 5d b6 cb 3e 30 83 29 be
       0.31268114 0.2622688 0.3978757 -0.1655395
0001b0 a1 87 2e be ec 46 79 bf 51 35 44 bd 0f ec e0 3f
       -0.17043926 -0.97373843 -0.04790241 1.7572039
0001c0 1c 57 e1 3e 8d b1 c8 3e b7 e0 39 be f5 e2 67 be
       0.44011772 0.3919796 -0.18152128 -0.22645171
0001d0 e4 43 a0 bf 41 e2 94 3f d9 41 ad 3f 40 0a 10 3c
       -1.2520719 1.1631547 1.353572 0.008791506
0001e0 4a 2f 20 bd a2 44 14 3f c7 06 bb be 64 0b 29 be
       -0.0391076 0.57917225 -0.36528608 -0.16508251
0001f0 5b 37 23 bd 39 a3 0f be d0 29 c6 3d 9a 4a c9 be
       -0.039847713 -0.14027108 0.09675944 -0.3931473
000200 3c c9 23 3e 82 fa 98 bc 2f bf 6a 3e 05 5e 31 40
       0.15994734 -0.018674139 0.22924493 2.7713635
000210 7e ba cd 3e 6b 05 e2 3e 41 08 12 be 8f a6 0a 3f
       0.40181345 0.4414476 -0.14260961 0.541604
000220 f0 66 61 bf 40 34 31 3f e6 fc ba 3f 6a 03 e9 be
       -0.88047695 0.6922035 1.4608428 -0.45510417
000230 a0 3d 33 3d 0a 55 5e be 80 5b fd 3c 0e 3f ab 39
       0.043759942 -0.21712127 0.03092742 0.0003266264
000240 5f e3 81 bd 28 40 4c 3d 56 49 8d 3c 37 fa a8 bd
       -0.06342196 0.04986587 0.017246883 -0.0825085
000250 52 e9 86 3c 6d f5 37 3c a9 91 73 3e 49 ce a7 be
       0.016468678 0.011227948 0.23786034 -0.3277457
000260 69 d9 e9 be 79 12 de 3b 3e e5 ac 3e d1 9c 10 be
       -0.45673683 0.0067771045 0.33768648 -0.1412232
000270 7b a0 53 be c2 6f 21 be 56 13 78 bd 0e be a8 bd
       -0.20666687 -0.15765288 -0.060565315 -0.08239375
000280 19 1c 0b 3e 5f 34 e4 bd 72 71 35 be 4d c7 65 3e
       0.13584937 -0.111428015 -0.17719057 0.22439308
000290 07 4b 93 be 33 a2 53 bd ac 3a 04 be a3 c7 32 be
       -0.2876818 -0.051668357 -0.12913007 -0.17458968
0002a0 96 e9 b5 bc f9 10 aa bc 0d 37 53 be eb d0 32 3f
       -0.022206109 -0.020760046 -0.20626469 0.69850034
0002b0 c4 a6 db 3d f3 02 b7 3e 61 f8 6b be 49 eb 6d 3e
       0.107251674 0.35744438 -0.23043968 0.23234285
0002c0 4f 36 2b be d8 86 41 3d 78 7c 96 be d9 33 b3 be
       -0.16719936 0.047247738 -0.29391837 -0.35000494
0002d0 aa ee 04 bf 02 43 ce 3e 44 fd 2b be b2 69 5b be
       -0.5192667 0.40285498 -0.16795832 -0.21427038
0002e0 6b d0 00 3e bd f2 86 be 7b fb 8f be 02 89 8d be
       0.12579505 -0.2635707 -0.28121552 -0.2764359
0002f0 28 d7 cd 3e a4 08 01 be ab 13 2c be e2 00 28 3f
       0.40203214 -0.12600952 -0.16804378 0.6562635
000300 18 59 4b 3f ec c0 70 bd 1b 8f 0d 3d 9f f7 5a bf
       0.7943282 -0.058777735 0.034560304 -0.8553409
000310 e6 ac 90 be 86 dc 2a 3f 0d eb d3 3e 7c 2b 7a be
       -0.2825691 0.6674274 0.41390267 -0.2443065
000320 bf ce 8f be 59 82 00 bd 47 cb d0 bd f0 92 10 bf
       -0.28087422 -0.03137431 -0.10195022 -0.5647421
000330 f1 58 18 bf 32 0a e4 3f 38 4d 34 be 78 5d 14 3e
       -0.59510714 1.7815611 -0.17607582 0.1448878
000340 72 36 bc bd d8 11 a8 3f fd b0 f6 3d 2e 1d d9 be
       -0.09190072 1.3130445 0.120454766 -0.42405075
000350 c1 f3 d6 bd 82 86 af 3e 21 10 45 3e 21 76 fe 3d
       -0.10495711 0.3428231 0.19244434 0.12424875
000360 97 20 7e 3d a7 3c 12 be 67 56 05 3d 75 18 4a be
       0.0620428 -0.1428095 0.032553103 -0.19735892
000370 3b ec b9 bf 46 9e cb be 83 e6 e8 3e 53 dd d3 be
       -1.4525217 -0.3976919 0.45488366 -0.41379794
000380 a7 c0 00 3f 24 94 1c bf 2d 38 60 be ed f3 01 3f
       0.50293964 -0.61163545 -0.2189643 0.50762826
000390 78 99 15 3d 9a 94 53 be eb d9 0f bd 2b 55 3a 3d
       0.036523312 -0.20662156 -0.035119932 0.04549138
0003a0 b1 87 14 bf d3 d5 9f be 85 af 90 3d 3c d3 1d be
       -0.5801955 -0.31217822 0.07064728 -0.15412611
0003b0 48 d6 f9 bb b2 80 d0 be 91 cd 40 3e 16 f6 30 3d
       -0.0076244213 -0.40723187 0.18828417 0.043203436
0003c0 82 ca 89 bf c7 aa bd 3e d3 76 88 bf 04 c5 88 3e
       -1.0764925 0.37044355 -1.0661262 0.2671281
0003d0 67 a0 9c be bd 50 e7 be 1e d3 63 3f 77 48 14 bf
       -0.30591127 -0.45178786 0.88994014 -0.5792307
0003e0 fe d3 09 bf 44 6c 0e bf 8c 12 84 3e 7a 6e 64 3d
       -0.538391 -0.5563395 0.257954 0.05576942
0003f0 a2 af d5 3c 3c 5a 91 be 3f f9 1e 3c 2d ec b7 3c
       0.026084725 -0.28389156 0.00970298 0.022451485

layers.0.bias f4 [100]
000000 d1 2d a1 3d ff 61 d1 bc 27 50 c7 be a3 71 8c 3e
       0.07870067 -0.025559423 -0.3892834 0.27430448
000010 ac d5 aa be 52 6f 8f bf 5b 89 af bf d9 c4 27 bf
       -0.33366144 -1.1205847 -1.3713793 -0.6553474
000020 52 2c 6d be ad cc a3 bf f4 d7 0f bf d2 0d bf 3d
       -0.23161438 -1.2796837 -0.56188893 0.09328808
000030 e2 3c 06 3f e4 eb ea 3c 98 dd 15 3f 37 2e 65 be
       0.5243665 0.028676935 0.5854125 -0.22380911
000040 73 42 9b 3d 09 54 18 bf 42 a7 09 be 6c 0d 79 3d
       0.075810336 -0.5950323 -0.1344271 0.060803816
000050 4d 2e 8b bf a0 a1 2d bf d2 af 48 3e db 9d 78 3d
       -1.0873505 -0.67824745 0.1959832 0.060697418
000060 c9 65 6a bf 43 9e 69 be 79 41 47 bf 14 dc 4e bf
       -0.9156156 -0.22814278 -0.7783428 -0.8080456
000070 10 73 c7 3e 70 01 c8 bd cc b4 ea bd 47 29 ca be
       0.38954973 -0.09765899 -0.114602655 -0.39484617
000080 04 e6 02 bf 01 5d 62 bf ef 34 11 be 42 1f 6b bf
       -0.51132226 -0.8842316 -0.14180349 -0.9184457
000090 f7 10 f6 bd bf 46 f2 3d be 27 3f bf 47 2a 3b bf
       -0.120149545 0.118299 -0.74670017 -0.73111385
0000a0 9f 0a c5 3e 04 da 3f be f4 b8 18 be 1e ca 2d bd
       0.38484666 -0.1873551 -0.14914304 -0.042429082
0000b0 b9 22 98 be 00 f9 df bf f5 21 9a be 6f c2 67 be
       -0.2971399 -1.7497864 -0.30104032 -0.22632764
0000c0 d2 56 5b be c2 ef a9 bf d2 c1 b0 be f1 38 10 bf
       -0.21419838 -1.3276293 -0.34522873 -0.56336886
0000d0 3e 3a 9e bf e8 ff 8b bd 60 75 c9 bf 93 d3 cf be
       -1.2361524 -0.068359196 -1.5738945 -0.40591106
0000e0 92 24 52 bf 47 cb 22 bf de b1 ea bf b7 8b 4b bf
       -0.8208705 -0.63591427 -1.8335531 -0.7951006
0000f0 7d f1 3c be af d3 08 bf 66 79 0f 3e 3e 8f 25 bf
       -0.18451495 -0.53448004 0.14011154 -0.64671695
000100 a6 ca 3e 3e 8f f5 5c bf fa 7e 89 be c8 76 c4 bf
       0.18631992 -0.8631219 -0.26854688 -1.5348749
000110 a2 b6 fa 3d 76 ef 0f bf e2 b1 f3 be 97 7d 35 be
       0.12241866 -0.56224763 -0.4759665 -0.1772369
000120 78 a9 cb be c8 8c 49 bf 81 b2 fd 3e 2e 93 c9 be
       -0.39777732 -0.7873044 0.4955025 -0.39370102
000130 44 2d 44 be e2 e7 3a be 2d 6c ed be 90 f0 50 bf
       -0.19157892 -0.18252519 -0.46371594 -0.8161707
000140 79 7b f6 be 8d d9 f1 be 17 28 68 ba 75 eb 8c bf
       -0.48141077 -0.4723629 -0.00088560715 -1.1009356
000150 ed ad cf 3c 28 2d 83 3e 5b bf 69 be f8 fb e8 be
       0.025351489 0.2562039 -0.22826903 -0.45504737
000160 a0 5d 84 bf c7 cd 4e bf 36 86 50 bf 12 d2 94 be
       -1.0341072 -0.8078274 -0.8145479 -0.2906652
000170 97 66 5c bf 05 b1 0c bf 45 a4 8c be f1 9d 09 bf
       -0.8609404 -0.5495761 -0.27469078 -0.53756624
000180 f9 a9 a1 3d 21 ee 50 3e d2 76 11 bf 5a da 2f 3f
       0.07893748 0.20403339 -0.5682193 0.68692553

layers.1.weight f4 [50, 100]
000000 33 63 7d be f2 73 e4 bd 0b 2b ca bd 79 7f 8d be
       -0.24744873 -0.11154927 -0.09871491 -0.27636316
000010 0e 32 9a be b6 49 69 be 3e 6e 00 be 2a 89 46 3c
       -0.30116314 -0.22782025 -0.12542054 0.012117663
000020 3f ee f8 be af 10 79 be db 0e 97 be b4 86 a7 be
       -0.48619267 -0.2432277 -0.2950352 -0.32719958
000030 af 41 86 be 04 43 a3 be fe c0 3d be 3c 2f d7 bd
       -0.26221988 -0.31887066 -0.18530652 -0.10507056
000040 9e 1b 08 3d 1f 4b 9c be ab 23 38 be cf 42 00 be
       0.033229463 -0.30526063 -0.17982356 -0.12525485
000050 29 d7 05 3d 95 88 3a 3d 23 1c a4 be 4a 89 d2 bd
       0.032675896 0.04554041 -0.32052717 -0.10280092
000060 07 32 5c be eb 46 db 3b f8 8c da 3d a9 bd fb be
       -0.21503459 0.0066918037 0.10671419 -0.49168137
000070 38 6e d3 bd f7 51 46 be d1 42 e9 bd 67 5d 08 be
       -0.10323757 -0.19367205 -0.11389697 -0.1331688
000080 46 ec b5 be 4f 84 4a be 0a bf a9 bd ae b0 df bd
       -0.35531825 -0.19777034 -0.08288391 -0.10922371
000090 27 30 60 be ce c9 1f be d2 28 0b be 05 87 34 3e
       -0.21893369 -0.15604326 -0.1358979 0.17629631
0000a0 4c 1f 6d be b9 f3 6e be 7c a9 5a be e9 cb 5a bd
       -0.2315647 -0.2333516 -0.21353716 -0.05341712
0000b0 91 58 ac be e2 c0 69 be 13 e8 63 be ae 3a 81 bd
       -0.3366132 -0.22827485 -0.22256498 -0.063100204
0000c0 68 f3 1f be 87 03 95 bc 0a 7e 8c be 44 0b 30 be
       -0.15620196 -0.018190159 -0.2743991 -0.17191797
0000d0 ad bd 2c be 67 56 20 be c5 5e e3 bd fe 57 8f be
       -0.1686923 -0.1565796 -0.1110206 -0.2799682
0000e0 93 a4 1e be 76 e5 a1 be 33 68 33 be 54 d8 43 be
       -0.15492468 -0.31620377 -0.17520218 -0.19125491
0000f0 13 e3 1a be 9e b9 e0 bd 94 65 bf be 5f 53 b3 bd
       -0.15125684 -0.10972904 -0.37382185 -0.08756136
000100 c5 6d fb bc 15 eb 1c be 3b cd fb bd 9e b6 f9 bd
       -0.03069199 -0.15324052 -0.12295004 -0.121930346
000110 58 9d 63 be ec 99 30 be 8d 89 23 be 8b 2c 73 be
       -0.2222799 -0.17246217 -0.1597044 -0.2374746
000120 48 58 8b bd 2e c3 3d be b3 73 86 be b2 cc 07 bd
       -0.06803948 -0.18531486 -0.26260146 -0.033154197
000130 46 c1 aa be 96 a9 77 be 10 c0 f8 bd 37 2c 0f be
       -0.3335058 -0.24185786 -0.12146008 -0.1398171
000140 08 f2 d7 be 25 6f 99 be 20 05 f8 bd 09 f4 09 be
       -0.42176843 -0.2996761 -0.121103525 -0.13471998
000150 ff 05 65 be 6a b7 d4 bd 96 79 e2 bd c8 a8 4b be
       -0.22365569 -0.10386546 -0.11058347 -0.19888604
000160 09 d9 2d be 37 56 66 3e 55 fa 9e bc 48 49 8a be
       -0.16977324 0.22493826 -0.019406477 -0.27009034
000170 42 10 83 bd 60 5c 12 be 54 32 63 be 39 f3 59 be
       -0.06399585 -0.14293051 -0.22187167 -0.21284188
000180 eb df e2 bd 78 5f c3 bc 5f 0a 25 be 2b 31 7e be
       -0.11077865 -0.023849234 -0.16117238 -0.24823444
000190 20 52 11 3c 66 3f 1e bd 64 f2 36 3e 43 4a 13 3e
       0.008869678 -0.03863468 0.17865902 0.14383797
0001a0 23 2b 51 3e 49 73 8e bc 5c 69 43 be 9e 51 90 3d
       0.20426612 -0.017388957 -0.1908316 0.07046817
0001b0 2b e4 a9 bd 10 f4 71 3d 0a 94 9b 3d 0b a5 a7 bd
       -0.08295473 0.059070647 0.075965956 -0.08185776
0001c0 c2 d3 41 3e ea 8e f6 bd 6c 03 c4 3d bc 47 04 3e
       0.18928435 -0.120389774 0.09570965 0.1291799
0001d0 66 26 2c 3e 41 6f 46 3e 66 da ed 3c e5 ad 74 3e
       0.16811523 0.19378377 0.029034805 0.2389446
0001e0 e4 89 9f 3d f4 3c 97 3d 40 88 94 3d 1a f1 18 3e
       0.077899724 0.07384673 0.0725255 0.14935723
0001f0 75 ba 0a 3d 75 d6 ac 3e f7 ae 09 bd 9f d3 f3 3e
       0.033869226 0.33757368 -0.033614125 0.47622392
000200 18 be 59 3e 11 5a 39 3e b2 80 8c 3d 6e 45 24 3d
       0.21263921 0.18100764 0.06860484 0.040105276
000210 ac d7 38 3e 28 ff 67 3e c0 94 ff 3d b7 db 40 3b
       0.18051022 0.22655928 0.12479544 0.0029427835
000220 f1 46 97 3e d5 0b a2 3d 16 fd 2f bd 4d da ec bd
       0.29546311 0.07912413 -0.04296597 -0.11565075
000230 ca bb 00 3e 1b b6 91 bd 34 c6 c2 3d 25 81 cd 3d
       0.12571636 -0.07114812 0.095104605 0.10034398
000240 4c 20 33 3e 4d 52 ab 3e 65 c8 a7 3d e6 f6 fe 3b
       0.17492789 0.33461228 0.08192519 0.0077808974
000250 b5 94 ec 3d 05 bf b2 3d 5f 97 8f be 22 f0 e8 3d
       0.11551801 0.0872784 -0.28045174 0.11373927
000260 38 1b f6 3d 9d d6 85 bb e5 98 90 3e f6 d6 89 bd
       0.1201691 -0.004084422 0.2824165 -0.06730454
000270 38 3b 07 bd 92 9d c3 3e b9 9a cf be b9 e3 38 3e
       -0.03301546 0.38206154 -0.40547732 0.1805562
000280 99 d2 02 3d ae f8 24 be 7b 2f 8b be 3a 5e 75 3e
       0.031939123 -0.16110489 -0.27184662 0.23961726
000290 1d 1c d3 3d 8a 18 12 3d 8b 8f 39 3d c2 57 31 bd
       0.103080966 0.035667934 0.04530291 -0.043296583
0002a0 25 fd ee 3d 98 11 6a 3d b3 76 8b 3d 56 6e 4d 3d
       0.11669377 0.057145685 0.068097495 0.050154053
0002b0 f8 5c 67 3e ca e2 5c 3d 70 19 00 3e 91 84 33 3e
       0.22594059 0.05392722 0.12509704 0.17531039
0002c0 f2 a9 8b 3d 1f 82 01 bd 93 ec 21 3c 31 63 a3 3b
       0.06819524 -0.031618234 0.009883064 0.00498619
0002d0 f7 c8 5e be 48 3c 37 3e 01 48 87 3e 6f de 97 3d
       -0.2175635 0.17894089 0.26422122 0.07415473
0002e0 f3 de 8a 3e b8 ae ac 3d b1 22 c0 3d ce cf a6 3e
       0.27123222 0.084317625 0.09381617 0.32580417
0002f0 42 ca 44 3e 12 b6 7e 3e a8 95 ed 3d 64 e2 f3 3d
       0.1921778 0.24874142 0.1160081 0.11908415
000300 9b fd 7b bc 08 d0 7d bd ce 65 9f 3d 60 e9 62 3e
       -0.0153802885 -0.061965972 0.077830896 0.22159338
000310 fa cf 39 3e a7 d2 85 3e 0a 33 bb 3d 13 67 43 3d
       0.18145743 0.26137277 0.09140594 0.04770572
000320 fe d6 4e bf 0c 65 98 be ac db 1a be 1b e1 7a be
       -0.807968 -0.29764593 -0.1512286 -0.24499933
000330 91 75 9f 3d f7 d9 3d 3e 56 bf c5 be 92 d2 cc be
       0.07786096 0.18540178 -0.3862254 -0.40004402
000340 6d 41 8b bd a2 56 7e 3e be 32 09 3b d7 3a 97 bf
       -0.06799588 0.24837735 0.0020934786 -1.1814831
000350 4a b5 5b 3d 81 0c c0 bf d4 52 35 3e 5f d9 ec 3d
       0.053639688 -1.5003816 0.17707378 0.11564898
000360 f1 89 03 be 47 3d 82 3d f9 8d 92 bd d0 04 d6 3e
       -0.12845589 0.06359344 -0.071559854 0.41800547
000370 58 27 71 3e 69 fd 3a be c6 0e fb 3d 90 da 71 3e
       0.23550165 -0.18260731 0.12258677 0.23618531
000380 4c ae 90 be 53 7b 34 3e c9 5d f6 3d 84 5a 02 bf
       -0.28257978 0.1762517 0.12029607 -0.50919366
000390 ba fd b8 3e ab ac b1 be 93 3f ca 3e 78 e1 f7 be
       0.36131078 -0.34702048 0.39501628 -0.48414207
0003a0 94 9a 01 3e d7 46 77 be dd 2d 97 3e 3c b2 9f bd
       0.12656623 -0.24148117 0.29527178 -0.077976674
0003b0 68 9b 59 3e 75 22 3d 3e 04 78 1e be 22 7c 0a 3e
       0.21250689 0.18470176 -0.1547547 0.13523915
0003c0 ca 5c f1 3d 3b 56 8d bf 75 3f fe 3e 21 2b 4b 3e
       0.11785276 -1.104194 0.4965779 0.19840671
0003d0 2d 65 9e 3e d9 f6 e0 3e ee 98 85 3b ce 84 9b be
       0.30936566 0.4393833 0.0040770685 -0.3037476
0003e0 6f cf 03 3f 86 d1 ab 3e 68 88 3f 3f 6a da 90 be
       0.51488394 0.3355829 0.74817514 -0.28291637
0003f0 c8 6b e2 bf ea 18 77 bf f6 fd 4e 3f b0 96 1c be
       -1.7689142 -0.9652239 0.80856264 -0.15291858

layers.1.bias f4 [50]
000000 94 b6 55 be af 14 ee 3c 3d ec e0 3e 5e 5d 5e 3f
       -0.2087043 0.029062597 0.43930236 0.8686122
000010 0b 47 60 3f bc 10 d7 3c 9b f6 3c be 52 56 3d 3d
       0.876084 0.026253097 -0.18453448 0.0462249
000020 be 47 0e 3f b5 b8 27 3f cd 1a 45 bd 69 a1 30 3d
       0.5557822 0.65516216 -0.048121262 0.043122683
000030 7b b7 d9 3e a7 07 0c 3c 82 be 0d 3f 05 85 86 3e
       0.42522797 0.008546746 0.55368817 0.2627336
000040 f4 95 d4 3d 95 8f 40 3f 03 00 47 be 0f 15 39 3b
       0.10380164 0.7521909 -0.19433598 0.0028241312
000050 fc 6d 23 3f 34 47 41 be 0b 53 cc 3e 39 34 1a 3f
       0.638397 -0.18874818 0.39907107 0.60235935
000060 d2 0f 59 3c b3 f4 ad bd 7f d5 29 3e 90 77 74 3f
       0.013248401 -0.08493938 0.16585349 0.9549494
000070 55 aa e8 3d f9 f9 c0 3e 02 33 97 be 93 e1 51 bd
       0.11360613 0.37690714 -0.29531103 -0.051240515
000080 c5 81 28 3d bb b3 54 3e bd 79 71 3f 7f 4d 76 3f
       0.041139383 0.20771687 0.9432638 0.96212
000090 11 be 45 3e be c0 c6 bc c7 09 3b 3f d3 45 10 bf
       0.19310786 -0.024261829 0.73061794 -0.56356543
0000a0 f9 81 39 3f a3 94 71 3d 14 b8 36 3f b0 7d 01 3f
       0.7246395 0.05897964 0.7137463 0.5058241
0000b0 7c 53 06 bf a6 47 1f 3f f9 9e 04 3f 48 00 4c 3e
       -0.5247114 0.622187 0.51805073 0.19921982
0000c0 9b d5 c7 3d 6d 96 85 3d
       0.09757539 0.06522832

layers.2.weight f4 [2, 50]
000000 e9 bf d7 bd 23 9a 61 3d 9f 81 d2 3d 21 b4 97 3e
       -0.10534651 0.055078637 0.102786295 0.29629615
000010 6c 6a fe be e2 ab 35 3d 10 c8 00 3d 76 a4 07 bd
       -0.49690568 0.044353373 0.031440794 -0.033115827
000020 1e 8e ae 3e 60 9b 7d bd 9e f5 0b 3c 22 e6 45 bc
       0.34092802 -0.061915755 0.008542446 -0.012078794
000030 c4 92 78 3e e5 cc 81 3c db f4 6a be 14 1d 2c 3e
       0.24274737 0.015844772 -0.22944967 0.16807967
000040 d4 d6 29 3d 57 d9 bf 3d 0f 97 af bb 90 72 50 39
       0.04146464 0.09367626 -0.0053585838 0.00019879104
000050 37 fa b0 be 88 60 db bd bc 42 a8 3d d1 56 ef bc
       -0.345659 -0.10711771 0.082158536 -0.029216202
000060 f6 0d f1 ba cf 5f fe ba d3 ab 92 bd df 34 86 be
       -0.0018391002 -0.0019407215 -0.07161679 -0.26212212
000070 0e 78 40 3d 9c 3c 2a be 38 86 81 be bd 1f 2e 3d
       0.046989493 -0.16624683 -0.25297713 0.042510737
000080 34 76 91 bc d4 c8 ff 3c 42 aa 4c 3e c6 1e 59 be
       -0.017756559 0.031223692 0.19986823 -0.21203145
000090 c4 60 0f be c8 a8 8e bb c0 52 eb bc a2 2f 76 bd
       -0.14001757 -0.0043536164 -0.028725982 -0.06010402
0000a0 da e0 39 3e 0c 3f e6 39 91 ec 73 3a 18 37 0b 3c
       0.1815218 0.00043915992 0.00093049655 0.008497022
0000b0 e8 f2 f3 3e f9 47 aa be c2 96 6d be 1d 79 13 3d
       0.4764626 -0.33258036 -0.23202041 0.036004175
0000c0 e6 1f 38 3d 90 28 67 3d 11 4b e5 bd b3 c5 9a 3a
       0.044952296 0.056435168 -0.111959584 0.0011808187
0000d0 93 f3 7a be 8f 66 9e be f2 3a 51 be 70 e1 5f 3c
       -0.24506979 -0.3093762 -0.20432642 0.013664588
0000e0 5d 1f 62 be cd a2 d6 bc 6c b6 e6 be f8 ce 7f be
       -0.22082277 -0.026200676 -0.45061052 -0.24981296
0000f0 df b2 3d 3c a2 ec 9e 3a 50 f2 44 be 47 c1 25 bd
       0.011578291 0.0012124965 -0.1923306 -0.040467527
000100 d4 50 c3 3d bc 12 07 bc 0b 78 31 3c 75 8f 83 3e
       0.09536901 -0.008244213 0.010831843 0.25695387
000110 f3 d8 57 3d 5a 2e 2e 3c fe 6f 80 3e 39 19 39 3d
       0.052697133 0.010631168 0.25085443 0.04519007
000120 1f a9 13 bd 73 83 cd 3d cf 2d ba 3c d0 38 c4 bc
       -0.03604996 0.100348376 0.022726921 -0.023952872
000130 2a 68 30 bc 25 d5 1c 3d 99 8f 1b 3c 99 a3 ae 3e
       -0.010767022 0.038289208 0.009494686 0.3410919
000140 03 77 ae 3d a5 db 7e 3c e2 16 69 3c d2 83 9e 3b
       0.085187934 0.015555297 0.014226647 0.0048374915
000150 a1 94 8e 3e b2 50 24 be 49 aa 9f 3d aa 5e 3a 3b
       0.2784777 -0.16046408 0.07796151 0.0028437772
000160 01 f7 66 3e 5e 03 2a 3f 8b 21 ff bd 00 62 06 bb
       0.22555162 0.6641139 -0.1245757 -0.002050519
000170 31 3a 68 be b9 bf 00 be da c0 cb 3e 33 a7 54 bd
       -0.22678448 -0.12573136 0.39795572 -0.051917266
000180 16 37 12 be c4 a7 1b 3c 48 5c 97 3c 19 a2 1c ba
       -0.14278826 0.009500448 0.01847662 -0.0005975082

layers.2.bias f4 [2]
000000 2f 3e f9 3d 87 3c 2a 3d
       0.12170064 0.04156163
