notebooks/paper-plots/models/guided-w2000.pt (torch, 27411 bytes, 6 tensors)

layers.0.weight f4 [100, 10]
0	0xbf3ccefd	-0.7375334
1	0xbb4924d2	-0.0030692113
2	0x3b42b087	0.002970727
3	0x3ee88a30	0.4541793
4	0xbedac767	-0.42730257
5	0xbf5994eb	-0.84992856
6	0x3bef2c65	0.0072989934
7	0xbe545638	-0.20736015
8	0x3e1f1c8d	0.15538235
9	0x3fb538bd	1.415794
10	0x3e57f426	0.21089229
11	0xbd5e7346	-0.054309152
12	0x3ed32d9e	0.4124574
13	0xbe98ea07	-0.2986605
14	0x3daa2289	0.08307368
15	0xbf017430	-0.50567913
16	0x3e9bc650	0.30424738
17	0x3ed68a94	0.41902602
18	0x3ddd66ae	0.108106
19	0x3e1558c8	0.14584649
20	0x3ba3e268	0.005001355
21	0xbde61ec9	-0.112363406
22	0xbe2f65ec	-0.17128724
23	0xbe2bb4db	-0.1676821
24	0xbc8be386	-0.017076265
25	0x3f08a0ae	0.5337018
26	0xbcae95c8	-0.021311656
27	0xbe8f6c1e	-0.28012174
28	0x3dda0ae1	0.10646606
29	0xbea71033	-0.32629547
30	0x3ac8715e	0.0015292575
31	0x3f5e8a49	0.86929756
32	0x3da4bf77	0.080443315
33	0xbebe1ddf	-0.37132165
34	0xbe4ea0bf	-0.20178507
35	0xbea8a70a	-0.3293994
36	0xbe222848	-0.15835679
37	0x3eafbbc3	0.34322938
38	0xbd0b696c	-0.034036085
39	0xbdd7b618	-0.105327785
40	0xbdb6e503	-0.08930399
41	0xbe68c0f4	-0.22729856
42	0xbf910049	-1.1328212
43	0xbe84a35c	-0.25905883
44	0x3d38ba79	0.04509971
45	0xbd8bb300	-0.06821251
46	0xbeec4e79	-0.4615362
47	0xbe9cc545	-0.30619255
48	0x3f08b169	0.53395706
49	0xbdb7d861	-0.08976818
50	0x3e03d42a	0.12873903
51	0xbf1a1e1f	-0.6020221
52	0x3eef2163	0.4670516
53	0x3f1161a4	0.5678961
54	0xbaac4d93	-0.0013145678
55	0x3cc79c52	0.024366532
56	0xbfbdeed9	-1.4838516
57	0xbf32b369	-0.6980501
58	0x3fb722ce	1.4307497
59	0xbb5414a9	-0.0032360947
60	0x3dc6ee61	0.09713436
61	0xbe82581b	-0.25457844
62	0xbea02984	-0.31281674
63	0xbe1043d6	-0.14088377
64	0x3cc02e72	0.023459647
65	0x3dc0962b	0.09403642
66	0x3d2f4744	0.042792574
67	0xbea658ef	-0.32489726
68	0x3e1bf632	0.15230635
69	0xbe8a5921	-0.27021125
70	0x3d9ad73f	0.07560586
71	0xbeae076e	-0.33990043
72	0xbe9fc2fe	-0.31203455
73	0x3e21d1d0	0.15802693
74	0xbd29187d	-0.04128312
75	0xbe18af5c	-0.14910644
76	0xbd83ae53	-0.06429734
77	0xbf05a9f0	-0.5221243
78	0x3e6b771d	0.22994657
79	0x3d69cd27	0.057080414
80	0x3e296062	0.16540673
81	0x3fa0f40a	1.2574475
82	0x3dd2932d	0.10281978
83	0x3e5e407f	0.21704291
84	0x3ce624e9	0.028093772
85	0x3e069067	0.13141023
86	0x3df327b5	0.11872808
87	0x3f7087e5	0.9395736
88	0xbc7e9ec7	-0.015540785
89	0x3df54d90	0.119776845
90	0xbed2883f	-0.41119573
91	0xbe9ca106	-0.305916
92	0xbdf803e5	-0.12110118
93	0xbd95a888	-0.073075354
94	0x3dd38069	0.10327227
95	0xbd41a4c8	-0.04727629
96	0x3d728f62	0.05921877
97	0xbd2dfd73	-0.042478036
98	0xbe041839	-0.12899865
99	0xbde6951f	-0.11258911
100	0x3ed2b190	0.41151094
101	0xbf3d4478	-0.739326
102	0xbe3958a2	-0.18100217
103	0x3ef6664c	0.4812492
104	0xbf64ab7d	-0.8932417
105	0xbe80068b	-0.25004992
106	0xbe24bc4d	-0.16087456
107	0xbe0fa5a4	-0.1402803
108	0x3d8c89ce	0.06862222
109	0xbe3bd21b	-0.18341868
110	0xbe8ad356	-0.27114362
111	0xbf894f86	-1.0727394
112	0x3f0cfa0f	0.5506906
113	0xbdbd9ac9	-0.092580386
114	0x3f6baa60	0.92056847
115	0x3d964e56	0.0733916
116	0x3ea0b446	0.31387538
117	0xbf862672	-1.0480483
118	0xbf471d17	-0.7777876
119	0xbf22c73f	-0.63585275
120	0xbdcc2c4c	-0.099693865
121	0xbed48ef9	-0.4151533
122	0xbe3e7192	-0.18598011
123	0xbcb67f24	-0.022277422
124	0xbce37f47	-0.027770652
125	0xbd517e52	-0.05114586
126	0x3c051464	0.008122537
127	0xbe6445cd	-0.22292252
128	0xbd27ff84	-0.041015163
129	0xbd013828	-0.031547695
130	0xbe0a11de	-0.13483378
131	0xbe9ec04c	-0.31006086
132	0x3e02a7a2	0.1275926
133	0x3d6bb76e	0.05754798
134	0xbdafcede	-0.08584379
135	0xbde8363c	-0.113384694
136	0xbe09ce39	-0.13457574
137	0xbd2ba437	-0.041904654
138	0xbe86a590	-0.2629819
139	0x3cdc7344	0.026910432
140	0x3eb20cce	0.34775394
141	0xbf20227a	-0.6255261
142	0xbef9fcec	-0.48825777
143	0x3ebd5306	0.36977404
144	0x3ea03b9b	0.31295475
145	0x3e3ca220	0.18421221
146	0x3e38f3cb	0.1806175
147	0x3da5b50b	0.08091172
148	0x3d105fa6	0.035247467
149	0x3da37347	0.07980972
150	0x3df24bcc	0.11830863
151	0xbe74b3b2	-0.23896673
152	0xbe20a614	-0.15688354
153	0xbdd9daf3	-0.106374644
154	0xbc35112d	-0.011051458
155	0xbd063b53	-0.03277142
156	0xbe9089f5	-0.28230253
157	0x3d9f3209	0.07773215
158	0xbe352c85	-0.17692764
159	0xbcbccac8	-0.023045912
160	0xbd01ffdd	-0.03173815
161	0xbec65567	-0.38737032
162	0xbd8f69b1	-0.07002581
163	0xbbfed97e	-0.007777392
164	0x3bd62b51	0.0065359254
165	0x3cb35b11	0.02189401
166	0xbb35be74	-0.0027731927
167	0xbe17d4d4	-0.14827281
168	0x3c318218	0.010834239
169	0xbbf9a1bf	-0.0076181586
170	0xbec7405b	-0.38916287
171	0xbf72bce2	-0.9481946
172	0x3f3348e4	0.700331
173	0xbd267710	-0.04064089
174	0x3e6d019f	0.2314515
175	0xbe8d6e28	-0.27623105
176	0x3d2a550c	0.041585013
177	0x3f0e1c6c	0.5551212
178	0xbe5fd63e	-0.2185907
179	0xbe83f67e	-0.25773996
180	0x3e598541	0.21242239
181	0x3fad707c	1.3549953
182	0x3eabbfa5	0.3354465
183	0x3e760fe9	0.24029507
184	0xbe7738fe	-0.24142835
185	0x3f080baf	0.5314283
186	0x3e767659	0.24068584
187	0x3f5ea4b0	0.86970043
188	0x3ef6b79a	0.48186952
189	0xbdb80a73	-0.08986368
190	0xbe4c34da	-0.19942036
191	0xbe2d0734	-0.16897279
192	0xbe8ef966	-0.2792465
193	0x3d9ed64b	0.07755717
194	0xbd26cb8f	-0.040721472
195	0xbdb7adcc	-0.08968696
196	0x3ace09dd	0.0015719492
197	0xbefa57f6	-0.48895234
198	0x3e0f8b56	0.14017996
199	0xbbb36ced	-0.0054756314
200	0xbd3ccba7	-0.046092656
201	0xbe2af13c	-0.16693586
202	0xbceb5697	-0.028727813
203	0xbac8b90d	-0.0015313938
204	0x3d0602f6	0.032717668
205	0x3ce4cb13	0.027928865
206	0x3e65a184	0.22424895
207	0xbee7cd2b	-0.45273718
208	0x3e99e2b6	0.3005578
209	0x3cfdbb43	0.030973082
210	0x3f1da103	0.6157381
211	0xbebc43e6	-0.36770552
212	0x3d0919ec	0.033471987
213	0xbf89ceee	-1.0766275
214	0xbf5512df	-0.8323192
215	0x3eb092f6	0.34487122
216	0x3d241842	0.040062197
217	0xbeceb41b	-0.40371785
218	0x3e0f52d5	0.13996442
219	0xbf832e04	-1.0248418
220	0xbe0521d7	-0.1300119
221	0xbffe2e0a	-1.98578
222	0x3f151094	0.5822842
223	0xbcb7d1c7	-0.022438897
224	0x3fa628fd	1.2981259
225	0xbe3cf180	-0.184515
226	0x3fd5a352	1.6690466
227	0xbf748a76	-0.95523775
228	0xc009a2a2	-2.1505513
229	0xbe416611	-0.18886591
230	0x3e633c97	0.22191082
231	0x3f53439a	0.82525027
232	0xbdc94c58	-0.098290145
233	0xbe134dca	-0.14385143
234	0x3e22efe3	0.15911822
235	0xbe2b3e23	-0.16722922
236	0x3d6b2763	0.05741061
237	0x3db91ff2	0.09039296
238	0x3e0a002b	0.13476627
239	0x3ddc3102	0.10751535
240	0xbe23cf6c	-0.15997094
241	0x3f8dd6ea	1.1081212
242	0xbe31cf20	-0.17364168
243	0x3d28d22c	0.04121606
244	0x3ea06deb	0.3133386
245	0x3d17aa53	0.03702767
246	0x3e3966ea	0.18105665
247	0x3f5d50ef	0.8645162
248	0xbe1056ae	-0.14095566
249	0x3e1dddb5	0.15416606
250	0xbee94aa2	-0.45564753
251	0xbf6b2aff	-0.9186248
252	0x3f491a82	0.7855607
253	0xbf0c6286	-0.54837835
254	0xbf434a10	-0.76284885
255	0xbe55fd5c	-0.2089743

layers.0.bias f4 [100]
0	0xc010a12f	-2.2598379
1	0xbf58bc9b	-0.8466279
2	0xbe4386af	-0.19094346
3	0xbe9b9480	-0.30386734
4	0xbf85603b	-1.0419992
5	0xbf1e6f09	-0.61888176
6	0xbf4d358b	-0.80159825
7	0xbcef4404	-0.029207237
8	0x3d40d9c3	0.047082674
9	0x3df93cd3	0.121698044
10	0xbf83f939	-1.0310432
11	0xbf96c584	-1.1779027
12	0xbe16d500	-0.1472969
13	0xbf2c7d39	-0.67378575
14	0x3c55aea5	0.013042127
15	0x3a896644	0.0010482748
16	0xbdf7199e	-0.12065433
17	0xbf13d01d	-0.5773943
18	0x3ed79648	0.42106843
19	0x3e3d7f49	0.18505587
20	0x3f1c27eb	0.6099841
21	0xbf7b31ba	-0.9812275
22	0xbf4f32b8	-0.80936766
23	0x3e89c5d0	0.2690873
24	0xbe182131	-0.14856412
25	0xbf4c92d6	-0.79911554
26	0xbf8bb1ae	-1.0913599
27	0xbf02a71a	-0.51036227
28	0xbf3a4f32	-0.7277709
29	0xbf3f790c	-0.7479408
30	0xbf5debc0	-0.8668785
31	0x3e74c718	0.23904073
32	0xbdc2e804	-0.0951691
33	0xbe9e9275	-0.30971113
34	0xbf0acac6	-0.5421566
35	0x3eed8313	0.46389064
36	0x3ebdd74b	0.37078318
37	0xbe2ccba9	-0.16874565
38	0xc017a488	-2.3694172
39	0xbf4613c3	-0.77373904
40	0xbf17c29c	-0.59281325
41	0xbe4ba6c9	-0.19887842
42	0xbfab6367	-1.338971
43	0xbf5524a1	-0.83259016
44	0xbf0a3932	-0.53993523
45	0xbf206551	-0.62654597
46	0xbf7dee9d	-0.9919222
47	0xbfaf056a	-1.3673527
48	0xbfa446c8	-1.2834101
49	0xbe9294ad	-0.28629056
50	0xbec0b9d0	-0.37641764
51	0xbdec9a34	-0.115528494
52	0x3e1062b0	0.14100146
53	0x3f1a8309	0.60356194
54	0xbe4a30bb	-0.19745152
55	0x3eabbf1b	0.3354424
56	0xbe1d2a5b	-0.15348189
57	0x3f23aa3f	0.6393165
58	0xbe0d45c3	-0.13796143
59	0xbeaa7321	-0.3329096
60	0xbf242b8a	-0.64128935
61	0xbd6dc4c5	-0.058048982
62	0xbe347425	-0.1762243
63	0xbf312933	-0.6920349
64	0xbf68305b	-0.90698785
65	0xbfa72540	-1.3058243
66	0xbf262d5c	-0.6491296
67	0xbdde8211	-0.10864652
68	0xbf5f7606	-0.87289464
69	0xbf426172	-0.7592994
70	0xbf7958af	-0.97400945
71	0xbf644d47	-0.89180416
72	0xbeb37ff7	-0.35058567
73	0xbfac0c6e	-1.3441293
74	0xbf3cd618	-0.7376418
75	0xbf30e464	-0.69098496
76	0x3ed978f4	0.42475092
77	0xbdf7e4c6	-0.12104182
78	0xbf9586f3	-1.1681808
79	0xbf777e3c	-0.96676993
80	0xbf0931f7	-0.53591865
81	0xbe8d1163	-0.27552328
82	0x3e3693c0	0.178298
83	0xbf903c82	-1.1268466
84	0xbf05b10d	-0.52223283
85	0x3f418da0	0.7560673
86	0xbe817347	-0.25283262
87	0x3d26262d	0.04056375
88	0x3d14befa	0.036314942
89	0xbf730dac	-0.94942737
90	0x3f01a5c2	0.5064355
91	0xbf4c1a25	-0.79727393
92	0xbf711381	-0.94170386
93	0xbf4b5fb9	-0.79442936
94	0xbf37588a	-0.71619475
95	0xbf614528	-0.8799615
96	0xbe0ec504	-0.13942343
97	0xbeda684b	-0.42657694
98	0xbf3feeb1	-0.7497359
99	0xbe8a329e	-0.26991743

layers.1.weight f4 [50, 100]
0	0xbf2ceeea	-0.67552054
1	0xbe468491	-0.19386508
2	0xbec505a5	-0.3848087
3	0xbead9485	-0.33902374
4	0x3909f17d	0.000131553
5	0xbe8698f9	-0.26288584
6	0xbe935f5c	-0.2878369
7	0xbc653f4f	-0.013992145
8	0xbf08c4aa	-0.53425086
9	0xbd986dd8	-0.07442826
10	0xbdca7790	-0.09886086
11	0xbf176526	-0.59138715
12	0xbeda0a8f	-0.4258618
13	0xbe96f78d	-0.2948574
14	0xbf2049bd	-0.62612516
15	0xbf092886	-0.5357746
16	0xbe240d9a	-0.16020814
17	0x3c17620c	0.009239685
18	0xbef9292b	-0.4866422
19	0xbe2986fc	-0.16555399
20	0xbeecccf8	-0.4625013
21	0x3dc72741	0.09724284
22	0xbeebb329	-0.46035126
23	0xbecd89e1	-0.40144256
24	0xbee30b35	-0.44344488
25	0xbe1a5572	-0.15071657
26	0xbe0ff829	-0.1405951
27	0xbf14e67f	-0.5816421
28	0xbbf885f9	-0.00758433
29	0xbe59771b	-0.21236841
30	0xbeff0178	-0.49805808
31	0xbf2d4d14	-0.67695737
32	0xbf181523	-0.5940725
33	0xbf1a8da1	-0.6037236
34	0xbec0e953	-0.37678012
35	0xbeddd46a	-0.43326122
36	0xbefdf673	-0.49602088
37	0xbe67e3e7	-0.22645532
38	0xbf5a60ec	-0.8530414
39	0x3e0ac15a	0.1355032
40	0xbef7c02c	-0.48388803
41	0xbee4e331	-0.44704583
42	0xbf143fa9	-0.5790964
43	0xbeab0011	-0.33398488
44	0xbe5bf2c9	-0.21479334
45	0xbd11f7f4	-0.035636857
46	0xbea19ba2	-0.3156405
47	0xbd6875f6	-0.05675312
48	0xbe9bfab3	-0.30464706
49	0xbdb2320b	-0.08700951
50	0xbeabfee2	-0.33592898
51	0xbf05d252	-0.5227405
52	0xbe97c3c2	-0.2964154
53	0xbed6ed72	-0.4197803
54	0xbe9cf01a	-0.30651933
55	0xbeb8cddf	-0.36094567
56	0xbedecee5	-0.43517223
57	0xbeb24a83	-0.34822473
58	0xbd532b84	-0.05155517
59	0xbe63d65a	-0.22249737
60	0xbe403457	-0.18769966
61	0xbed5eee9	-0.41783836
62	0xbea87117	-0.3289878
63	0x3e9a6b51	0.3016
64	0x3cdd4057	0.027008219
65	0xbd2b86d9	-0.041876648
66	0xbd471e13	-0.048612665
67	0x3d974f2a	0.07388146
68	0xbf1bb7c1	-0.6082726
69	0xbf112c39	-0.56708103
70	0xbeb34db7	-0.3502023
71	0xbed57d99	-0.41697386
72	0xbea51c2b	-0.32248053
73	0xbe9d06ca	-0.30669242
74	0xbe458435	-0.19288714
75	0xbe265184	-0.16242033
76	0xbdb9dafc	-0.09074971
77	0xbe2a3ee6	-0.16625556
78	0xbeb9ee4b	-0.36314616
79	0xbf005fd3	-0.50146216
80	0x3cda4411	0.026643785
81	0xbe817661	-0.25285628
82	0xbe75b668	-0.23995364
83	0xbf29c633	-0.66318053
84	0xbe36de61	-0.17858268
85	0xbefccf34	-0.49376833
86	0x3e334ca7	0.1750971
87	0xbf0c793e	-0.548725
88	0xbd73fd57	-0.059567776
89	0xbe4d8d09	-0.20073332
90	0xbec30eaa	-0.38097125
91	0xbe6f2c46	-0.23356733
92	0xbedf2ea5	-0.43590274
93	0xbf3afe66	-0.7304443
94	0xbe94195b	-0.28925595
95	0xbf123e4a	-0.57126296
96	0xbf0097d5	-0.5023168
97	0x3e386aed	0.18009539
98	0xbe8f1783	-0.27947626
99	0xbdaae496	-0.083443806
100	0x3e64b029	0.22332825
101	0x3e5fc094	0.21850806
102	0x3ea77267	0.3270447
103	0x3d5f36e7	0.05449572
104	0xbd2bddd4	-0.0419596
105	0x3e37741b	0.17915384
106	0x3eb54940	0.35407448
107	0x3e3572ca	0.1771957
108	0x3ec53410	0.38516283
109	0x3ed308d2	0.41217667
110	0x3e714a5e	0.23563525
111	0xbe22cc5a	-0.15898266
112	0x3e816e57	0.25279495
113	0xbe3005df	-0.1718974
114	0x3df22dce	0.11825143
115	0x3eb2dc21	0.3493357
116	0x3e7d3d97	0.24730526
117	0x3ed0ea35	0.40803686
118	0x3d7327ae	0.059364013
119	0xbd3f7901	-0.046746258
120	0x3f15a340	0.58452225
121	0x3c1ececa	0.009692857
122	0x3e1eb179	0.15497388
123	0x3ef68b93	0.48153362
124	0x3b08651e	0.0020812224
125	0x3ddbcdec	0.10732636
126	0xbd265b9d	-0.040614713
127	0xbdc4759d	-0.095927455
128	0xbda9a0e7	-0.08282643
129	0xbd6a7fc0	-0.05725074
130	0x3ce0450c	0.027376674
131	0x3e638598	0.2221893
132	0x3e04a644	0.1295405
133	0x3efd995c	0.49531066
134	0x3ed9f88e	0.42572445
135	0x3ebcd6a5	0.3688251
136	0x3e991bc4	0.29903996
137	0x3d5f9f1b	0.054595094
138	0xbe4c0487	-0.19923602
139	0xbdff22dc	-0.12457821
140	0x3de273b1	0.11057223
141	0x3cdacd6a	0.026709277
142	0xbda3b9af	-0.07994401
143	0x3e10e03f	0.14148043
144	0x3e8b2366	0.27175444
145	0x3d64ab09	0.055827174
146	0x3e132a9d	0.14371724
147	0x3e86ee92	0.2635389
148	0x3d3cc161	0.046082858
149	0x3df67143	0.12033322
150	0x3e9f6292	0.3112989
151	0x3e45c09a	0.19311753
152	0x3edfd8c2	0.4372006
153	0x3d118ab7	0.03553268
154	0x3ee17158	0.44031787
155	0x3e09fa2a	0.13474336
156	0x3e3fd920	0.1873517
157	0x3e5de6af	0.2167003
158	0x3cf661c1	0.03007591
159	0x3e8fa252	0.28053528
160	0x3dd4ea46	0.103962466
161	0x3e2f2e39	0.17107476
162	0x3d477f53	0.04870541
163	0xbd02cb56	-0.031932198
164	0xbd0baf89	-0.03410295
165	0x3d105e56	0.035246216
166	0x3d995104	0.07486156
167	0x3e9cb852	0.30609375
168	0x3e7a109c	0.24420398
169	0x3e4b8b54	0.19877368
170	0x3deabf90	0.11462319
171	0x3e45ced2	0.19317177
172	0x3eb1a234	0.34694064
173	0x3dd3e14d	0.10345707
174	0x3d0b7803	0.03405
175	0x3e8ba327	0.27272913
176	0xbe3a449f	-0.1819024
177	0xbd2ffe94	-0.042967394
178	0x3cfca506	0.030840408
179	0x3d9ba5f4	0.076000124
180	0xbd10372e	-0.035208873
181	0x3e0cbc42	0.1374369
182	0x3e920ca5	0.28525272
183	0xbd3c9198	-0.046037287
184	0x3d44b613	0.048025202
185	0x3e8fea01	0.28108218
186	0x3def2d86	0.11678605
187	0x3dabda01	0.0839119
188	0x3eba803b	0.36425957
189	0xbdff0c61	-0.12453533
190	0x3dbe91b2	0.09305133
191	0xbdae4e11	-0.08510984
192	0xbdb05bf7	-0.08611291
193	0xbdc052c6	-0.09390788
194	0x3c8555c5	0.01627625
195	0x3d7cfe6a	0.061766066
196	0x3ee3dea8	0.4450581
197	0x3d9e4b00	0.07729149
198	0xbda9ea21	-0.0829661
199	0x3e13b6e4	0.14425236
200	0xbe276f3a	-0.16351023
201	0xbd378b47	-0.04481056
202	0xbcfa16f8	-0.03052853
203	0xbe9c0004	-0.30468762
204	0xbe23ec4a	-0.16008106
205	0x3d622b69	0.05521718
206	0x3cd82600	0.026385307
207	0x3c9f44df	0.01944202
208	0xbb56e5b9	-0.0032790734
209	0xbc15efff	-0.009151458
210	0xbe520860	-0.20511007
211	0xbe54ac50	-0.20768857
212	0x3c60f583	0.01373041
213	0xbd09c5e1	-0.033635978
214	0xbd3c9607	-0.046041515
215	0xbda12bff	-0.0786972
216	0xbdefd939	-0.11711354
217	0x3cd55748	0.026042596
218	0xbe4cf4fb	-0.20015328
219	0x3d470e4a	0.04859761
220	0x3e5b3c07	0.21409617
221	0xbbaf1bc9	-0.0053438884
222	0xbc995714	-0.01871828
223	0xbd7c98dc	-0.061669216
224	0xbd045387	-0.03230622
225	0x3e1b1266	0.15143737
226	0xbcbbb462	-0.022913162
227	0xbe213af5	-0.15745147
228	0xbd787073	-0.060654115
229	0xbed77cce	-0.42087406
230	0xbdd2b6d0	-0.10288775
231	0xbcd13d25	-0.025541851
232	0xbdc8eb59	-0.09810514
233	0xbd689143	-0.056779157
234	0x3da5f192	0.081027165
235	0x3d99698c	0.074908346
236	0xbe0ae8b6	-0.13565335
237	0xbdcddb6d	-0.10051618
238	0xbe05e365	-0.13075025
239	0xbe43e738	-0.19131172
240	0x3c7f0467	0.015565014
241	0xbe787bdd	-0.24266
242	0xbde13337	-0.109960966
243	0xbe7f985e	-0.24960467
244	0xbd96e600	-0.07368088
245	0xbdafc9f7	-0.085834436
246	0xbde36ef4	-0.11105147
247	0xbeac0bcf	-0.3360276
248	0xbde9fdf4	-0.11425391
249	0xbd678986	-0.056527637
250	0xbde936ac	-0.11387381
251	0xbd9f55c1	-0.07780028
252	0xbd1db824	-0.03850569
253	0xbde79d4e	-0.113093
254	0xbe16a4c4	-0.1471129
255	0x3cca1612	0.024668727

layers.1.bias f4 [50]
0	0xbed6ba2c	-0.41938913
1	0x3de72540	0.11286402
2	0xbe589f1a	-0.21154442
3	0x3d058ba4	0.032603875
4	0x3ef964b9	0.48709658
5	0xbda5ed95	-0.08101956
6	0x3e707bef	0.23484777
7	0x3f077c72	0.52924263
8	0xbead4c2f	-0.33847186
9	0xbdcf799c	-0.10130617
10	0xbd750a47	-0.059824254
11	0x3e5bf44e	0.21479914
12	0x3ecdbfc1	0.4018536
13	0x3eca3bc8	0.39498734
14	0x3dc13f9c	0.09435961
15	0xbf6f209c	-0.9340913
16	0x3f4e59e3	0.80605906
17	0xbeb7def5	-0.3591229
18	0x3f54416c	0.82912326
19	0x3f6078a1	0.87684065
20	0xbe63f18c	-0.22260112
21	0x3f4e3643	0.80551547
22	0x3c50d1cb	0.012745331
23	0x3f28f3e1	0.6599713
24	0x3c06a3d9	0.008217775
25	0xbe8270ff	-0.25476834
26	0xbeae5b8a	-0.34054214
27	0x3f3895a6	0.72103345
28	0x3f87db4c	1.0613799
29	0xbf541490	-0.82843876
30	0xbd700aac	-0.058603927
31	0x3dba876b	0.0910786
32	0xbdf7431c	-0.12073347
33	0x3d818337	0.06323855
34	0x3f282f4e	0.6569718
35	0x3e8e12ff	0.27748868
36	0xbe90e26b	-0.28297743
37	0x3dff2ad7	0.12459343
38	0xbe3dd5d0	-0.18538594
39	0x3e27e620	0.1639638
40	0x3f80ce60	1.0062981
41	0x3e055941	0.13022329
42	0x3ea661c9	0.3249648
43	0x3f0ad433	0.5423004
44	0x3cb6a1ac	0.022293888
45	0xbefc1c33	-0.49240264
46	0x3e7de675	0.24794944
47	0xbe596ab5	-0.21232112
48	0x3f60eed6	0.87864435
49	0x3eb642fc	0.3559798

layers.2.weight f4 [2, 50]
0	0xbea145b2	-0.31498486
1	0x3cc01765	0.023448655
2	0xbc9db865	-0.019252965
3	0x3db208dd	0.08693097
4	0x3e008a3e	0.12552735
5	0xbc128971	-0.008943901
6	0x3e48450a	0.19557586
7	0xbe8cd5af	-0.27506778
8	0x3e2583f7	0.16163622
9	0xbc87ac41	-0.01656163
10	0x3d67021e	0.056398503
11	0x3ce36d69	0.027762132
12	0x3d2a5467	0.0415844
13	0x3e4151a8	0.18878806
14	0xbba71fa2	-0.0051002065
15	0x3eb1971d	0.34685603
16	0xbe01cbe2	-0.12675431
17	0x3efa9478	0.48941398
18	0xbe870fc9	-0.2637923
19	0xbecb9a43	-0.3976613
20	0x3db36251	0.08758987
21	0xbeb64f87	-0.3560755
22	0xbce793cb	-0.028268715
23	0xbec16c56	-0.37777966
24	0xbc52b646	-0.01286084
25	0xbe9df6c4	-0.3085233
26	0xbe0edad2	-0.13950661
27	0x3ea10a30	0.31453085
28	0xbdd149a7	-0.10219126
29	0x3ef7c3b6	0.48391503
30	0xbd17100e	-0.036880545
31	0x3c0cd7e1	0.008596391
32	0x3987e523	0.00025919927
33	0x3d8066a4	0.06269577
34	0xbed43181	-0.41444018
35	0x3e7b9d08	0.24571621
36	0xbe2f242b	-0.1710364
37	0x3c09e915	0.0084173875
38	0xbe697c4c	-0.22801322
39	0x3c152b38	0.009104542
40	0xbe316b87	-0.17326175
41	0x3c968dba	0.018378127
42	0xbd10eacf	-0.03538018
43	0x3cc73613	0.024317777
44	0x3ad8c243	0.0016537387
45	0x3eba0631	0.3633285
46	0x3d57a2ec	0.05264561
47	0xbca41c97	-0.020033164
48	0xbed18022	-0.4091807
49	0x3e204a4c	0.15653342
50	0x3dfb7869	0.12278826
51	0x3c6249ae	0.013811512
52	0x3daf6704	0.085645705
53	0x3dba75a1	0.09104467
54	0xbbea86bd	-0.0071571753
55	0xbb314fea	-0.002705569
56	0xbe1fb7b5	-0.15597422
57	0x3dc71541	0.09720851
58	0xbe81d6bd	-0.25359145
59	0x3bc8f0ce	0.006132222
60	0x3e1e484c	0.15457267
61	0x3c91bd10	0.017790347
62	0xbe3d497f	-0.18485068
63	0xbc9ac633	-0.018893337
64	0x3c8f9788	0.01752831
65	0x3f1481b7	0.5801043
66	0xbe3bf539	-0.18355264
67	0xbf00c62c	-0.50302386
68	0xbe8e90c1	-0.27844813
69	0x3ce85f98	0.028365895
70	0x3df50a8e	0.11964904
71	0xbe7a7b4a	-0.24461094
72	0x3ca0febd	0.019652719
73	0x3f29f3d8	0.663877
74	0xb995fcb6	-0.0002860778
75	0x3e67a5af	0.22621797
76	0x3e3e69b0	0.18595004
77	0xbede174f	-0.43377158
78	0xbe54bcb6	-0.20775113
79	0x3e409f3a	0.1881074
80	0xbb668b98	-0.003517842
81	0x3bf1314d	0.0073606134
82	0x3dcfa2db	0.10138484
83	0x3e1fbb81	0.15598871
84	0xbe3ad71f	-0.18246125
85	0xbe8b1d0a	-0.27170593
86	0xbdae40ee	-0.08508478
87	0x3cc601ce	0.024170782
88	0xbc18c64c	-0.009324621
89	0x3c62cf31	0.013843344
90	0x3ec0d925	0.37665668
91	0x3c909727	0.0176502
92	0xbd9f13c2	-0.077674404
93	0x3e113ff7	0.14184557
94	0xba03c498	-0.0005026548
95	0xbe1ec0eb	-0.1550328
96	0x3d463d7b	0.048398476
97	0xbd8fd935	-0.07023851
98	0x3eb0b66a	0.3451417
99	0x3eb78b66	0.3584854

layers.2.bias f4 [2]
0	0xbff73e30	-1.9315853
1	0x3e2d039c	0.16895908
