notebooks/paper-plots/models/guided-w1000.pt (torch, 27411 bytes, 6 tensors)

layers.0.weight f4 [100, 10]
000000 8b f5 6a be a5 a2 49 bf 17 89 98 be 19 7d 00 3f
       -0.2294523 -0.787638 -0.2979209 0.50190884
000010 32 95 c0 3e 93 25 da be a5 f2 91 3f 4b 2f ac 3e
       0.37613827 -0.42606792 1.1402174 0.33629832
000020 38 e9 0e bf 4f 00 89 bf 51 5c 07 bd 20 75 c1 3c
       -0.55824614 -1.0703219 -0.033047024 0.02361542
000030 c0 7a 27 bd 42 1d 46 3d 1c 8c fb bd 7f 54 ab 3d
       -0.040888548 0.048367746 -0.12282583 0.08365726
000040 2f 41 15 3e 3e 42 8d bb 33 7c 22 bd 0a 13 68 bd
       0.14575647 -0.004310875 -0.039669227 -0.056658782
000050 ae 71 a5 be 82 8a 6d bf 90 b3 1b be 7d e9 7b 3e
       -0.32313293 -0.9278947 -0.15205216 0.24600787
000060 5f c8 8e 3e b2 75 10 3e 78 7c 04 3e a8 2b f2 3d
       0.27887246 0.14107397 0.12938106 0.11824733
000070 3c a3 28 be 9f a3 c8 3c 88 6d 0c 3e 59 7d 31 3f
       -0.16468519 0.024492083 0.13713658 0.6933189
000080 6a 6c 00 3f 6b 4a 9a 3e 7d e2 2c 3d eb 9d 96 3e
       0.50165427 0.301349 0.042208184 0.29417357
000090 d5 33 3c 3e 8b d6 28 3f c7 04 93 bd 53 be 42 be
       0.18379147 0.65952367 -0.071786456 -0.19017915
0000a0 dc da 85 3e ed 4e 41 c0 8c 07 59 bf ac a5 85 be
       0.2614354 -3.0204422 -0.8477714 -0.2610296
0000b0 30 94 29 bf e9 49 91 be c1 5c 00 40 3b 8d 5e 3f
       -0.6624174 -0.283767 2.0056612 0.8693425
0000c0 63 3f 69 bf f9 4a 90 bd 5c 0b 26 bf b3 22 a1 be
       -0.91112345 -0.0704555 -0.64861083 -0.31471786
0000d0 cc e5 72 be 8b 65 33 be 1a e7 b9 3e 26 b7 33 be
       -0.23720473 -0.17519204 0.3630913 -0.17550334
0000e0 a7 69 52 bf 59 fb 4c bf 5f db 05 3f e0 f7 3b be
       -0.8219246 -0.80071026 0.5228786 -0.18356276
0000f0 0e 27 07 3e 02 1e 25 3f 8d 7f 2d 3f 0f c7 d6 3e
       0.13198492 0.64498913 0.6777275 0.41948745
000100 b5 03 0d 3e 92 50 dc 3e 63 ca a9 3e 24 49 54 3f
       0.13770945 0.4303022 0.3316222 0.82924104
000110 f8 8c 76 bd b3 0b 76 be 81 a1 23 3c 6c 94 89 3e
       -0.060193032 -0.240279 0.009987236 0.2687105
000120 3d 67 01 3e 16 26 6c 3c 0f 96 99 bc c7 a8 ba 3d
       0.12637039 0.014413377 -0.018748311 0.09114223
000130 35 0e a8 3e e2 14 6c bd a3 a0 8c 3e 67 1b c1 bd
       0.3282334 -0.057637103 0.27466306 -0.09429055
000140 8f 26 81 bd d7 0e 5a bf de 82 02 3e 99 6d df bc
       -0.063061826 -0.85178894 0.12745234 -0.02727394
000150 52 fa 7b 3e f7 7c bc bd 6e 1c 02 3e b6 52 8c 3e
       0.24607208 -0.09203523 0.12706158 0.27406853
000160 2d 4a 4b 3d bf 57 e5 3d de f4 c7 3d 54 72 70 3f
       0.049631286 0.11198377 0.097635016 0.9392445
000170 03 41 14 3e 82 19 e6 3e 4e 87 a0 3e ce 99 03 be
       0.14477925 0.44941336 0.3135323 -0.1285164
000180 ce 60 42 3f 00 b9 ec 3f 3c 41 eb 3e 95 cc d0 bd
       0.7592896 1.8493958 0.45948207 -0.10195271
000190 91 4b 07 3e 8b 49 c5 be 75 ab 91 bd 4d f6 55 bd
       0.1321242 -0.3853267 -0.07112781 -0.052236844
0001a0 d1 84 0e 3d 1e 79 a3 3d 91 a7 2e bd e9 50 1e bd
       0.034794632 0.07982086 -0.042640273 -0.03865138
0001b0 3e 39 65 be 3c 91 f7 3c f9 09 39 3f 0c 49 d0 bf
       -0.22385117 0.03022062 0.7228084 -1.6272292
0001c0 ab 27 0a bf 79 d1 81 3e e9 56 3a 3d 0b d4 87 3f
       -0.5396678 0.25355127 0.04549304 1.0611585
0001d0 9a 6a 34 3e 98 4e 1d 3e 86 0d 16 3e da ff b5 3f
       0.1761879 0.15362012 0.14653596 1.4218705
0001e0 69 42 0d bd 36 f6 17 be 79 7a de be 7d 5c 9a be
       -0.03448716 -0.14840016 -0.43452814 -0.30148688
0001f0 da 61 ca 3d b4 84 2b be cd 77 8e 3e 9e 7e db 3e
       0.09881945 -0.16749841 0.27825776 0.4287004
000200 a7 70 67 be 13 8b e9 3e 58 94 47 be 6d 6a 1a be
       -0.22601567 0.45613918 -0.19490182 -0.1507966
000210 37 c3 87 be e2 af bb 3c 07 3b d0 bd a2 57 6f 3e
       -0.26516125 0.022911016 -0.101675086 0.23373273
000220 a8 06 b4 3e ed 6a 85 be 52 7a 26 3e 79 f5 5d be
       0.35161328 -0.2605814 0.16257599 -0.21675672
000230 dc 90 56 3f c3 b0 7d 3e 02 71 c2 3e d9 77 5c be
       0.8381479 0.2477446 0.37976843 -0.21530093
000240 09 e2 59 bd 15 61 0a 3f 2c c1 a0 3e a5 53 2c 3f
       -0.05319408 0.54054385 0.31397378 0.6731513
000250 ba 4d 9a be c9 86 da be 55 ff bc 3f 30 2f 80 be
       -0.30137426 -0.42680958 1.4765421 -0.25036
000260 6b bb 84 bf 17 6c 02 3f a7 cc 1c be 62 7e 3b 3f
       -1.0369695 0.5094618 -0.15312444 0.7323972
000270 e0 1f fc 3e 3b 8c e1 3e 51 12 d2 3e 02 0d 23 3f
       0.4924307 0.440523 0.410296 0.63691723
000280 6f 86 5e be d0 fc 86 be 40 19 9c bd 91 f9 f5 3c
       -0.2173097 -0.26364756 -0.076220036 0.03002623
000290 4e 67 39 be fc 8f 88 3e 3a 8c 91 3d a2 c9 e4 3d
       -0.18105814 0.2667235 0.07106824 0.11171271
0002a0 54 58 2c be bb b3 a3 be 2c a6 32 3e 2c 96 7a be
       -0.1683057 -0.3197306 0.17446202 -0.24471349
0002b0 27 ea fe bd 6a 0e 1d bb c9 f4 e3 bc 7b ec 05 3e
       -0.12447005 -0.002396489 -0.027826684 0.13078491
0002c0 50 59 76 3e 0c 9d 87 be b8 f6 5d 3e 7c 76 b8 bc
       0.24057508 -0.26487005 0.21676147 -0.022517435
0002d0 29 84 9e 3e ee d3 7a 3e 47 2a 58 be 79 21 b1 be
       0.30960205 0.24494907 -0.21109878 -0.3459585
0002e0 59 15 66 be 0f 3c 30 bf 3b cf 82 bd 42 c1 c4 3e
       -0.22469081 -0.6884164 -0.06387182 0.38428694
0002f0 1a 08 a2 3e 76 fb 69 be ae 75 de be b0 19 ad be
       0.31646806 -0.22849831 -0.43449157 -0.3380866
000300 b8 af 63 bf d4 f9 49 bf a7 a0 e5 be e8 2c c2 be
       -0.8894 -0.7889683 -0.4484913 -0.37924886
000310 c7 f2 67 3e 6f 54 47 3f 0f 26 dd 3d 11 e2 10 3e
       0.22651206 0.7786321 0.10798275 0.14148737
000320 5a 6e 29 bf c4 8d c2 3e 13 c5 9c be c0 b9 da be
       -0.6618401 0.37998784 -0.30619106 -0.4271984
000330 c2 11 be be b2 48 e6 be c0 f1 89 be f5 dd b3 bf
       -0.37122923 -0.44977337 -0.26942253 -1.4052111
000340 b0 0b c3 be 86 6a 50 be 33 f0 08 3e 04 a8 8b 3e
       -0.38094854 -0.20353135 0.13372879 0.27276623
000350 6b 9c 6e 3e 45 79 86 bd d6 c6 4a bd fd 67 b1 bb
       0.23301856 -0.06566099 -0.04950603 -0.0054140077
000360 ff 29 2e 3d 07 55 b0 3e 1c 7e 8d bc ec 76 4b 3c
       0.04252052 0.3443987 -0.017272048 0.01241849
000370 47 c4 14 3e 79 ea 99 be f6 25 57 bd 39 ed ff bc
       0.14527999 -0.300617 -0.052526437 -0.031241046
000380 7f 4e 8a 3d 45 6c 89 bc 4d 8d 94 be e8 89 bb be
       0.06753253 -0.01677526 -0.29014054 -0.36628652
000390 10 99 51 be ba c9 a2 3b cd e8 b8 3f 5d 2f 4a bf
       -0.20468545 0.0049678953 1.4446045 -0.7897852
0003a0 76 d0 77 be 09 68 b5 be 6d ff 62 3f e0 79 c9 be
       -0.24200615 -0.35430935 0.88671 -0.39350796
0003b0 e9 2a 73 3f 21 68 a0 bd 06 bb 82 bf 66 46 82 3b
       0.9498735 -0.07832361 -1.0213325 0.0039756773
0003c0 63 86 e0 3d 89 07 8d 3f f8 da 9d 3e de 3d 8f 3d
       0.10963132 1.1017925 0.30831122 0.06994222
0003d0 0b 3c 39 3d b6 7d 12 3c 52 75 1d bd 8c 7f b3 3e
       0.045223277 0.008941105 -0.038441963 0.35058248
0003e0 4c fa fb bd 4e 57 27 be e1 27 5c 3f 1e f9 85 bf
       -0.123036 -0.16341898 0.8599835 -1.046665
0003f0 ca 2f 61 bf 8d 64 4b 3f 40 b5 3a 3f 81 3e cc bd
       -0.87963545 0.79450303 0.72932816 -0.09972859

layers.0.bias f4 [100]
000000 ab ee 62 bf f6 e0 5a 3d 7e 8a 08 bf de 37 3f 3f
       -0.8864543 0.053437196 -0.5333632 0.7469462
000010 d0 98 2e bf 6b 45 0e be 30 3b c5 be de b3 40 3f
       -0.68201923 -0.13893668 -0.3852172 0.75274456
000020 42 8d 89 bf 06 ef f1 be 2e 44 e9 be ab d2 bc bf
       -1.0746233 -0.47252673 -0.4555983 -1.4751791
000030 b3 08 06 bf 0e 66 c1 be 6a fa 9e bd 4c 93 46 3f
       -0.52357024 -0.37773174 -0.077626064 0.7756851
000040 d4 9c bd be 31 fe df be ab 39 e2 3c 50 84 c3 be
       -0.37033713 -0.4374862 0.027615389 -0.38186884
000050 69 6e 0b 3f a2 5a 08 3f 23 ef 2e be ad 80 c7 bf
       0.5446535 0.53263295 -0.17083411 -1.5586144
000060 62 84 01 3f 5a 44 cf be 7f 64 a5 3d 7c b2 90 bd
       0.50592625 -0.40481836 0.08075809 -0.07065293
000070 db 9b e2 be b0 98 f7 be 19 0e 68 3e 56 8b 37 bf
       -0.44259533 -0.4835868 0.22661628 -0.71696985
000080 0e 3a c7 3d bf 7d a6 bf b0 e5 5b bf 22 03 36 bf
       0.0972787 -1.3007125 -0.8589735 -0.7109853
000090 cb 13 11 bf 7c 5b 9f 3d 45 f5 fe 3d b4 76 fc 3d
       -0.56670827 0.07781121 0.12449125 0.12327328
0000a0 2e fa 25 be fe fb 8d 3d 46 84 c7 bf 96 df 10 bf
       -0.16208717 0.06932829 -1.5587242 -0.56591165
0000b0 00 6a d6 3d 6e 5e 46 bf ab 85 0a 3a d1 54 0e bd
       0.10469437 -0.7748784 0.00052842003 -0.034748856
0000c0 95 1d 88 3e b8 ce 92 bf 8a 0c 02 bf 90 28 e4 3e
       0.2658507 -1.1469336 -0.50800383 0.44562197
0000d0 3f fb 96 bf 59 01 d6 be 39 3a 84 bc f3 7a 37 3d
       -1.1795424 -0.41797903 -0.016141044 0.044794988
0000e0 4a 13 16 be 7f 37 86 3c 53 f7 de be 4f 5b c1 3e
       -0.14655796 0.016383884 -0.43548068 0.37764975
0000f0 21 0f a3 bf 76 46 6e bf 51 fb 72 be 29 bb 53 3e
       -1.2738992 -0.93076265 -0.23728682 0.20676865
000100 22 4c f5 3e 24 45 ac be ce 3d 6e be c4 cc 2a be
       0.47909647 -0.336465 -0.23265764 -0.16679674
000110 e5 1d 41 be 82 e6 48 bf a7 eb 54 3e 3f 7e 29 be
       -0.1885906 -0.78476727 0.20793019 -0.16552065
000120 fa 75 b0 3e b2 5e d4 be 73 03 58 3f c7 f5 a0 bf
       0.3446501 -0.41478497 0.84380263 -1.2575005
000130 b9 33 37 bf 6e 8b a1 bf 66 b2 13 bb bb 02 b5 be
       -0.715633 -1.2620676 -0.0022536754 -0.35353646
000140 df cd 8c bf ad 01 76 bf c1 6d 04 bf c9 d5 cd be
       -1.1000327 -0.9609631 -0.5172997 -0.40202168
000150 66 5d f5 bf 38 7c df bd 30 03 d7 be c8 a7 d3 bf
       -1.9169128 -0.10912365 -0.4199462 -1.6535578
000160 1c a0 bf bd a6 e2 ea be 43 a4 bb 3e df 5c 11 bf
       -0.0935671 -0.45876044 0.3664876 -0.56782335
000170 92 35 27 3f 08 02 90 be 55 1f a3 3e e3 4b ac be
       0.65316117 -0.2812655 0.31859842 -0.33651647
000180 2f f2 d6 3d e8 8f 9a bf b6 93 c7 bf fe 1a 74 be
       0.104954116 -1.2075167 -1.5591953 -0.23838422

layers.1.weight f4 [50, 100]
000000 80 9b 51 be dc a4 ac 3e 30 53 99 3c 70 1a 83 3f
       -0.20469475 0.33719528 0.018716425 1.0242443
000010 47 5c 3f bf ec 90 a0 3e 48 7c 49 3f 58 b1 42 3f
       -0.7475018 0.31360567 0.78705263 0.76051855
000020 bf 13 21 3e b4 c8 90 3f 32 6f d3 bd 52 04 61 bf
       0.15730189 1.131125 -0.10323943 -0.8789722
000030 31 63 01 3f e6 85 04 3e 71 52 1f 3f 8f 37 39 3e
       0.5054198 0.12941703 0.6223517 0.180876
000040 5d 87 6b 3e ca 0e 0e bc b1 b7 e4 3e 79 b1 3e 3e
       0.23000856 -0.008670518 0.44671395 0.18622388
000050 40 91 dc bd 4e fe 59 3f b0 91 d3 bb 21 3f 35 bf
       -0.10769892 0.85153663 -0.0064565763 -0.7079945
000060 2e 54 54 3f 0d cd 8c be e7 85 81 3b e4 31 b1 3e
       0.8294095 -0.2750019 0.00395273 0.34608376
000070 a1 ca af 3e ec 81 af be 81 86 15 bd 81 54 1a 3f
       0.3433428 -0.3427881 -0.036505226 0.6028519
000080 0f 79 7a bf ac d8 50 3e 26 00 ea bd bd 84 52 3e
       -0.9784097 0.20395154 -0.114258096 0.20558448
000090 0d cd 0c 3f 5c 22 23 3e 5c 83 35 3f 68 f2 64 bc
       0.5500038 0.15931076 0.70903563 -0.01397381
0000a0 18 ef 95 bd f7 d3 54 3e 7d 22 eb be 4c 60 38 3e
       -0.07320994 0.20783983 -0.4592475 0.18005484
0000b0 03 29 29 3f 81 e9 a9 3d ce 35 67 3f 11 df 75 3f
       0.66078204 0.082964905 0.90316474 0.960435
0000c0 c6 e7 30 3f c6 a5 97 bf 12 8a d7 bd e8 25 b0 be
       0.6910366 -1.1847465 -0.10524382 -0.3440392
0000d0 55 c6 94 bf 9f 27 45 bc 76 5f 03 3f 17 9a d1 3e
       -1.1623026 -0.012033372 0.51317537 0.40937874
0000e0 bf db 77 bd 0f 14 0c be fd 79 62 3d e7 fe 17 3f
       -0.0605123 -0.13679527 0.05529212 0.59373325
0000f0 01 5c 35 bf 35 e8 26 3e c3 f9 99 3f f8 05 04 3f
       -0.7084351 0.16299517 1.2029346 0.5157161
000100 3d 66 f4 3e d9 f3 3c be 90 b0 3f bf 68 94 9f 3e
       0.47734252 -0.18452395 -0.7487879 0.31167912
000110 30 25 35 3f 12 1b 1d 3e fa 3a 61 3e a8 a8 05 3e
       0.7075987 0.15342358 0.21995154 0.13052619
000120 65 bc 42 3f 4f 9e ab be 7e 39 09 3f 84 06 81 bf
       0.7606872 -0.33519217 0.5360335 -1.0080113
000130 32 7e bc 3e 69 31 1e 3e 48 82 7b 3e d5 fe be 3e
       0.3681503 0.15448536 0.24561417 0.37303796
000140 ab da ed bf 14 6a 0c bf 51 fb d4 3e 33 a3 6a 3e
       -1.8582357 -0.5484936 0.4159799 0.22913818
000150 07 f8 3d be d6 64 13 3f 0e da 26 3f 46 ec db bd
       -0.18551646 0.5757574 0.65176475 -0.10738425
000160 2a 42 cd 3e 59 8c 10 bf b7 49 70 3e 58 c1 6b 3e
       0.40089542 -0.56464154 0.2346562 0.23022974
000170 d7 f7 52 bf 7e 44 8f 3e c5 1e b5 3c bc 37 0b 3f
       -0.82409424 0.27981943 0.022109399 0.5438192
000180 aa 3d 0d 3f 41 87 03 c0 6f 37 ab bf a3 22 ff bd
       0.55172217 -2.0551302 -1.3376292 -0.12457778
000190 0e 70 b2 bd e5 b5 c7 3e fc 40 8a 3e b2 54 65 3e
       -0.08712779 0.39005962 0.27002704 0.2239559
0001a0 19 ca 3c be fb 1c 56 3e 68 ad 15 be bc 7e df 3e
       -0.18436469 0.20909493 -0.1461693 0.43651378
0001b0 7d 7b 61 3e bd f1 64 bd a6 54 8f 3e 74 a9 36 bf
       0.22019763 -0.055894602 0.2799427 -0.71352315
0001c0 f0 93 f5 3e 1e 78 66 3e 26 ce bd be a1 9e b0 be
       0.4796443 0.22506759 -0.3707134 -0.34496024
0001d0 96 67 17 3e 4c cb 80 3e 33 90 a9 3e 79 77 77 3d
       0.14785609 0.25155103 0.33117828 0.060416672
0001e0 f6 65 41 3d a5 ef d7 3e 46 c0 4f 3e bd 55 5e bf
       0.04721638 0.42175022 0.2028819 -0.86849576
0001f0 d7 72 06 3f 4d 17 25 be a3 bd 92 3e b5 a0 3b 3f
       0.5251898 -0.1612217 0.28660306 0.73292094
000200 5d 33 97 3e 51 ac 10 3f 74 9c 8f 3e 5f c2 2e 3f
       0.29531375 0.56512934 0.28049052 0.68265337
000210 db 18 35 3e 57 0e 62 bf 39 9d b8 3e e6 49 04 3e
       0.17685263 -0.8830313 0.3605745 0.12918815
000220 19 7d 48 3f 3d 63 c8 3c 73 19 35 3f fc 75 5a 3e
       0.78315884 0.024461383 0.7074196 0.2133407
000230 4a 8f b3 3e 2d e8 ea be 9b d0 f7 be 65 ca 6d bd
       0.35070258 -0.4588026 -0.4840134 -0.058054347
000240 30 e0 b3 3e d2 b5 20 be 16 c9 84 3b f7 78 c0 3e
       0.3513198 -0.15694359 0.0040522916 0.3759229
000250 31 9c 16 3e 38 5c 05 bf 7c 89 18 3e 7f a7 b1 3b
       0.1470802 -0.5209384 0.14896196 0.0054215784
000260 18 a1 8b be 21 76 8a bf b5 77 3b 3e 68 34 a2 3e
       -0.27271342 -1.08173 0.18307383 0.31680608
000270 a5 da 11 be 92 8c 1b 3e 2d be 19 be 9d 7a be 3e
       -0.14243563 0.15190342 -0.15013953 0.37202922
000280 41 56 69 3e 0f 34 a8 3d c4 6e c2 be a7 b1 0c 3f
       0.2278681 0.082130544 -0.37975132 0.54958576
000290 8e 8d 49 3e 34 b8 98 3d 55 15 19 be 7f bc d4 3e
       0.19682905 0.07457009 -0.14949544 0.4155006
0002a0 8b 6a 2e 3e 6f c1 a7 3e 6d 1d c3 3e a4 57 c5 3e
       0.1703283 0.32764766 0.38108388 0.38543427
0002b0 41 4d 0d 3f 84 94 92 3c 90 ba 05 3f 25 64 83 bf
       0.55196005 0.017893083 0.52237797 -1.0264937
0002c0 03 92 ba 3e e5 d4 81 3e 9a 8c 25 3f 87 2b 05 3f
       0.36439523 0.25357738 0.64667666 0.5201954
0002d0 56 3c 4c be 07 1a 9a be a3 9a cc be c7 bc 2d 3e
       -0.19944891 -0.30097982 -0.39961728 0.16966544
0002e0 ff c2 88 be 91 05 6b 3d 1d ef 95 3e 81 a1 e8 be
       -0.2671127 0.057378355 0.2928399 -0.45435718
0002f0 67 ea e4 3e 11 ce 4b 3d 88 be 98 3e 5b a0 5c 3e
       0.44710085 0.049757067 0.29832864 0.21545546
000300 31 70 63 3b 5e 01 f5 3e f5 8e 0c 3f 44 ce be 3e
       0.0034704322 0.47852606 0.54905635 0.37266743
000310 e5 18 1e 3f 69 06 43 bc 4f 95 5f bf 8f 4e 24 bd
       0.61756736 -0.011903384 -0.873372 -0.04011398
000320 21 5f 38 3d e6 92 99 3e 09 ad 39 3e 91 c2 c3 3e
       0.045012597 0.29994887 0.18132414 0.3823438
000330 b7 3b 2d 3d ac 41 5d 3e d7 37 9b 3e 76 6b 04 3f
       0.042293277 0.21607083 0.3031604 0.5172647
000340 3f 53 40 3e a5 54 46 3f 8b fa 62 3e 74 b2 33 3e
       0.18781756 0.7747291 0.22165887 0.17548543
000350 30 df b5 3e 84 cf 79 3e 4b 8b a6 3e 35 b1 62 bd
       0.3552184 0.24395567 0.32528147 -0.05534478
000360 bd 80 81 3e bc ea a4 3e 5b 5a 8d 3d e4 96 1f 3e
       0.25293532 0.32210338 0.069019996 0.15584904
000370 d1 eb 0b 3e 7d 5e 1a 3f 51 8e ca bd 42 5c 25 3e
       0.13664176 0.6030043 -0.09890426 0.16148475
000380 e0 0c 7a 3e e2 d0 9a 3d 68 5c 05 3e a4 9d 44 3e
       0.24418974 0.075593725 0.13023531 0.1920076
000390 80 5e 61 3e f2 ef 87 3e 68 fd 70 3e d5 ab eb 3a
       0.22008705 0.2655025 0.23534167 0.0017980287
0003a0 d4 f8 d7 3d 2f 3a aa 3e 7d e4 1b 3d ae 64 b0 3e
       0.10545507 0.33247516 0.0380597 0.34451813
0003b0 80 1a a9 3e 55 13 97 3e 44 aa f1 3e be 28 8d 3e
       0.3302803 0.29506937 0.47200215 0.27570146
0003c0 8f ca a7 3e 61 d5 0d 3e 41 aa 5d 3d bd 80 b5 3d
       0.32771727 0.13850929 0.054117445 0.088624455
0003d0 e7 6f 73 3e d7 4b 51 3e 6d 3e e8 3e 70 8a 03 3f
       0.23773156 0.20439087 0.45360127 0.51383114
0003e0 89 a4 1e 3e 5a 58 97 3e 64 c8 30 3e 70 28 5f 3e
       0.15492453 0.29559594 0.17263943 0.2179277
0003f0 d8 e9 1e 3e 35 66 71 3d 15 8c 8d 3e 8c 9f 29 3e
       0.15518892 0.058935363 0.27645937 0.16564769

layers.1.bias f4 [50]
000000 97 8d 82 3f 18 2d 80 3f 9a 52 4b 3d 47 5b 25 3f
       1.019946 1.0013762 0.049639322 0.64592403
000010 7a 67 96 bd 44 51 98 3f 07 8c 72 bd a3 59 d1 3d
       -0.07343955 1.18998 -0.05921557 0.10222175
000020 d7 1f 99 3e b0 ae bf 3e c8 ea 75 3e 9b 2e 4d 3f
       0.29907104 0.37437963 0.24015343 0.8014924
000030 2b 93 8c 3e 63 e9 b9 be 75 8c 41 3e 8f 8c 7c bd
       0.2745603 -0.36310872 0.18901236 -0.061657485
000040 59 05 37 be 3d a6 cc bc 0c 15 50 3e b3 cf 09 bf
       -0.17873134 -0.024981612 0.20320529 -0.5383255
000050 25 08 32 3e f6 a7 8b ba 11 2f fc 3c 8d ef f9 3c
       0.1738592 -0.0010654915 0.030784162 0.030509735
000060 a3 32 90 3d 1a 30 ea 3e 32 42 2c 3f 63 2f 93 be
       0.07040908 0.45739824 0.67288506 -0.2874709
000070 8e 02 09 3f 0e 97 00 3e b9 7e 83 bd 17 4e 19 3f
       0.53519523 0.12557623 -0.06420655 0.5988478
000080 8a 04 80 3f 3c c4 2c 3f cd 73 1a 3f 3c 5d 84 3f
       1.0001385 0.6748693 0.6033295 1.0340953
000090 e8 da a9 be ba c8 ca 3e 32 15 c3 3d ab c2 17 3e
       -0.33174825 0.39606267 0.09525527 0.14820354
0000a0 5a 46 2b 3f 67 bc ab 3c f0 fe aa 3c 2a aa 08 3e
       0.6690422 0.02096386 0.020873517 0.13346162
0000b0 e1 4f 27 3d 4d 93 91 bd 82 7e e6 be ab b8 88 3e
       0.040847663 -0.071081735 -0.45018393 0.2670339
0000c0 b1 c9 4d 3e bd f7 0d 3f
       0.2009647 0.55456144

layers.2.weight f4 [2, 50]
000000 44 b4 37 bf 10 8a 94 3c 39 c1 c2 3d 17 c1 ac bd
       -0.7175944 0.01813224 0.095095105 -0.084352665
000010 9b fc 55 bc f8 7a a7 be 5c e7 0f 3b 7e af a7 3c
       -0.013060714 -0.32711005 0.002195797 0.020469423
000020 9e 96 31 3e 0a 61 42 3d 3f 44 31 3d 85 4f 8a be
       0.17342612 0.047455825 0.043277975 -0.27013794
000030 37 de 08 be 9c 42 10 3c 0b 2d 6a 3c 5d 76 0f bc
       -0.13366018 0.008804943 0.014292966 -0.008756247
000040 4d 47 c3 3a ef b0 a5 3c da 10 c8 3d bc a9 28 3d
       0.0014898569 0.02022597 0.09768839 0.041177496
000050 13 12 6d 3c 5f 14 0d 3d 37 38 d7 3c c4 09 47 3c
       0.014469641 0.034443256 0.026271923 0.012148324
000060 d4 34 a0 3c 49 35 57 be 50 4c 89 3e d6 1e cb 3d
       0.01955644 -0.2101642 0.26816034 0.09917991
000070 90 68 f2 3c 51 3b 43 3c 5e db 3d 3f ae ab 8d be
       0.029590875 0.011915998 0.7416285 -0.27670044
000080 50 f4 9c bd f5 51 84 3e 9e f4 46 be 3d b6 e2 bd
       -0.076637864 0.25843778 -0.19429252 -0.110699154
000090 16 42 e2 3e 46 d4 08 be ca cc 16 3c dc 1a 25 3d
       0.44191045 -0.13362226 0.009204099 0.04030882
0000a0 4e 34 27 be e7 c1 18 3d 90 26 cb 3c 3f 60 85 3d
       -0.16328546 0.037294295 0.024798661 0.06512498
0000b0 6a b2 9d 3c 2f 02 fc 3c 1b 09 94 3e 30 e7 80 3d
       0.019250114 0.03076276 0.28913197 0.062940955
0000c0 87 af 60 3c 50 6b 47 3e f5 3a 27 3f 63 3f 8e 3e
       0.013713724 0.1947453 0.65324336 0.27782735
0000d0 7d 24 c0 bd ce be d8 3e 67 f8 2a bd 6d 5f 9a 3c
       -0.093819596 0.42333072 -0.0417408 0.01884433
0000e0 e2 72 2c bc 3a b9 3a bc 27 94 27 bd 05 d8 d5 3b
       -0.010525437 -0.0113967005 -0.040912773 0.0065259957
0000f0 2c fe 8e bc b4 ee 23 3d c2 2d ce 3f c2 0a 10 bc
       -0.017455183 0.040022567 1.6107714 -0.008791627
000100 96 ae 22 bc c6 c3 a9 3c d1 97 29 3c 48 1d 30 3c
       -0.00992932 0.020723235 0.010351137 0.010749169
000110 8a a6 b6 bd 70 fa 87 3d 95 db 36 bc de e8 8f ba
       -0.089184836 0.06639564 -0.011160751 -0.0010979434
000120 a8 e9 aa bc 15 0c c1 3a f6 0a fe bd a0 f9 da 3d
       -0.02086337 0.0014728332 -0.124044344 0.106921434
000130 09 02 6b 3e 22 c9 05 3e 6d f0 44 3e 25 29 8e 3a
       0.22949995 0.13065007 0.1923234 0.0010846002
000140 46 6d 2c bf 77 42 15 be 04 12 a5 3e 35 e4 31 3d
       -0.6735424 -0.14576136 0.32240307 0.043430526
000150 bc 69 26 be 00 ad 42 3e a5 5a 5d 3e a3 9d b1 be
       -0.16251272 0.19011307 0.2161661 -0.3469058
000160 97 df 48 bc 99 4d f5 bb 4c 68 60 bd fe ac f3 3b
       -0.012260339 -0.007486057 -0.054786965 0.0074363938
000170 36 17 82 3d a3 25 3d bd b1 12 81 b9 4b 15 1d bc
       0.063520834 -0.04617847 -0.00024618724 -0.009587596
000180 7b 9b d2 3e f2 33 50 bd 5a 1b 7d bc c5 23 14 3e
       0.41134247 -0.05083079 -0.015448416 0.1446677

layers.2.bias f4 [2]
000000 36 a8 9c bf 3c 43 98 be
       -1.2238834 -0.29738796
