notebooks/paper-plots/models/guided-w100.pt (torch, 27411 bytes, 6 tensors)

layers.0.weight f4 [100, 10]
00000000: 9253 11be 985b c5be 2edc 873e b0c1 c23d
00000010: efaa 96bb b653 85bd 6a49 af3c b219 fbbe
00000020: 893f 23be 5229 89bd 92bb 833d 37c3 1c3f
00000030: de35 d6bc 1420 0abd d1bf a8bd 9829 4d3e
00000040: e8fb 93be 79bb 8d3e 1afc 033f 6762 4abd
00000050: b6dd a7be 705e 833e 2a80 d6be e336 9abd
00000060: 066c a4be b3dd 74bd add8 413f 7197 413f
00000070: 7d07 50be 6427 ed3c 4eba a4be 26f9 13bf
00000080: 32c6 0a3e f397 09bf 17e0 97bd afb2 163d
00000090: e54b 3abc 59a5 fcbe 9671 c63e 94d0 5d3d
000000a0: 743b a33d d456 293c ed8c 013f 1d82 303e
000000b0: 219f a3be 8c1f 003d 292e b7bc 0fd4 093f
000000c0: b364 3cbe 6b46 313d 7b37 8bbd ba18 35be
000000d0: ac3c 1f3f 8fb5 2abd 5b0e a7bd 13b7 77be
000000e0: 1b61 723e a14b 5b3f 5514 4f3e b1cf c73e
000000f0: 5767 893a ed91 23bd 5dfb ecbe 4a56 1dbe
00000100: 96d6 4f3e b7aa 2d3d 05c8 1a3e b7b4 a93e
00000110: 772a 423e 2eb8 c3bc 70e2 94bd 3c7b 9a3e
00000120: 792a 34bf 0c96 5abe e070 0fbe 05f4 863d
00000130: f39a 083f 24c9 133f 9688 ccbe 677a 66be
00000140: 46b1 e5be 1363 193e 7bfe 2cbe 09fd 85be
00000150: 1df0 723e 7b99 95bd 596c cbbd a2d4 c3be
00000160: 6e7b 4e3e 7426 04be 9467 82bd f65c 44be
00000170: 1ac7 1dbe bddc 4c3d 0cad 20be 2a9f b83c
00000180: 0747 1f3e 2510 b43d 4f6b 0dbd 2c9c 61bc
00000190: b8d0 aebf 849b 80bd aae7 6f3e 314f f4be
000001a0: bd03 253f a397 febe 5ada 793d ea89 79bc
000001b0: bd7a 133d 9604 0fbf aa20 17bf 3ee1 9d3e
000001c0: 7ad9 72be 4b0a 0a3d 8de1 a63d ca06 e1be
000001d0: 6d51 833e 86da fdbc ae2d 843e 569a b73e
000001e0: 2992 75be 7c16 8b3e af2e 293f a3eb 91bd
000001f0: 9d8c 453e eaee 7bbe 3f2b c93e 8fd4 47bf
00000200: b420 13bf 3043 65be 48a5 5ebf 6ae2 35be
00000210: 5f98 183f 34d7 c7be 62d5 983e 281a eabe
00000220: 2145 fbbd 5f01 3d3f 96b7 173e d296 c2be
00000230: ca59 aa3e 2637 6fbf ce35 163e 2e43 693e
00000240: 5dea 673e 1d34 833e fd23 013f 2e23 4fbd
00000250: 4aed f4bd 8f86 91bf efcf 41be b794 17bf
00000260: 39fc e73d 6fa8 803e 5df2 1bbd c777 333e
00000270: 4ca8 b63d 90f2 c5be 5ee0 083e ffe4 f5bd
00000280: 0061 043e a6ca dbbe ed29 8b3d bed7 a3bd
00000290: 6f30 3ebe 094c 2dbe aef6 013f 7005 313e
000002a0: 31cd e4bd f38b e83e e534 d73d b833 96be
000002b0: eacd a1be 1311 b63e 9cf3 e5be 0334 d4be
000002c0: bf65 e43d 3dbf 413f 05d5 ff3d e8dd 1ebe
000002d0: 50bd b8bc 5575 503e d0be 12bc 1b60 a23d
000002e0: 0265 2f3d ddf8 c43d 2652 a23d ed97 d53e
000002f0: ff52 a13e 3691 1abc b139 2a3e 9784 cfbe
00000300: 7dff 823d 74a5 90be 863e 3b3e 73d5 303c
00000310: 9fe2 81bc fbdf 3cbe fd5b 3c3e 04ac 00be
00000320: 3ce7 7e3e 1ea3 02bf f1a1 253e a467 91bd
00000330: 1ead 6e3d 06aa ff3d a2a6 8f3d 1001 44be
00000340: 7105 babe 5ced 2b3f 68d3 a0be f863 0f3e
00000350: 59e0 0f3e 5562 8ebd 7607 02bf 7352 11bf
00000360: d884 613e 8aaf 263f 3d07 b13d d9a0 9dbe
00000370: 54d6 b1bc 0bab 2c3e 39dc dfbe e48e 28be
00000380: 125c 853e 284d 90bc 8460 923c 4f46 19bd
00000390: a9f2 483e 82cf 98bd a45d 87bc ec85 c23d
000003a0: 996d 263d fef5 5dbe 3211 2abc 72f7 a23e
000003b0: d77c a2be 4c50 f4be ce00 8a3e 19aa c9be
000003c0: 69c4 083f f3e5 28bf 5d41 7bbe ea00 e23d
000003d0: dc2d c53e 321e 063f 243f 143e 2b0b 883e
000003e0: d150 873d 727c c93e ed83 cf3e 24c5 a8be
000003f0: 7f7b 183e 0d94 4ebe df0a 613d 38bf 18bc
-0.14192036 -0.38546443 0.2653517 0.09509599 -0.0045980136 -0.06510107 0.021397311 -0.4904304
-0.15942205 -0.06697334 0.064322606 0.61235374 -0.026148733 -0.033722 -0.08239711 0.20035398
-0.28903127 0.27682093 0.5155655 -0.04941025 -0.3278634 0.25657988 -0.41894656 -0.0753
-0.32113665 -0.05978174 0.75721246 0.75621706 -0.20315357 0.028949447 -0.3217339 -0.57802045
0.13552168 -0.5374748 -0.074157886 0.0367915 -0.011370634 -0.493449 0.38758534 0.054153994
0.07970324 0.010335643 0.5060566 0.17237134 -0.31957343 0.031280085 -0.022360878 0.538392
-0.18397789 0.043280046 -0.067976914 -0.17685214 0.6220195 -0.041677054 -0.08157035 -0.24190931
0.23669855 0.85662276 0.202226 0.39025643 0.0010483068 -0.039934088 -0.46285525 -0.15364948
0.20296702 0.042399134 0.15115364 0.33145687 0.18961512 -0.023891535 -0.07269752 0.30172145
-0.7037731 -0.21346301 -0.14007902 0.06589512 0.53361434 0.5772879 -0.39947957 -0.2250763
-0.4486181 0.149792 -0.16893952 -0.26169613 0.23724408 -0.07304665 -0.09932775 -0.38248163
0.20164272 -0.12905294 -0.06367412 -0.19176087 -0.15407982 0.0500152 -0.15691012 0.022536833
0.15554439 0.08792142 -0.034526166 -0.013770144 -1.3657446 -0.06279662 0.23428217 -0.47716668
0.6445883 -0.49725065 0.060999252 -0.015230635 0.036005724 -0.5586637 -0.59034216 0.3083591
-0.23715773 0.033701222 0.08148489 -0.43950492 0.2564806 -0.03098799 0.258161 0.35859936
-0.23981537 0.27165592 0.6608686 -0.07125022 0.19291921 -0.24602857 0.39290807 -0.78058714
-0.57471776 -0.22388911 -0.8697095 -0.17762151 0.596075 -0.39031374 0.29850298 -0.4572308
-0.12269045 0.7383022 0.14816126 -0.38005692 0.3327163 -0.93443525 0.14668962 0.22779533
0.22647996 0.25625697 0.5044554 -0.05057066 -0.11959322 -1.1369189 -0.18926977 -0.59211296
0.113274045 0.25128505 -0.038072933 0.1752616 0.08918819 -0.38661623 0.1336684 -0.12006568
0.12927628 -0.42928046 0.06795106 -0.08000134 -0.18573163 -0.16923536 0.5076703 0.1728723
-0.1117195 0.45419273 0.10508136 -0.29336333 -0.31602412 0.35559902 -0.44912422 -0.41445932
0.11152219 0.7568243 0.12491802 -0.15514338 -0.022551209 0.20357259 -0.008956626 0.07928487
0.042820938 0.096177794 0.07925825 0.41717473 0.31508633 -0.009434035 0.1662357 -0.40530846
0.06396387 -0.2825123 0.1828557 0.010793078 -0.015855132 -0.18444817 0.18394466 -0.12565619
0.24892896 -0.5103015 0.16175057 -0.07099846 0.058270566 0.12483601 0.070142046 -0.1914103
-0.36332276 0.67159057 -0.3141129 0.14002979 0.14050426 -0.06952349 -0.50792634 -0.5676643
0.22023332 0.651116 0.08643959 -0.3078678 -0.021708645 0.16862123 -0.43722704 -0.16460758
0.26046807 -0.017614916 0.017868288 -0.037420567 0.19623818 -0.07461454 -0.016524144 0.094982
0.040631864 -0.2167587 -0.010380076 0.3182941 -0.3173587 -0.47717512 0.2695374 -0.39387587
0.534247 -0.65975875 -0.24536653 0.110353306 0.3851155 0.52389824 0.14477211 0.2657102
0.066072114 0.39352757 0.4053034 -0.32962906 0.1489086 -0.20173664 0.054942008 -0.009322934

layers.0.bias f4 [100]
00000000: 2ee2 a23d f0ee 3cbe db0d 57be 5891 f3be
00000010: bdd7 70bf aa8d b6be 41d0 6fbf d88b 16bf
00000020: 566f c1be 4fea 84bf 87ec 0d3f d4b7 14bf
00000030: 2a1c ad3d 5509 fa3e c5bb bcbe f246 86be
00000040: 7159 61bf 7d1d 4b3e ad14 0cbf 4839 0dbf
00000050: 1a52 e9be 827c 973d afae f8be 3d68 c7bd
00000060: 4dbb 6ebf 206a b2be 37dc ed3d 0a42 e8bd
00000070: cade a63d 042d 1fbf c4ab 093e f87b 373d
00000080: 65aa 0fbf 336b 0f3e a894 bf3e 70e7 9abe
00000090: cfb7 ef3d 544d 57bf 0319 ab3e 3d30 82bd
000000a0: e7e8 2abf 2e98 07bf 3add 0cbe f191 b03e
000000b0: f775 85be 6d68 b03d aaaa 36bf 4126 89be
000000c0: ee20 dfbe b97b 32be b4b3 cd3e 7593 1fbe
000000d0: b281 14bf b10c 0dbf 771b 36bd c75f 493e
000000e0: 0b4a a93d dbdf 3dbe b926 42bf 42b3 00bf
000000f0: 9e68 26be e0bc 39be 8512 93be 050a 2fbf
00000100: cdfb 093f f339 55bf b269 4fbe 6f48 43be
00000110: af06 a6be 332f 643e 4f3d 40bd b2b4 0d3f
00000120: 528b 1a3e 236a cbbe c741 ce3c f3ef 56bd
00000130: be6b f9be 8833 3ebf 7127 4abd e265 2abe
00000140: 2e44 003c b643 2cbf 117b 59be 7760 38be
00000150: 6f40 ecbe 392f 893e 95cc 18bf 8995 163f
00000160: 6b59 9e3c 8ffd dcbe cf75 6cbe d48d 9ebd
00000170: ee63 00bf 71c4 dfbd ac2d d5be b9cb e0be
00000180: 9cf5 24be c5ce fd3e bf86 ecbe 7cd3 32bf
0.079532966 -0.18450522 -0.21001379 -0.47571826 -0.9407919 -0.35654956 -0.93677145 -0.58807135
-0.37780255 -1.0384005 0.5543904 -0.58093 0.084526375 0.48835245 -0.36862007 -0.26226002
-0.880271 0.19835468 -0.5471905 -0.5516553 -0.4557045 0.07396795 -0.48570773 -0.09736679
-0.9325455 -0.34846592 0.11614268 -0.11340721 0.081479624 -0.62178063 0.1344443 0.04479596
-0.56119376 0.14005737 0.37418103 -0.30254698 0.117049806 -0.8410237 0.3341752 -0.06356857
-0.6676163 -0.5296658 -0.13756266 0.34486344 -0.26066563 0.08613668 -0.7135416 -0.26786998
-0.4357981 -0.17430009 0.40176165 -0.15583594 -0.580104 -0.5509749 -0.044459786 0.19665442
0.08266076 -0.18542425 -0.75840336 -0.50273526 -0.16250846 -0.18138456 -0.28725067 -0.68374664
0.5389984 -0.8329155 -0.20255163 -0.190706 -0.32426974 0.2228363 -0.04693347 0.55353844
0.15092209 -0.39729413 0.02517785 -0.052474927 -0.48715013 -0.7429738 -0.04935402 -0.16640428
0.007828755 -0.6729082 -0.21238352 -0.18005548 -0.4614291 0.2679384 -0.5968717 0.5882192
0.019329747 -0.431622 -0.23091815 -0.07741895 -0.5015248 -0.1092614 -0.41636407 -0.43905428
-0.16109318 0.49571815 -0.46196553 -0.6985395

layers.1.weight f4 [50, 100]
00000000: e809 07be 2e9e 28bd 9e77 50bd c46d 4dbe
00000010: 4b44 dc3d 58ab 553e fbb7 82be 11ff 0fbe
00000020: 599f 06be f8f9 98bd e270 06be 1a86 26be
00000030: 51c1 2abe 8fd2 053e 2f10 24bd 47ef b4bd
00000040: 4c6c 4cbd fdb4 1f3e e25e f3bd 8c27 03be
00000050: 987a 00bd 3a8f 673e ef77 15be d227 6f3d
00000060: 10dd 88bc b236 513c 4452 5fbe 9524 b63d
00000070: 3017 2dbe 918f fdbc 1369 863d 2f8d a33e
00000080: ee09 1bbe f1db 02be 0e96 7cbe 9f0a 8ebd
00000090: cc6d 843d 893f 6fbd c492 88be 4907 8abe
000000a0: 7955 66be 93da b9bd a156 5cbe 9fbe 59be
000000b0: 2cb1 55be e5da c0be 157c 273e bd4c 8abe
000000c0: 5f2f f9bc 2f22 9b3c 5edd 8f3d 85d9 c43d
000000d0: d912 043e 2936 f13d ba5b 00be d8f5 03be
000000e0: dfdb 2bbe 68f7 0dbe 8dc8 a2be c02e b73e
000000f0: 88cc 9f3d 828b 85bb d4af 13bd 0569 6cbd
00000100: 6900 5bbd 93b6 71be 4c44 a03d 34b5 abbd
00000110: 77a5 9abe fe61 44be 54c9 7cbe d928 f53b
00000120: 963e aebe f32c 103e ce37 7ebe 7d77 66bd
00000130: f508 8c3d f3c6 21be b139 3a3e 7686 c1bc
00000140: ee65 05be 9604 3e3d 63a6 83bd de81 cabd
00000150: d0f6 be3e 369d 343e 9e57 57bc 48f5 18bf
00000160: 5de8 2fbe 1bc9 c43c eb76 6ebe 883d aebe
00000170: a286 9ebd 4adc 8abe 82c5 93be 6c05 0dbe
00000180: 7b5d f2bd 46ae 32bd 0f87 dbbd 6645 b83c
00000190: d083 db3d c795 c43e a9fb 4a3d 4beb c3bb
000001a0: 596a c5bd c1e2 39bd 9559 1d3e a268 213e
000001b0: 1605 753e 8818 d33d 9964 41be 0679 5f3e
000001c0: efc1 3f3d 60ef a0be c6ef 14bb 62ff 14bc
000001d0: c456 63bd be6e 31bd f0e2 5a3e c647 bb3d
000001e0: 4f4c e43c af76 dabd 6977 df3e d43e 223e
000001f0: cc92 b6bc c7b6 4f3d 2080 7a3e 8811 6f3d
00000200: 8840 b13c bf87 a73e 0ab0 0a3e db45 cdbd
00000210: 3935 383e a8ad adbc f058 063e 604a 483d
00000220: f297 89bd 1c56 9ebd d415 52bb 37ef 113e
00000230: c09d 303d 1f4e e83d 3594 563c 566b 08bd
00000240: f56c 053d 6cca d23d 8331 b33d 3431 6e3e
00000250: d2b2 383d c8ff 753e a53d 9c3c 1a68 cb3c
00000260: e760 6abe a2ba 643d 9776 91bd 0f36 0d3e
00000270: 84c8 363c 3299 903d 169b 773e 3eb4 003e
00000280: 7e4e e5bd b588 6a3d 66ff 353d b244 913d
00000290: acc7 9b3d fe1c 523e ca0f 7f3e a32d 9e3e
000002a0: bf94 a43e 507e 5e3e 2284 4ebd 904e 5b3c
000002b0: bc5f 63bd 1158 843d ad5a 9dbd b55a 5e3e
000002c0: e9ad 933d 69bd 6f3e 4018 083d e3f2 de3d
000002d0: e141 f8bc dc44 2fbe cb46 543d f699 723d
000002e0: 53c9 153d 0eb4 b83c fa3f 843e 526f 223e
000002f0: 0c98 113e 92e9 ad3d e2d3 593e 101c 24bd
00000300: a882 1f3d 89f4 cf3d cbb3 263e e1ca 7b3e
00000310: 433c 223e 7983 e43d c327 663d 729d 903d
00000320: ed80 6abe b370 903e 7a80 28bc 918e 14be
00000330: d661 753e 7e27 283e 03ec 0f3e f784 ddbc
00000340: 426d a1bd 5d8d 4d3d 0063 5cbe ca95 9b3d
00000350: 5d3d e7be 14a1 71bd d324 b83c 9f31 65bd
00000360: 427b de3c c053 90bd 2a65 4d3e 6780 1e3e
00000370: b9db debd e2c0 083e f976 503e 4b21 783e
00000380: cc52 a2bd b6eb 043e c0e4 583e e063 cd3d
00000390: 9776 a0bd 650d 8c3e 0737 c43d 8061 443d
000003a0: abf9 ab3d f84e 34be a83a 15be 2820 7fbe
000003b0: 1d70 2b3e 1e50 b2bd e5bf 86bd 052c 133e
000003c0: 49fb f8bc 12ed 1a3e e194 4fbe 33ea 43bd
000003d0: 24ab 33be 5a4f 1b3e 1515 6c3d be22 553e
000003e0: 28d7 3e3e a702 13be 83b7 ab3c a4e8 853e
000003f0: ae5c cdbe 8368 d63d 32c8 183e 76f4 bebe
-0.13187373 -0.041166477 -0.050895326 -0.20061404 0.10755213 0.20866144 -0.2553099 -0.14062144
-0.13146724 -0.07469553 -0.13128999 -0.16262093 -0.16675307 0.13068603 -0.040054496 -0.08834701
-0.049907967 0.15596385 -0.11883332 -0.12808055 -0.031366915 0.2261323 -0.14596532 0.058387585
-0.016706973 0.012769388 -0.21808726 0.08893696 -0.16903377 -0.030952247 0.0656301 0.31943652
-0.15140507 -0.12779213 -0.24666616 -0.069356196 0.064662546 -0.0584102 -0.26674473 -0.26958683
-0.22493543 -0.09074893 -0.21517421 -0.21264122 -0.20868367 -0.37667003 0.16355927 -0.27011672
-0.030418096 0.018937198 0.07024644 0.09611801 0.12897815 0.11777908 -0.12534991 -0.1288675
-0.16783093 -0.13863909 -0.31793633 0.35777855 0.07802683 -0.0040754685 -0.036056355 -0.057717342
-0.053467188 -0.23604803 0.078255266 -0.08384171 -0.30204365 -0.19178006 -0.24686176 0.007481676
-0.34032124 0.14079647 -0.24825975 -0.056266297 0.06837646 -0.1579855 0.1818607 -0.023623686
-0.13027164 0.046391092 -0.0642822 -0.098880515 0.37297678 0.17638096 -0.013143448 -0.5974927
-0.17178483 0.024021676 -0.23287551 -0.3403132 -0.07740523 -0.27121192 -0.28861624 -0.137716
-0.11834236 -0.04362323 -0.1071912 0.02249403 0.107185006 0.3839552 0.049556408 -0.005978977
-0.09639425 -0.045382265 0.15366204 0.1576257 0.23927721 0.10307413 -0.18886031 0.2182351
0.04681581 -0.3143263 -0.0022725924 -0.009094091 -0.055502668 -0.043318503 0.21375632 0.09144549
0.027868418 -0.10667168 0.4364579 0.1584428 -0.022286795 0.05071142 0.24462938 0.05836633
0.021637216 0.32720754 0.13543716 -0.100230895 0.17989053 -0.02120097 0.13119864 0.048899055
-0.067184344 -0.07731268 -0.0032056468 0.1425141 0.043119192 0.113430254 0.013096859 -0.03330549
0.032574613 0.10292515 0.08749678 0.23260957 0.04509241 0.24023354 0.019072363 0.024829913
-0.22888528 0.05584205 -0.07102697 0.13790153 0.011156205 0.0706047 0.24180254 0.12568757
-0.11196612 0.05725928 0.04443302 0.07093181 0.07606444 0.20518872 0.24908367 0.30894193
0.32144734 0.21727872 -0.05041898 0.01338543 -0.05551122 0.0646211 -0.07683311 0.2171429
0.07210905 0.23412098 0.03322625 0.10886171 -0.030304851 -0.17116112 0.051825326 0.05922886
0.03656895 0.022546794 0.2583006 0.15862778 0.14218158 0.084918156 0.21272233 -0.040065825
0.038942963 0.10154063 0.16279523 0.24589111 0.158433 0.11157889 0.056190263 0.0706128
-0.22900744 0.28210983 -0.010284537 -0.1450751 0.23963103 0.16421315 0.14054875 -0.027040942
-0.078821674 0.050183643 -0.2152214 0.07596929 -0.45164004 -0.058991507 0.022478497 -0.055955525
0.027158383 -0.07047224 0.20058122 0.15478669 -0.108817525 0.13354829 0.20357884 0.2423145
-0.079259485 0.12980542 0.21181011 0.10028815 -0.07835119 0.2735397 0.09580808 0.047944546
0.0839723 -0.17608249 -0.14573157 -0.2491461 0.16741987 -0.087066874 -0.0657957 0.14372261
-0.03039326 0.15129498 -0.20271637 -0.04783077 -0.17545754 0.15166989 0.057637293 0.20814034
0.18636763 -0.1435648 0.020961529 0.26154053 -0.4010977 0.10469153 0.14920118 -0.37295884

layers.1.bias f4 [50]
00000000: b6bf 30bb a4ca be3d fd15 b63d 5375 e63e
00000010: 428c 803e f031 8dbe a815 26be 37a4 c3bd
00000020: 9e2c 3e3f 45fc cf3e 86ee 0f3e 7f6c 423d
00000030: 6008 8e3e 1cb5 443f 8fbe 0a3f 8a26 2d3e
00000040: dbd0 f5bc a47b 083e 4f07 bc3d a79d 70be
00000050: 1333 98bd 45b4 4cbd f166 88bd 427c 243e
00000060: c16c 69be 67a9 2dbe 0111 853e b594 3b3d
00000070: bfac 44be eb2a 59bd f606 5fbe 0aba 1a3e
00000080: 1618 613e cddc 7c3d 1f6a ba3d 9a72 623d
00000090: 5c1a 95bd 977b 5b3b d2f7 91be 4e37 05bf
000000a0: d925 eb3d 8c46 3c3e 2363 113e 49f5 053e
000000b0: a8b7 893d 83f5 c03d f8dc 1b3f 0932 f93e
000000c0: 9706 e83d 894e a63e
-0.0026969737 0.093159944 0.08890913 0.45011386 0.25107008 -0.27577162 -0.16219199 -0.09552806
0.7428683 0.40622154 0.14055833 0.04746675 0.27740765 0.7683885 0.5419702 0.16909233
-0.030006817 0.13328415 0.091810815 -0.2349764 -0.07431617 -0.049976606 -0.066602595 0.16063026
-0.22795393 -0.16959153 0.25989535 0.045796115 -0.19206522 -0.053019445 -0.21779999 0.15110031
0.21981844 0.06173401 0.09102272 0.055285074 -0.07280418 0.0033490413 -0.28509384 -0.52037513
0.11481828 0.18386286 0.14197974 0.1308185 0.06724483 0.09421828 0.60884047 0.48670986
0.11329382 0.32481793

layers.2.weight f4 [2, 50]
00000000: f20d 8dbc 4850 44bb ba38 94bd c3f4 88bc
00000010: c476 a7bd 3d35 e0bd 777b 99bc c4bb 0fbe
00000020: c446 243d e67e 393d 82ef 993d c338 a2bd
00000030: 8f49 04be f20a c5bc 4d79 373e 547e e4bb
00000040: 9954 943c bf22 1b3e cfb1 a63c e595 e13d
00000050: f59e cd3d e717 a2bd b5b5 8f3d 81e7 54bc
00000060: 1f7b 8abd d9c4 c7bd f748 81bc d464 8fbb
00000070: 9ab3 d6bb f6c9 563d 98f2 b3bc 1f6e 3c3e
00000080: cb1f 20bd 514a 883c 0833 c53c 50b8 cf3d
00000090: 3628 3a3d 5875 a2bd 48f7 363d e425 1cbc
000000a0: 1039 e6bc 93c0 9bbc 6ff2 d53a 522b bc3d
000000b0: 7af1 253d 80be 093c ee5f 033d 2d7e 863b
000000c0: 4d3c 163e 08aa 36be 2b55 823e d69e 9dbc
000000d0: 802c 05be ac4a 65bf 6a1d cabe 99e0 d3be
000000e0: 5fab 9abe 6c7d c23e 14f5 873e 3d4e acbc
000000f0: e99c 0d3d 5be7 0fbe d225 b93e c309 a13e
00000100: 5731 34bc 62d7 bebc caff 8fbc 3046 493e
00000110: 4bbd ca3b 5a0c a13e d239 4fbc 6457 b3be
00000120: e63c 7abe 5b64 38be d78a b23f 7886 923e
00000130: 4ef9 18be aa08 87ba 1ee5 2ebf 0b69 27be
00000140: c1c7 eb3e 5791 a23d a6de 753e 4259 4cbd
00000150: 3749 2b3e 6326 82bd ea3c 2a3f cd02 7e3f
00000160: 640c 633f 422b b83e 706a 82bd 6cbb a03e
00000170: ebca 1cbd f12a 99be 0ab9 98bc 1213 d23e
00000180: 06f0 573f f97e 6e3f 6751 b239 e9b7 3f3e
-0.017218564 -0.0029955078 -0.07237382 -0.016718274 -0.081769496 -0.109476544 -0.01873563 -0.1403647
0.04010655 0.045287035 0.075163856 -0.07920983 -0.12918685 -0.02405307 0.17917366 -0.0069730673
0.018106746 0.15149973 0.020348458 0.11014918 0.10040084 -0.07914715 0.0701708 -0.012994648
-0.06761765 -0.097543426 -0.015781863 -0.0043760333 -0.006552172 0.0524387 -0.021966264 0.18401383
-0.03909282 0.016637 0.024072185 0.10142577 0.045448504 -0.07932538 0.04466942 -0.009530518
-0.028103381 -0.019012725 0.0016322861 0.0918795 0.040513493 0.008407235 0.032073908 0.004104397
0.1467144 -0.178383 0.25455603 -0.019240778 -0.13005257 -0.89567065 -0.39475566 -0.41382292
-0.3020887 0.37986314 0.26554167 -0.0210334 0.03457347 -0.14053099 0.36161667 0.3145276
-0.010998092 -0.023296062 -0.017578024 0.1965568 0.0061871163 0.31454736 -0.012648063 -0.3502761
-0.24437293 -0.18007033 1.394862 0.28618217 -0.14938852 -0.0010302265 -0.68318355 -0.16348664
0.46050838 0.079378776 0.24010715 -0.04988981 0.16727148 -0.06354978 0.664992 0.99223024
0.8869078 0.35970503 -0.063679576 0.31392992 -0.038279455 -0.29915574 -0.018642921 0.41030174
0.8435062 0.93162495 0.00034011455 0.187225

layers.2.bias f4 [2]
00000000: 300d f440 d50b 803d
7.62661 0.06252257
