notebooks/paper-plots/models/guided-w500.pt (torch, 27411 bytes, 6 tensors)

layers.0.weight f4 [100, 10]
-1.3563973 0.25831065 0.5589886 -0.6818234 0.27784413 -0.49615046 -0.24652763 -0.76599365
-0.39849997 -0.48329 -0.048978858 -0.08080523 0.111155584 -0.39649248 -0.46795192 0.9385959
0.72025275 0.42288148 0.061755087 1.2705985 -0.08962021 0.3376173 -0.3146007 0.060063906
0.49023223 -0.029066054 -0.1648909 1.8375226 0.0061932923 0.3497954 -0.05631749 -0.19718154
0.20299688 0.010950611 0.17558773 -0.0258203 -0.048144273 -0.07205893 -0.08173153 -0.11589904
-0.1295637 -0.49612218 0.30263555 0.2055141 -0.049879454 -0.018553939 -0.37155122 -0.5812099
-0.05064275 0.13858676 0.32796726 -0.88899976 -0.37035635 0.40475127 0.48233986 0.43489203
0.34171093 0.28344354 -0.24116537 0.525884 -0.14031874 0.6538504 -0.040225368 0.09792768
-0.146926 0.1826603 -1.2422918 -0.9785709 0.7906839 0.023886403 -0.19095644 0.011593826
0.32506096 0.2165517 -0.053384796 0.025774987 0.043905124 0.44571987 0.03570553 0.012506197
0.11131955 2.362139 -0.080196045 -0.25585344 -0.18177664 0.4972872 -1.3636658 -0.67639416
1.177059 0.18178731 -0.12770575 0.38382137 -0.0035178578 0.0014024326 -0.052332018 0.012280919
0.17077664 -0.15858945 0.16597062 0.020904375 -0.047506824 0.15513368 0.14137797 0.02819006
-0.03256214 -0.0168936 -0.09960387 0.2667717 -0.100861564 -0.014202865 0.5010413 -0.60234654
-0.30747557 0.2851757 -0.08214188 -0.08803971 -0.10581932 -0.26667 -0.15912785 -0.0223612
0.13363187 0.24118748 0.09754071 0.49823245 0.22940432 -0.52338034 0.6865591 1.1326236
0.22851698 1.0204198 0.4807164 0.18215708 0.118709944 -0.37588024 -0.06829192 0.93568265
0.44130594 0.6230009 0.08226901 -0.6705849 0.6158292 3.278236 0.019448206 0.0929311
-0.20539562 0.601039 -2.3718739 -0.24854185 1.7904149 -0.010468242 -1.2211158 -0.52683246
-0.25546727 -0.32199717 -0.14817363 -0.36230937 0.7393442 -0.13438086 -0.4342369 -0.8958377
0.1951954 -0.14216146 -0.18344612 0.27007875 -0.20359404 -0.0690995 0.3284312 0.1807525
0.17418201 -0.059582297 -0.2540549 0.00040248194 0.17777985 0.09927188 -0.111009605 0.031391747
0.039293177 0.06531855 0.057997562 -0.023129327 0.0647742 0.052692335 -0.23975681 -0.10689523
0.07209081 -0.0935337 0.01566875 -0.20130123 -0.10058913 -0.08705247 0.2392803 -0.14362016
0.5343562 0.30149725 -0.1280292 0.030291788 0.3626765 1.0172695 0.38120997 0.33917263
-0.1377212 0.1605321 -0.069803484 0.014199647 0.01336754 -0.043090004 0.082176544 -0.028598044
0.10710014 -0.047961805 1.0802563 0.49986818 -0.64059895 0.93015736 0.2784088 -0.7203524
-0.12620467 -0.71783334 0.5019934 -0.1979896 0.18725389 2.6360264 0.1423096 -0.07482435
-0.0037631444 0.5335112 -0.40939024 -0.5728861 0.6203139 0.1439895 0.6442743 -0.4970357
-0.52042055 0.7999076 -0.15355912 1.2904613 -0.06421096 -0.07771947 0.74645674 1.0855566
-0.16448498 -0.071664535 0.07043931 0.035817865 0.13295853 -0.07604731 0.0812367 -0.014422978
0.09017709 -0.090942495 0.3093229 -0.0192346 0.1644029 0.072849855 -0.033541024 -0.13799949
00000000: 6d9e adbf 4b41 843e e019 0f3f fa8b 2ebf
00000010: 9641 8e3e 6f07 febe bd71 7cbe 2918 44bf
00000020: 3008 ccbe c971 f7be 0e9e 48bd 367d a5bd
00000030: 8aa5 e33d 1001 cbbe 6597 efbe d247 703f
00000040: 7c62 383f ec83 d83e e7f2 7c3d f9a2 a23f
00000050: cd8a b7bd 2ddc ac3e 5813 a1be 9205 763d
00000060: b8ff fa3e ef1b eebc 29d9 28be f133 eb3f
00000070: 1af1 ca3b 6218 b33e 2bad 66bd f5e9 49be
00000080: 6ade 4f3e 316a 333c 45cd 333e 1885 d3bc
00000090: ee32 45bd a293 93bd dc62 a7bd 7a5c edbd
000000a0: 59ac 04be ba03 febe 0cf3 9a3e 4a72 523e
000000b0: 664e 4cbd 6efe 97bc f63b bebe 2cca 14bf
000000c0: c66e 4fbd b0e9 0d3e 53eb a73e 7d95 63bf
000000d0: 599f bdbe 8f3b cf3e 40f5 f63e 2baa de3e
000000e0: bcf4 ae3e 831f 913e 0ef4 76be 55a0 063f
000000f0: b7af 0fbe bd62 273f 5bc3 24bd 4f8e c83d
00000100: c573 16be 4d0b 3b3e 6b03 9fbf 9f83 7abf
00000110: 436a 4a3f 6bad c33c 168a 43be 08f4 3d3c
00000120: 646e a63e bbbf 5d3e 04aa 5abd 1126 d33c
00000130: dcd5 333d 6535 e43e f63f 123d cbe6 4c3c
00000140: 81fb e33d 492d 1740 d33d a4bd 39ff 82be
00000150: a823 3abe 6e9c fe3e 9a8c aebf 2b28 2dbf
00000160: dfa9 963f 7426 3a3e 4cc5 02be 3c84 c43e
00000170: dc8b 66bb d4d1 b73a 195a 56bd e835 493c
00000180: 12e0 2e3e 4665 22be 34f4 293e a73f ab3c
00000190: 8496 42bd 5ddb 1e3e 63c5 103e d7ee e63c
000001a0: e15f 05bd 7264 8abc 1dfd cbbd 4d96 883e
000001b0: 8290 cebd 22b3 68bc 3e44 003f 6233 1abf
000001c0: 706d 9dbe 8d02 923e 013a a8bd 2a4e b4bd
000001d0: cdb7 d8bd f888 88be 69f2 22be d62e b7bc
000001e0: cbd6 083e daf9 763e 6cc3 c73d 5318 ff3e
000001f0: f7e8 6a3e 41fc 05bf 56c2 2f3f cff9 903f
00000200: 5b00 6a3e 1e9d 823f 7620 f63e 6387 3a3e
00000210: 331e f33d 6073 c0be a2dc 8bbd e688 6f3f
00000220: daf2 e13e fd7c 1f3f a87c a83d 74ab 2bbf
00000230: fca6 1d3f 9ece 5140 d851 9f3c a952 be3d
00000240: 3b53 52be b1dd 193f c8cc 17c0 c181 7ebe
00000250: 512c e53f fd82 2bbc 864d 9cbf 7ede 06bf
00000260: 9bcc 82be d0dc a4be d4ba 17be 9d80 b9be
00000270: a945 3d3f 239b 09be 4d54 debe 9f55 65bf
00000280: 4ee1 473e c692 11be 4dd9 3bbe c347 8a3e
00000290: f57a 50be 0a84 8dbd 2228 a83e 2f17 393e
000002a0: c55c 323e 910c 74bd 7c13 82be 3604 d339
000002b0: ec0b 363e 0e4f cb3d 0159 e3bd a294 003d
000002c0: e2f1 203d bbc5 853d da8e 6d3d b779 bdbc
000002d0: 56a8 843d ebd3 573d cf82 75be e3eb dabd
000002e0: 59a4 933d 998e bfbd c05b 803c e921 4ebe
000002f0: ac01 cebd 9148 b2bd e505 753e 2a11 13be
00000300: 91cb 083f d95d 9a3e 161a 03be 7c26 f83c
00000310: bcb0 b93e e335 823f f42d c33e 09a8 ad3e
00000320: c906 0dbe 8762 243e 21f5 8ebd a3a5 683c
00000330: 8703 5b3c 257f 30bd 2d4c a83d 7246 eabc
00000340: 5157 db3d 9973 44bd d745 8a3f b9ee ff3e
00000350: 4bfe 23bf cb1e 6e3f 998b 8e3e 0469 38bf
00000360: cc3b 01be edc3 37bf a482 003f c9bd 4abe
00000370: 7cbf 3f3e a8b4 2840 9cb9 113e 823d 99bd
00000380: 169f 76bb 3194 083f 999b d1be aaa8 12bf
00000390: e4cc 1e3f fc71 133e 29ef 243f 777b febe
000003a0: 483a 05bf bfc6 4c3f 9a3e 1dbe d62d a53f
000003b0: 0981 83bd 632b 9fbd ca17 3f3f 85f3 8a3f
000003c0: c06e 28be dbc4 92bd 7c42 903d c1b5 123d
000003d0: 4826 083e b1be 9bbd 6d5f a63d 5b4e 6cbc
000003e0: c4ae b83d 0f40 babd 925f 9e3e e191 9dbc
000003f0: 3c59 283e 4e32 953d 5062 09bd bd4f 0dbe

layers.0.bias f4 [100]
0.46847647 -1.0764617 -0.5771124 -0.057551865 -0.35937306 -0.4584859 -0.3315177 0.40921062
-0.73161596 -0.514175 -0.69861037 -0.11893268 -0.66163987 -0.089956865 -1.3428199 0.44321114
-0.60333705 -0.63068575 -0.3647831 0.45804673 -0.6071045 -1.5444105 -0.78078043 0.70413285
-1.072676 -0.17608699 -0.4352726 -0.030121308 -0.6268235 0.094864525 0.13645008 -0.38390848
-0.60196114 -0.109628625 0.029990468 -0.08916672 -0.44111148 -0.8101911 -1.7999451 -1.1766725
0.2735144 0.07996653 -0.45129654 -0.43699053 0.07994309 0.014709526 -0.38167858 -0.5358872
-0.58951133 -0.21723972 -0.6625571 0.05502152 -0.9596182 0.28837475 0.3441109 0.0028351916
0.20387194 0.7650334 -1.6418625 0.073430434 -0.49735484 -0.54608405 -0.14593978 -0.6735855
-0.032706007 -0.21204816 -0.36060888 0.098897435 -0.52788323 -0.07637526 0.08008329 -0.10989891
-0.63237476 -0.6986966 -0.55839604 0.3060468 0.17891867 0.0040114596 -0.1404017 -0.097234584
0.20841102 0.09352101 -0.33012843 -0.21005183 0.32551312 0.5893017 -0.6671258 -1.2636393
0.15780123 -0.86991024 -0.7020646 -0.29409 0.5033077 -0.008434672 -0.09245001 -0.7272284
-0.6641471 -0.67281866 0.20393634 -0.11974443
00000000: 26dc ef3e 7fc9 89bf a3bd 13bf 81bb 6bbd
00000010: bfff b7be aabe eabe b0bc a9be 0e84 d13e
00000020: 2f4b 3bbf f9a0 03bf 21d8 32bf fa92 f3bd
00000030: 3b61 29bf 4e3b b8bd 86e1 abbf 92ec e23e
00000040: 4c74 1abf 9f74 21bf dac4 babe 1a85 ea3e
00000050: 336b 1bbf 3eaf c5bf 3ae1 47bf 0d42 343f
00000060: 724d 89bf 2650 34be 0ddc debe f6c0 f6bc
00000070: 8177 20bf 5548 c23d 92b9 0b3e a78f c4be
00000080: 201a 1abf f984 e0bd 92ae f53c 0b9d b6bd
00000090: 5dd9 e1be af68 4fbf 9a64 e6bf 349d 96bf
000000a0: 140a 8c3e 7ec5 a33d 5710 e7be 39bd dfbe
000000b0: 34b9 a33d 3900 713c 606b c3be e72f 09bf
000000c0: 37ea 16bf 1774 5ebe 589d 29bf 3f5e 613d
000000d0: 8aa9 75bf dba5 933e 4e2f b03e 9fce 393b
000000e0: cec3 503e 3bd9 433f 8d28 d2bf b262 963d
000000f0: 4ba5 febe 2acc 0bbf 3d71 15be 1970 2cbf
00000100: bcf6 05bd 2723 59be baa1 b8be bd8a ca3d
00000110: 5b23 07bf a26a 9cbd b502 a43d ae12 e1bd
00000120: 50e3 21bf c8dd 32bf 0bf3 0ebf 2bb2 9c3e
00000130: 7536 373e 9072 833b 77c5 0fbe ed22 c7bd
00000140: b369 553e f187 bf3d 9806 a9be d417 57be
00000150: a8a9 a63e 7adc 163f c2c8 2abf efbe a1bf
00000160: a596 213e 70b2 5ebf 81ba 33bf f792 96be
00000170: c6d8 003f 9431 0abc 6e56 bdbd a42b 3abf
00000180: 8b05 2abf d83d 2cbf b0d4 503e 913c f5bd

layers.1.weight f4 [50, 100]
-0.23013023 -0.051509734 -0.33121473 0.103158325 -0.055934127 0.01135398 -0.08459054 0.03014728
0.071142025 0.016145827 -0.05694636 0.06001181 -0.05686171 0.033962697 -0.16613121 0.14902784
-0.03546905 0.0504774 0.32849574 0.09271487 0.05196865 -0.05064801 0.1069625 0.030952433
0.0831006 0.06739048 -0.30732012 -0.11145667 0.18780817 0.06298793 0.117208414 -0.030143384
-0.035227474 -0.22252746 -0.016905665 -0.040585853 0.09362201 0.03291804 0.026082529 0.22465049
0.005240234 0.41520828 -0.0019747498 -0.113218635 0.18139812 0.070148 -0.03374952 0.1751996
0.11558117 -0.007870411 -0.034746155 0.20239383 0.09976725 -0.0114148185 0.3204811 0.0037312792
0.06765679 0.07343867 -0.014746295 0.058435768 0.06531623 0.039671794 0.12073161 0.053288825
0.05140609 -0.05046821 0.14072685 -0.06241293 0.02671457 0.25080273 -0.124039866 -0.05283649
0.0027088642 0.22712804 0.1065478 0.052698866 0.092453554 -0.037663825 -0.22506155 0.16972007
0.14515786 -0.1409863 0.22027779 0.07582168 -0.11635568 0.14887944 0.19696786 0.051883783
0.22281583 0.04190815 -0.18085742 -0.035268664 -0.033065412 0.23755704 0.08300985 -0.0032630963
-0.07072138 -0.0019529174 0.05491527 -0.23115107 -0.4452608 0.2703615 0.7229917 -0.11242305
0.02485263 0.73429805 -1.1970865 0.17027643 -2.2451618 -0.28833038 -0.09474542 0.48449907
0.79999465 0.3283017 -3.1774244 -0.4514633 0.4071953 -0.19913703 -0.1862294 0.7014207
-0.084862046 0.0101801995 -1.4771303 0.43590716 -0.1191401 0.36405206 0.16602266 -0.97342485
0.19199818 0.07375006 -0.7739654 0.44047242 1.1720599 -0.19250812 -1.6308523 -0.72707695
0.45945582 -0.18193409 0.5955983 0.2049057 0.34210512 -0.13642485 0.5725007 0.47395313
0.65601593 -0.22316724 0.78978616 -1.3675239 0.056716986 -0.16251354 0.6273089 -0.73762447
0.43182823 0.22294524 -0.11392372 -0.32030338 -0.5264995 -0.89009565 0.340314 0.10744553
0.24423571 -0.39910775 -0.51570684 0.66666996 0.67682636 1.0667174 0.08418487 0.6038364
0.18142745 0.7136283 0.27454707 0.57099205 -1.988062 -0.45505548 -0.033676114 0.3134689
0.8751487 0.14287816 -0.073791675 -0.24618143 -0.2771823 0.26255473 -0.7380249 0.34659997
-1.3409351 0.4347683 0.8596874 -3.5115898 -0.04609979 -1.4210583 0.6712652 -0.10836422
-0.6109079 -0.16906945 -0.009195551 -1.8166275 0.733948 0.68370366 -0.49313435 0.29223162
-0.012732753 -0.09057507 -0.02886292 -0.002593562 -0.0778249 -0.034671057 -0.06546454 -0.022461152
-0.058289222 -0.079839475 0.19253625 0.038582664 -0.19862351 -0.007277372 -0.071459 -0.0055111675
0.08007084 -0.104527734 -0.06193478 -0.09543627 -0.057919264 0.021776972 -0.049215566 0.05385018
0.045697723 0.0040392964 -0.0928981 0.108403675 -0.0011165808 0.07123685 -0.026975414 -0.0246529
-0.13585195 -0.08149723 -0.2265331 -0.0070177238 -0.016881607 0.057467755 0.033276904 0.17456432
0.04013359 0.041717142 0.1659415 0.018732794 -0.13809563 0.0043124943 -0.210765 -0.056312446
0.055544224 0.18393251 -0.14848647 0.010934009 0.06202021 0.04531644 0.029123617 -0.04796272
00000000: 42a7 6bbe dffb 52bd fa94 a9be ac44 d33d
00000010: 2f1b 65bd 0b06 3a3c ce3d adbd 6ef7 f63c
00000020: e9b2 913d 4144 843c 9640 69bd f2ce 753d
00000030: d3e7 68bd 781c 0b3d 4d1e 2abe c19a 183e
00000040: ff47 11bd 64c1 4e3d 9830 a83e 4be1 bd3d
00000050: 14dd 543d 4a74 4fbd 280f db3d f58f fd3c
00000060: a630 aa3d 0504 8a3d 1059 9dbe 6543 e4bd
00000070: c950 403e d1ff 803d f70a f03d 42ef f6bc
00000080: af4a 10bd 3dde 63be c07d 8abc 5a3d 26bd
00000090: e5bc bf3d 11d5 063d 07ab d53c c70a 663e
000000a0: 45b6 ab3b 2e96 d43e ce6a 01bb 2cdf e7bd
000000b0: 6ec0 393e c1a9 8f3d f03c 0abd 8667 333e
000000c0: d2b5 ec3d e5f2 00bc fc51 0ebd 5440 4f3e
000000d0: c652 cc3d 3805 3bbc 1916 a43e 7a88 743b
000000e0: a58f 8a3d 0367 963d 729a 71bc 585a 6f3d
000000f0: 84c4 853d e47e 223d 2242 f73d 6245 5a3d
00000100: 318f 523d c1b7 4ebd b31a 103e b3a4 7fbd
00000110: 84d8 da3c 3769 803e 9d08 febd 136b 58bd
00000120: 3387 313b 4194 683e bc35 da3d c4da 573d
00000130: 4a58 bd3d 6245 1abd 8976 66be 19cb 2d3e
00000140: 43a4 143e b65e 10be 8090 613e 6648 9b3d
00000150: e34b eebd da73 183e f1b1 493e 1784 543d
00000160: d529 643e e1a7 2b3d b032 39be e075 10bd
00000170: 996f 07bd 2742 733e 1101 aa3d acd9 55bb
00000180: 5fd6 90bd 09f9 ffba d6ee 603d deb2 6cbe
00000190: 39f9 e3be d36c 8a3e fc15 393f 0e3e e6bd
000001a0: be97 cb3c f5fa 3b3f 213a 99bf f25c 2e3e
000001b0: bbb0 0fc0 0aa0 93be e309 c2bd 4310 f83e
000001c0: 73cc 4c3f 2917 a83e ec5a 4bc0 3326 e7be
000001d0: e77b d03e 94ea 4bbe ebb2 3ebe 4f90 333f
000001e0: 27cc adbd daca 263c 9b12 bdbf 392f df3e
000001f0: baff f3bd 0865 ba3e d801 2a3e 5f32 79bf
00000200: 2c9b 443e 450a 973d 9922 46bf 9a85 e13e
00000210: 0f06 963f d920 45be c5bf d0bf b721 3abf
00000220: cb3d eb3e ee4c 3abe 2179 183f cdd2 513e
00000230: 6728 af3e f5b2 0bbe 688f 123f fca9 f23e
00000240: a9f0 273f f485 64be 6d2f 4a3f 060b afbf
00000250: 1250 683d f369 26be 5197 203f f5d4 3cbf
00000260: 9718 dd3e c24b 643e d750 e9bd cefe a3be
00000270: acc8 06bf 4fdd 63bf a33d ae3e 670c dc3d
00000280: ed18 7a3e da57 ccbe 5d05 04bf e2aa 2a3f
00000290: 7e44 2d3f 328a 883f 1e69 ac3d 0695 1a3f
000002a0: 1ec8 393e 58b0 363f 6f91 8c3e 892c 123f
000002b0: d178 febf 08fd e8be f7ef 09bd ff7e a03e
000002c0: bf09 603f a74e 123e 1720 97bd fc16 7cbe
000002d0: d7ea 8dbe 936d 863e 33ef 3cbf 8d75 b13e
000002e0: c3a3 abbf f399 de3e 7914 5c3f e3bd 60c0
000002f0: 22d3 3cbd 3de5 b5bf 09d8 2b3f 0fee ddbd
00000300: 7664 1cbf 8b20 2dbe f0a8 16bc 4087 e8bf
00000310: 04e4 3b3f 3407 2f3f 1b7c fcbe 629f 953e
00000320: 099d 50bc 6c7f b9bd ee71 ecbc c0f8 29bb
00000330: a962 9fbd 3d03 0ebd 4612 86bd 7300 b8bc
00000340: aec0 6ebd e182 a3bd 3928 453e db08 1e3d
00000350: f663 4bbe 0577 eebb 1959 92bd 0697 b4bb
00000360: 2efc a33d a312 d6bd 53af 7dbd 1774 c3bd
00000370: c03c 6dbd 9f65 b23c 4396 49bd 0292 5c3d
00000380: 892d 3b3d 135c 843b 5c41 bebd bf02 de3d
00000390: 3c5a 92ba a0e4 913d 8bfb dcbc e1f4 c9bc
000003a0: c61c 0bbe 05e8 a6bd 4bf8 67be eff4 e5bb
000003b0: 4c4b 8abc 4f63 6b3d 5d4d 083d fdc0 323e
000003c0: 1f63 243d 98df 2a3d 92ec 293e 8475 993c
000003d0: f168 0dbe d34f 8d3b c8d2 57be e1a7 66bd
000003e0: 5782 633d ce58 3c3e d60c 18be 8f24 333c
000003f0: e708 7e3d bb9d 393d a794 ee3c 8f74 44bd

layers.1.bias f4 [50]
0.18646024 -0.5806374 -0.024352342 0.9389442 -0.03468115 -0.43261924 0.5560679 0.10065888
-0.2361102 -0.30185455 -0.4301297 -0.10904217 -0.038957715 -0.11680316 0.1153999 0.20210856
0.8067775 -0.6722825 0.76504874 0.0132148955 0.22762373 0.17438121 0.24976723 -0.17913839
0.21348491 0.83773375 0.20998837 0.83305085 0.17454594 0.3363046 0.3549374 0.07180922
0.53997946 0.26158416 0.6511725 0.29803503 0.38374284 -0.123302154 0.28106984 -0.1394799
0.20606802 0.12004679 0.10846594 1.2985272 0.13902979 0.1475122 0.92967004 0.008891947
1.3430645 0.74103993
00000000: 6fef 3e3e a7a4 14bf 907e c7bc a65e 703f
00000010: d20d 0ebd 4580 ddbe 775a 0e3f 3e26 ce3d
00000020: dfc6 71be ae8c 9abe f639 dcbe 8051 dfbd
00000030: 2092 1fbd 7f36 efbd c856 ec3d 8cf5 4e3e
00000040: f888 4e3f b51a 2cbf 3cda 433f 4a83 583c
00000050: 3216 693e fd90 323e fbc2 7f3e 0e70 37be
00000060: ca9b 5a3e b875 563f 3107 573e d242 553f
00000070: 2cbc 323e 1e30 ac3e 5bba b53e b610 933d
00000080: 183c 0a3f 5cee 853e 3eb3 263f 0c98 983e
00000090: f179 c43e d785 fcbd 63e8 8f3e d2d3 0ebe
000000a0: 7f03 533e 17db f53d 6423 de3d 2436 a63f
000000b0: d35d 0e3e 700d 173e dbfe 6d3f 87af 113c
000000c0: 8ae9 ab3f cbb4 3d3f

layers.2.weight f4 [2, 50]
0.0032894306 0.05289441 -0.0057533286 -0.07771673 0.020689866 0.07858288 -0.031769004 -0.005747618
0.087252185 0.27440834 -0.0077667297 0.25955534 -0.0049076458 -0.07922235 0.061525002 0.0010922106
-0.0026615486 0.0027134437 -0.29879493 0.020005142 -0.18839929 0.0021029224 -0.1232998 0.011796493
-0.050729193 0.13244252 -0.3174848 -0.17233437 -0.024187256 0.12831724 -0.12610105 0.018161437
-0.06370826 0.026419025 0.034203865 0.20167747 -0.052588977 0.066622995 0.18548284 0.005336836
-0.0019968213 0.024746638 -0.012272943 0.015199307 -0.0054243677 0.0643913 0.06244447 -0.006291126
-0.066089116 -0.17825718 0.021569513 1.6856871 -0.032602627 0.35916153 -0.017472941 0.37080157
-0.09829046 0.03163037 0.22510111 -0.009124254 0.09023007 -0.72376597 0.009303751 -0.1197256
-0.011395573 -0.0039613442 -0.5209699 0.5210563 0.006992106 -0.054368086 -0.0668429 0.0007678066
0.1709174 -0.4624011 -0.024210026 -0.7937138 0.1474963 0.066616915 -0.44286263 0.07096523
-0.09199792 -0.014411014 0.006298823 0.005213916 0.14170414 0.102846764 0.03490867 0.031133333
0.20215875 0.033915386 0.02520143 0.0012203209 0.02007222 -0.4311536 0.042925537 0.010143796
0.36456928 0.03954892 -0.75039274 -0.67026305
00000000: 7d93 573b cfa7 583d 6b86 bcbb f329 9fbd
00000010: cb7d a93c 10f0 a03d 3720 02bd 8456 bcbb
00000020: 46b1 b23d 407f 8c3e 0d80 febb 70e4 843e
00000030: 51d0 a0bb 543f a2bd a401 7c3d 8228 8f3a
00000040: 606d 2ebb 08d4 313b a6fb 98be d3e1 a33c
00000050: beeb 40be 2fd1 093b 9b84 fcbd 1446 413c
00000060: 6ac9 4fbd 039f 073e 5e8d a2be 6c78 30be
00000070: 5a24 c6bc 9865 033e a220 01be 4bc7 943c
00000080: 7a79 82bd b66c d83c 5a19 0c3d 8a84 4e3e
00000090: 8a67 57bd a371 883d 37ef 3d3e a0e0 ae3b
000000a0: 1add 02bb 76b9 ca3c 7414 49bc 8406 793c
000000b0: e5be b1bb 96df 833d c6c5 7f3d ca25 cebb
000000c0: bb59 87bd 0d89 36be 8cb2 b03c 98c4 d73f
000000d0: 558a 05bd 05e4 b73e 6a23 8fbc b4d9 bd3e
000000e0: 824c c9bd d98e 013d e880 663e e57d 15bc
000000f0: 8bca b83d ba48 39bf c36e 183c b232 f5bd
00000100: 7fb4 3abc 2ace 81bb 495e 05bf f263 053f
00000110: 091e e53b 12b1 5ebd eee4 88bd a146 493a
00000120: f904 2f3e d6bf ecbe 1b54 c6bc d430 4bbf
00000130: 4509 173e 736e 883d e4be e2be 3856 913d
00000140: 6869 bcbd 2c1c 6cbc 5b66 ce3b 7fd9 aa3b
00000150: e41a 113e 53a1 d23d 65fc 0e3d 550b ff3c
00000160: b402 4f3e dcea 0a3d 3b73 ce3c 2df3 9f3a
00000170: 7f6e a43c 2ac0 dcbe b0d2 2f3d 2a32 263c
00000180: d3a8 ba3e 0cfe 213d bd19 40bf 5c96 2bbf

layers.2.bias f4 [2]
4.0227275 0.11233158
00000000: 2fba 8040 190e e63d
