notebooks/paper-plots/models/guided-w5000.pt (torch, 27411 bytes, 6 tensors)

layers.0.weight f4 [100, 10]
00000000: 3d02 97bc 6ebd f3be 3b20 60be b47a 59be
00000010: ab6e 9fbe 2cf8 573e 87ca d73d fc28 be3f
00000020: 3b25 893d a016 edbd 2c2c dcbe 521d 843e
00000030: 2e83 0abf d98a 143c 85c6 9bbe 2fa1 6abe
00000040: 9032 8b3e 694b 48be 6ac2 783e 6d1e 823c
00000050: db19 0cbf 1e43 29bf 9c41 053e 87a8 09be
00000060: 9fe5 1b3d 954f 5a3d f114 513e 9972 a73e
00000070: a383 95be 1b22 2abe a140 e43e a234 a9be
00000080: 9e73 18be 4b8b e93e e378 21bf 2f36 73be
00000090: 6b7e 0a3d 2733 523e 7405 b7be 1c69 9cbd
000000a0: 894e bb3e 15ca 983e 7fd7 443e 0361 02be
000000b0: a204 23bf 22f4 0f3f ce2a f7bd 469f 5b3f
000000c0: ba5d 273f f8f8 b3be e71b 593e 9fbb cfbe
000000d0: e926 05bd ac69 48bd efc8 18be 3264 f73c
000000e0: 71cb 363e d540 a9be 0eab 2cbd 3ce0 313f
000000f0: 7232 d6be 609c 38bc 83b1 203e b767 713d
00000100: 645d 913e 227a 3fbe cda1 26bf 6333 8cbe
00000110: bef1 103f af65 25bd fac3 12bf cdef a93d
00000120: e11c ca3f c332 62bf fd1d c83e c733 8cbf
00000130: 7bac 7cbe 8464 8ebf 14bb 50bf ea1f 19bf
00000140: 02f3 083e 3e90 173f dc22 e6bc b0b9 c93e
00000150: 13d4 69be 1557 aabe 9e04 113e 4858 d93d
00000160: efd0 ec3e 0daf 483f 4dfe d63e 96bc 98be
00000170: fefb 1abe ac24 253e b23e 793e b091 9e3d
00000180: ca72 99bd bc79 4ebd 95a5 203e 1450 0fbd
00000190: eaf5 3a3e 752f 8a3f 44d5 f1be 7177 ddbe
000001a0: e071 1abe c08f 0fbf 3d43 93be f9fe b1be
000001b0: 89cd 913e 3f7d 0e3e 3fd8 abbe a456 e5be
000001c0: 8a0e d53d 4bfc afbd 31a6 973d 3ae4 50bc
000001d0: 3025 873e c77e e53d b0f3 c43c 02a8 07be
000001e0: 8dda e5be bb04 2ebf bfa5 8c3e f5dd 73be
000001f0: a54a 683d ce69 f8bb 91c9 833e 1bce b33e
00000200: bf01 a3bd 7a0a 09be 494c 14bf bfab e03d
00000210: 9212 353d 83b7 d0bd d824 29be 852b 333e
00000220: d6f9 99be a3f1 333f 3be3 013f abaf c4bd
00000230: 749d ac3e 2fbb 933d aa5b 9dbe a688 44be
00000240: 7a3c 473d b854 a9be cdfc 36be 6121 673c
00000250: a246 21be 3c60 25bd 9e74 0340 8eb4 dd3e
00000260: 010a 0e3e 6a41 2bbf d33c 53be bf89 dd3d
00000270: b918 58be cbc7 76bf 4c0d ab3e 2880 89bf
00000280: 14d6 1e3e 850a 7ebf e513 a5bd 0f15 42be
00000290: 6a18 fcbd 8ad7 d8bc 941e ff3d 1768 b03c
000002a0: a9ae 3e3d 21dd a8bc a17c b83d 1e53 b9be
000002b0: 894a e33c da38 753d 1b7b 5dbe f264 fc3c
000002c0: 378c 603e ceba 70be a561 8a3e a4c4 8d3d
000002d0: f5ca a8be 2e06 a73e 8a1c c5be 047f 12bf
000002e0: 7d00 503f 078b a4bd b95b ac3f f905 3b3d
000002f0: 9076 c3bf a7c7 b5be 9003 9e3d bd0b 58bc
00000300: b588 153e 409c 3bbf eeb9 0ebf 91cd 123f
00000310: 9c77 563f 7aa6 25be 22a0 3bbe ca28 b53f
00000320: 9e3e efbd ba0d 833c cc2e 8abe 5d27 043c
00000330: dbc6 4abe b73f 27be 8205 b4bd 0c7d 89be
00000340: 18aa d13d 0292 bdbb 9721 ce3b c286 2340
00000350: 1bf2 8cbe 2f47 b63e b247 8bbe ade4 533f
00000360: 6fbf 28bf 1dee 9f3e 9796 c03e a1ea c9be
00000370: 09c7 1a3f caa3 22be 670e 0dbe 02b8 c6be
00000380: 1665 983d 6ca5 503f 6d0b cebb 4150 b8be
00000390: e63e 96ba dbf1 88bf 10a6 0dbf 0698 033f
000003a0: d235 233e 0aae 67be 8c5b b4be 6354 9dbd
000003b0: ca6d e6bd 4aeb 70bf 871e 95be 1d93 12be
000003c0: 44dd 1c3f aedc ec3f 670d 52bf bd25 60bf
000003d0: a010 2dbf ca71 8a3f 2b40 e43e af6f 96be
000003e0: 5a0c b43e ac52 1d3f 1d9d 093f 94c7 a5be
000003f0: 9656 153e d039 00bf b497 c2bf 2aa1 36be
-0.018433684 -0.4760546 -0.21887295 -0.21238214 -0.3113912 0.21090764 0.10536676 1.4856257
0.06696554 -0.11576581 -0.4300245 0.2580362 -0.54106414 0.009066307 -0.30424896 -0.22913049
0.27187014 -0.19560017 0.24292913 0.015883649 -0.5472695 -0.6611804 0.13013309 -0.13443194
0.03806078 0.05329855 0.20418145 0.3270462 -0.29201993 -0.16614573 0.44580558 -0.33047968
-0.14887854 0.45614085 -0.63075083 -0.23751138 0.033811968 0.20527326 -0.35746348 -0.076372355
0.36583355 0.29841676 0.1922283 -0.1273232 -0.63678944 0.5623189 -0.12068711 0.85789907
0.6537739 -0.35150886 0.2120205 -0.4057283 -0.03250781 -0.0489289 -0.149204 0.030199144
0.17851044 -0.33057275 -0.042155318 0.6948278 -0.41835362 -0.011267751 0.15692715 0.0589368
0.28391564 -0.18698934 -0.6509064 -0.27382955 0.5661887 -0.040380176 -0.57330287 0.082976915
1.5790063 -0.88358706 0.3908538 -1.0953301 -0.24675171 -1.1124425 -0.8153546 -0.5981432
0.1337395 0.5920447 -0.028092794 0.3939948 -0.22834806 -0.33269563 0.14161918 0.106125414
0.46253154 0.78392106 0.4199089 -0.2983138 -0.1513519 0.1612727 0.24340323 0.077426314
-0.074925974 -0.050409064 0.15688165 -0.034988478 0.18257871 1.0795733 -0.4723302 -0.4325519
-0.15082502 -0.5607872 -0.28762236 -0.3476484 0.28477123 0.13914965 -0.3356342 -0.44792664
0.10403164 -0.08593043 0.07404745 -0.012749726 0.2639556 0.112058215 0.02404198 -0.13247684
-0.44893304 -0.6797597 0.27470204 -0.23815139 0.05671181 -0.0075809723 0.2573972 0.35118183
-0.079593174 -0.13382903 -0.579289 0.10970258 0.044207163 -0.10191252 -0.16517961 0.1749707
-0.30073422 0.70290583 0.5073735 -0.096038185 0.33713877 0.07213437 -0.30733997 -0.19192752
0.04864166 -0.33072448 -0.17869873 0.014107079 -0.157496 -0.04037498 2.0539927 0.43301815
0.13871004 -0.6689669 -0.20628671 0.108172886 -0.21103181 -0.9639861 0.33408582 -1.0742235
0.15511352 -0.992348 -0.08060435 -0.18953346 -0.12309344 -0.026469965 0.12457004 0.021534009
0.046553288 -0.020613255 0.09008146 -0.36196226 0.027745502 0.05986867 -0.21628992 0.030809853
0.21928488 -0.2350876 0.27027622 0.06922272 -0.32967344 0.32621902 -0.38498336 -0.5722506
0.81250745 -0.0803433 1.3465492 0.045659993 -1.5270557 -0.35503885 0.07715523 -0.013186392
0.14602931 -0.73285294 -0.55752456 0.5734492 0.8377626 -0.16176787 -0.18322805 1.4153073
-0.11681865 0.015997756 -0.26988828 0.008066026 -0.1980242 -0.16332899 -0.08790113 -0.26853216
0.10237521 -0.0057852278 0.0062906253 2.5551 -0.27528462 0.35601184 -0.27203137 0.82770807
-0.65917104 0.31236354 0.3761489 -0.3943682 0.60459954 -0.15882793 -0.13775025 -0.38812262
0.074411556 0.81502414 -0.006287983 -0.3599873 -0.0011462837 -1.0698808 -0.55331516 0.51403844
0.159385 -0.22624984 -0.35226095 -0.07682111 -0.11251409 -0.9410902 -0.29124853 -0.14313932
0.61275125 1.8504846 -0.820517 -0.87557584 -0.6760349 1.0815976 0.44580206 -0.29382083
0.35165673 0.6145427 0.5375536 -0.3237883 0.14583811 -0.50088215 -1.5202546 -0.17834917

layers.0.bias f4 [100]
00000000: 570a 1bbf 254d edbe 8c87 ae3e 7d72 06be
00000010: f3fb 8cbf 8ea6 b3be 692f dbbe b36d 1cbf
00000020: 2d82 16bc bb59 a63d a4c1 0ebe cb8c a3be
00000030: 40d5 96be 4d03 193e f4d7 75bf 164b 9fbe
00000040: 7e8b 04bf 88a7 87be 7cb8 ac3e 4fbf 9cbf
00000050: 03b6 cabe 6ac3 89bf 8ce4 25bf ca4d ddbb
00000060: 0748 b0bc 2a23 2fbf ff1f 06bf 8aeb e03c
00000070: 0aa7 07bf 29ff 14bf e303 0ebf d061 1abf
00000080: 7401 643d 8d5f f8bf d67a d5bd 8d94 24c0
00000090: 5615 d6be 6497 97be 494f bebe 2197 16bf
000000a0: 4243 1c3f 2b22 96bf 8e12 32be eb35 7bbf
000000b0: ccbf 8ebf 670a 78bf e3f6 8dbf 2bf3 9ebe
000000c0: 2931 fbbe bf43 b3be 436e 6cbf 101a f3be
000000d0: de83 d0be 718b 9a3e 9d3d c7be 6041 88be
000000e0: 55a4 a1be dc9a bdbe 7099 bcbe 86f4 82be
000000f0: 999e 913f 6fbb 11bf ddb9 ebbe b077 d6be
00000100: 6085 adbf d7e9 3bba 41e0 5f3f c98d 54bf
00000110: bf04 a9be 91e5 e13e 89fa f33d fbad 0bbf
00000120: fd0c 98be 9011 e6be 7b10 3f3e 6750 d4bd
00000130: cf86 0dbf 3abe 02bf a8b1 94bf 8724 183f
00000140: 484f b4be 855f 2bbf 9d5e 3e3e a33f a5be
00000150: e98e 223c 5fa1 eabe 0167 b0bf 7c92 12bf
00000160: 7039 82bf aa62 00bf 9e84 8fbe a342 633e
00000170: 4025 f6bd d942 26bf f3d0 193f b0b9 193e
00000180: c458 cbbd 4ac3 88bf 6a3c c0bd e0c3 243f
-0.6056265 -0.4634792 0.3408779 -0.13129611 -1.1014389 -0.3508801 -0.4280961 -0.6110489
-0.00918631 0.081225835 -0.13941056 -0.31943354 -0.29459572 0.14942665 -0.96032643 -0.31111974
-0.5177535 -0.26495004 0.337345 -1.2245883 -0.3959199 -1.0762761 -0.6480186 -0.006753658
-0.02151872 -0.6841303 -0.5239257 0.027456064 -0.52989256 -0.58201844 -0.5547468 -0.603055
0.05566545 -1.940416 -0.1042382 -2.5715668 -0.41813153 -0.2960769 -0.37169865 -0.58824354
0.6104013 -1.1729177 -0.1738989 -0.9812915 -1.1152282 -0.9689087 -1.1090969 -0.31044897
-0.49060944 -0.35012624 -0.92355746 -0.47480822 -0.40725607 0.3018451 -0.38914195 -0.26612377
-0.31570688 -0.3703221 -0.36835814 -0.25577182 1.1376525 -0.56926626 -0.4604024 -0.4188819
-1.3556328 -0.0007168329 0.8745156 -0.83028847 -0.33011433 0.44120458 0.1191302 -0.5456235
-0.2969741 -0.44935274 0.1865863 -0.10366898 -0.55283827 -0.5107151 -1.1616716 0.59430736
-0.35216737 -0.66942626 0.1859078 -0.32275113 0.009921768 -0.4582624 -1.3781434 -0.5725477
-1.0173779 -0.5015055 -0.28030866 0.22193389 -0.120188236 -0.6494575 0.60084456 0.1501224
-0.0992904 -1.0684597 -0.09386523 0.6436138

layers.1.weight f4 [50, 100]
00000000: b416 b8bd f700 44bd 3a87 9bbc 003c 6c3e
00000010: 5af4 8dbd 3fa5 d93d 8bc4 5cbe 7477 5cbd
00000020: c588 2abd a896 533e 33c4 043d c806 b43d
00000030: 47cc 313c 8fe4 b0bd ea2f 9fbd 998f eabd
00000040: 7f53 2a3e e8e2 323d 8561 f9bd caa4 08be
00000050: a65d a1bd 37a3 ed3c 6d9c 913d f92e cb3d
00000060: 6fd1 21bc 7c58 5f3d 04b7 abbc e85d a8bd
00000070: fe0d 72bd 5437 34be 9e04 6abe 6152 6b3e
00000080: b537 f039 6240 473c 6267 353c 2124 293d
00000090: e1c6 59bd 8d52 78bd c0be aa3c 2d4e 743d
000000a0: fced b63c cb60 fe3d b8a1 e4bc 3b96 b73d
000000b0: 3efd 31bd 9bc4 1ebd 73a9 2cbd ca46 78bd
000000c0: 1ac9 44be bf7b 3bbe ce21 e53d 9265 423e
000000d0: fef8 0a3e d34e 943d 7ab2 db3d 99cd 58bd
000000e0: 0224 503d 542b 46bd c014 123d cc42 5b3e
000000f0: a9e4 27be 4cc0 363d d527 7fbd d0a0 f33d
00000100: d062 013d 1e87 0a3c 7770 283e 9baa b4bd
00000110: c532 273e 10f4 92bb 4b03 abbc b097 1b3e
00000120: b6a8 33bd 056d cebd eb19 253e b7fc 8ebd
00000130: 5df4 0fbe 62f4 bfbd 4b4d 3e3e 9e01 64bd
00000140: 0076 133c 4175 09bd 2dd6 a43c 9fd9 0c3e
00000150: f3ed 8bbc fb65 c7bc 7911 4bbd d3cf 423d
00000160: 149b 8bbd 172a 113e f6f3 4b3d 5978 05bd
00000170: d04d 123e be72 ee3d cd3a aa3c 4de3 383d
00000180: 07f8 9ebd 43ac 2ebd 6d8e 403d da98 3b3e
00000190: b587 683f c22e 133e 6a63 543e 4fc7 f33e
000001a0: 0d24 4c3e 9f75 c93e 3754 4d3f 4ec7 bc3e
000001b0: bc55 cb3d 1080 9ebe 46bd c1bd 2be1 4d3e
000001c0: 4944 8d3e 0f86 0b3f 2345 b13e 9c28 0d3f
000001d0: 9e44 833e 51c9 c23e de6d 23be 6e42 093f
000001e0: 1fc6 b23e 9d28 c9bf 3b2b 333f 3a9e 9abb
000001f0: 2a93 d7be e111 153f c5c1 5c3e 8a75 1abe
00000200: b844 03be d7bd fb3e 7589 1d3f 8786 103e
00000210: efed 50be 4f24 bbbd 4f5b b83e fa12 193f
00000220: f826 1fbe 2010 ac3e a00c f13e 7530 303c
00000230: 4a21 a33e 5d96 013f d0ca cd3e 5131 0cbf
00000240: 8d42 cb3e b930 9b3e 951e 113f ddab 7cbd
00000250: 0564 4a3f 0893 173e ead5 153e fd26 a73e
00000260: ac0c 8c3e 87cb 44be f80f f63e 73e8 17bd
00000270: 67d9 a3bd 6be3 013f 9e19 023f 4a87 debd
00000280: aef0 90bd a9f5 39bf dc1f 943e e5c8 c0be
00000290: 324c 0b3f 23aa 183b 7eda b03e 1625 f53e
000002a0: e9e3 063f 49d4 e13e 4c6d 9e3e ded8 16bf
000002b0: a08c e4bd deac 9a3e 5a42 b23d c3c0 5c3e
000002c0: c2d0 ae3e 973a 953e 6aaf 1f3e 3fb4 66be
000002d0: 5ec2 573f 865a 51be f21e b13e cc23 c2bf
000002e0: dcec 453f 48fb 333c 7aa2 7d3e 7ebb fe3e
000002f0: 1e6e 35bf 79e3 7e3e 6004 5a3e b612 2e3f
00000300: 6ccf 7dbd 6052 8c3e 2b95 b3bd a9c2 d93e
00000310: ab2d 943e 34fa 8ebf a1f2 d53e 4012 9f3e
00000320: 470b aebd 46f6 163e 52c0 b9bd c012 0b3e
00000330: 9f56 a8bd e30f d73d 3285 ec3d 266e ee3d
00000340: 15a0 2abd 8fc4 223d 9f76 eabd c920 c2bc
00000350: 4940 bb3d 93f5 8f3c 3284 16be ad2e 21bb
00000360: a17c 97bd fa65 5b3c 8886 f93d 1524 9d3e
00000370: 230e a1bd dda7 4dbe 197f 9e3c d892 9fbd
00000380: a1a8 02be d87e eabb 928c 0ebe 519e 79bc
00000390: 62e4 093c 2a13 8a3d 3a88 c33e 44a7 ac3d
000003a0: 200a 583e 0de8 2abe 5fce 523d 8641 f8bd
000003b0: 6fb9 b8bd 96b2 debd c3a0 82bd 63cf a9bd
000003c0: fac2 813c 1453 423e a8be 50be 2a07 b2bd
000003d0: d142 b13d b205 123d 8096 563e c6e3 6a3d
000003e0: 266c bdbb e048 07bd d8d4 f13d c490 d93d
000003f0: 274c b2bd a66f 75bd e0f2 5dbd 5d46 7bbd
-0.08988705 -0.047852483 -0.01898538 0.23069763 -0.06931372 0.10627221 -0.2155935 -0.053824857
-0.04163434 0.2066294 0.032413673 0.08790356 0.010851926 -0.08637344 -0.07772811 -0.1145317
0.16633414 0.043673426 -0.121768035 -0.13344112 -0.0787919 0.029008491 0.07109914 0.09921069
-0.009876593 0.054527745 -0.020961292 -0.08221036 -0.059095375 -0.17599231 -0.22853324 0.22980644
0.00045817872 0.012161346 0.011072012 0.04129422 -0.05316818 -0.0606256 0.02084291 0.059644867
0.022330277 0.124208055 -0.027909145 0.08964201 -0.0434544 -0.038761716 -0.042153787 -0.060614385
-0.19217339 -0.18308924 0.11188088 0.18984058 0.13571545 0.07241597 0.10727401 -0.05293045
0.05081559 -0.048381165 0.03566432 0.214122 -0.1639582 0.044616982 -0.062293846 0.11895907
0.031588376 0.008455066 0.16449152 -0.08821603 0.16327961 -0.004484661 -0.020875594 0.15194583
-0.043862067 -0.100793876 0.16123168 -0.06981795 -0.14058061 -0.09372784 0.18584172 -0.055665605
0.009000301 -0.033559088 0.020121658 0.13754891 -0.017081236 -0.02434062 -0.04957721 0.047561478
-0.06816688 0.14176212 0.049793206 -0.032585476 0.14287496 0.11642979 0.020779992 0.045138646
-0.07762151 -0.04264475 0.047010828 0.18320027 0.9083207 0.14373305 0.20741048 0.47612998
0.19935627 0.3934755 0.80206627 0.36870807 0.09928462 -0.3095708 -0.09459929 0.20105426
0.2759116 0.5450143 0.3462306 0.5514009 0.25638288 0.38044217 -0.1595988 0.5361699
0.3491678 -1.5715519 0.6998784 -0.004718569 -0.42104465 0.58230406 0.21558292 -0.150839
-0.12819183 0.49168274 0.6153787 0.14113818 -0.20403264 -0.09137785 0.36007163 0.5979458
-0.15542209 0.33606052 0.47079945 0.010753741 0.31861335 0.5062006 0.40193796 -0.5476275
0.39699212 0.3031061 0.5668729 -0.06168734 0.7905887 0.14802182 0.14632383 0.32646933
0.27353418 -0.19218265 0.48059058 -0.037086915 -0.080004506 0.5073764 0.5082034 -0.10865648
-0.07077156 -0.7264047 0.28930557 -0.3765327 0.5441314 0.0023294769 0.34541696 0.47879857
0.52691513 0.44107273 0.30942762 -0.58924663 -0.111596346 0.30210012 0.08704062 0.21557908
0.34143645 0.29146263 0.15594259 -0.22529696 0.84280956 -0.20444688 0.34593922 -1.5167174
0.77314544 0.010985203 0.24769011 0.4975242 -0.7087115 0.24891461 0.21290731 0.679973
-0.06196539 0.27406597 -0.08768686 0.42531326 0.28941092 -1.1170106 0.41786674 0.3106861
-0.08498245 0.14742383 -0.09069885 0.13581371 -0.08219647 0.10501077 0.115488425 0.11642103
-0.041656572 0.039738234 -0.114484064 -0.023697274 0.09143121 0.017573154 -0.14698866 -0.0024594471
-0.07396818 0.013391012 0.12183863 0.3069159 -0.078640245 -0.20083566 0.019347714 -0.0779168
-0.1275964 -0.0071562342 -0.13920811 -0.0152354995 0.008416267 0.067419365 0.3818987 0.08430341
0.21097612 -0.16690083 0.051466342 -0.121218726 -0.09019744 -0.10873906 -0.06378319 -0.08291509
0.015840042 0.18977004 -0.2038523 -0.08692773 0.08655322 0.035649963 0.20955849 0.057346128
-0.0057807146 -0.033028483 0.11808175 0.10623315 -0.08705931 -0.05992093 -0.0541867 -0.0613464

layers.1.bias f4 [50]
00000000: d34f 0c3e a5ed 653f 3d16 f2bc e1bf 30bd
00000010: 1c1a 963d 5c03 48be 3cc6 1c3f b98c 063f
00000020: 33c0 c03d 450c 473d 0438 49be dea4 cf3d
00000030: 412a 363f dc59 ac3d a943 fabe 7078 eb3d
00000040: 3ea4 0a3f d372 5b3f 1edf 4f3e 7520 8dbd
00000050: bea2 5a3b baa3 363f 062e 5d3f c345 053f
00000060: 43a0 26bc bc63 653d e71f 353f 4855 0a3f
00000070: 23b7 abbc 52f3 5a3f 8527 8abd 8553 8b3f
00000080: 97f6 803f 12b8 183c 229f c9bc a78d 423f
00000090: fa82 3bbf 1c9b 8abc 0f2f 353e c23e 913d
000000a0: 2843 123f c039 383f 612d cdbd 59fb 483e
000000b0: eb1e e33d 34fa 473f a864 203e 2176 183e
000000c0: 7a03 8bbe 384e 153e
0.13702326 0.8981574 -0.02955162 -0.04315174 0.07329199 -0.19532531 0.6123998 0.52558476
0.09411659 0.048595686 -0.19650275 0.10138868 0.71158224 0.08415577 -0.48879746 0.11497581
0.54156864 0.8572208 0.20299956 -0.06890956 0.0033361162 0.71343577 0.8639835 0.5205957
-0.010170045 0.056003317 0.70751804 0.5403638 -0.02096135 0.8552753 -0.06745819 1.0884863
1.0075253 0.0093212295 -0.024612013 0.75997394 -0.7324673 -0.016919665 0.17693733 0.07092048
0.5713372 0.7196312 -0.10018421 0.19627132 0.110898815 0.78116155 0.15663397 0.14888813
-0.2715109 0.1458062

layers.2.weight f4 [2, 50]
00000000: 4b24 4b3c 48df 933e fb33 273b 6f33 07bc
00000010: 3a45 0e3c 6cee ccbc 3b7a 8c3e 7171 4f3e
00000020: 461b 43bc c73a 92bc 15b2 3f3b 9583 4cbc
00000030: dc45 3cbe efc1 a2bc 13a2 05bf 301e 3ebc
00000040: f891 7b3b 4b8c 323e e75a 813c 0205 293d
00000050: 32c9 bebe 31b3 a2be d375 d73e c35c 01bc
00000060: 8df3 8b3a 66f2 653c 1a49 14be fded d23d
00000070: d6eb 3b3c d491 cbbd 683d 953d 6583 41bd
00000080: 7747 633e da0b 6f3d 5037 183c c020 063f
00000090: 7c5d 033f 85af 5a3b 8843 183c f179 b93b
000000a0: cf91 c73e 0016 80be 4357 8e3b ac1e 7b3c
000000b0: 8087 363d 91ba 4dbe c59e ca3c 6af6 cf3c
000000c0: 54a0 e4be d563 463c 7907 e0ba 7021 e3be
000000d0: 9b3f 183c be8a dabc 31d9 cd3b 93bd 3a3c
000000e0: 3017 693e e631 cbbc fe7f 14bd 47a9 da3d
000000f0: f9ff 8ebc 7e1a b8b9 2416 c03d 4f1e b8bc
00000100: fa28 adbe 1448 4dbc 2992 4a3e ae6d 5bbd
00000110: 9baf bd3c acba 82be f422 bf3e 1059 29be
00000120: 28d6 02bf fa61 a7bd 506f 54bc a753 22ba
00000130: f110 7cbd d586 1cbe 1367 69bc c599 863e
00000140: bd85 0b3c a27c 8b3e ece9 a73e a35f 0fbd
00000150: 6d86 d5bb 6842 08bf d474 d33e bbe2 053d
00000160: 11ec d53c c2fd 51bc ec8d bebe 8cba 83be
00000170: 03ee 03bb 1b1d 223d b5f6 b63d f366 81be
00000180: 5ebd 473b 6ae1 253d c043 a33e 32d2 1e3c
0.01239879 0.28881288 0.002551316 -0.008252009 0.008683497 -0.025016032 0.27437004 0.20258118
-0.011908358 -0.017850293 0.0029250432 -0.0124825435 -0.18386024 -0.019867865 -0.5220043 -0.011603877
0.0038386565 0.1743633 0.015790416 0.04126454 -0.37262875 -0.31777337 0.4208208 -0.007895651
0.0010677442 0.014034843 -0.14481011 0.10299299 0.011469802 -0.09939924 0.07287103 -0.04724445
0.2219523 0.058360912 0.009290531 0.5239372 0.5131452 0.0033368778 0.009293444 0.0056602885
0.3897843 -0.25016785 0.0043438985 0.015327137 0.044562817 -0.200907 0.02473391 0.025386054
-0.4465357 0.012108763 -0.0017092071 -0.44361448 0.0092925085 -0.026677486 0.0062819947 0.011397737
0.22762752 -0.024804067 -0.036254875 0.10676818 -0.017456042 -0.00035114953 0.09379223 -0.02247539
-0.33820325 -0.012529392 0.19782318 -0.053571396 0.023155024 -0.25533044 0.37331355 -0.16537881
-0.51108027 -0.081729844 -0.012965992 -0.0006192275 -0.061539594 -0.1528581 -0.014245766 0.26289192
0.008515772 0.27243525 0.32795656 -0.035003316 -0.006516269 -0.5322633 0.4130007 0.03268693
0.026113542 -0.012816848 -0.37217653 -0.2572826 -0.002013088 0.03957854 0.089337744 -0.25273857
0.0030477862 0.040498175 0.31887627 0.009693669

layers.2.bias f4 [2]
00000000: 4279 83bd 71ce 98be
-0.064196125 -0.29845002
