notebooks/paper-plots/models/w0.0.pt (torch, 339531 bytes, 8 tensors)

layers.0.weight f4 [100, 784]
0	0x3ccbe820	0.02489096
1	0x3d0acf31	0.033889
2	0x3d083223	0.03325094
3	0x3ced3e8e	0.028960492
4	0xbc91584e	-0.017742302
5	0x3c7a27a0	0.015268236
6	0xbc96c675	-0.018405179
7	0xbcc83c20	-0.024442732
8	0x3c0eeaf4	0.008723009
9	0x3c1102b0	0.008850738
10	0x3d113b2f	0.035456832
11	0xbc40b05c	-0.011760797
12	0xbc638952	-0.01388772
13	0x3cd875cc	0.026423357
14	0xbbeffadc	-0.007323606
15	0x3b457970	0.0030132197
16	0xbce4b773	-0.027919507
17	0x3c03a7bc	0.008035596
18	0xbc78f35c	-0.01519474
19	0xbcf681d5	-0.030091206
20	0xbd0dd95b	-0.034631114
21	0x3c8cf5ee	0.017207112
22	0xbcb13138	-0.021629915
23	0xbd00df23	-0.0314628
24	0x3c910e8e	0.017707136
25	0x3ced72d2	0.028985415
26	0xbad752c0	-0.001642786
27	0x3c96c870	0.018406123
28	0x3ca6072a	0.020267088
29	0xbc32e540	-0.010918915
30	0xbd07b84e	-0.03313475
31	0x3b4a4200	0.0030862093
32	0xbc4dad38	-0.012553506
33	0x3d0b94bb	0.034077387
34	0xbcaeeb83	-0.021352535
35	0xbda8b2bc	-0.08237216
36	0xbd4ce91c	-0.050026998
37	0xbda4e78c	-0.080519766
38	0xbd51b328	-0.051196247
39	0xbe19d272	-0.15021685
40	0xbdc31830	-0.09526098
41	0xbdbfad58	-0.093592346
42	0xbdacf724	-0.08445576
43	0x3d40be1e	0.04705631
44	0x3e553df1	0.2082441
45	0x3d26671b	0.040625673
46	0xbdb2a094	-0.08722034
47	0xbdae68ec	-0.08516106
48	0xbe268cb2	-0.16264609
49	0xbd9a6be0	-0.07540107
50	0xbc8b942b	-0.017038425
51	0x3c00d224	0.007862601
52	0x3c9a90b8	0.018867835
53	0xbc968170	-0.018372267
54	0x3d0e1ac7	0.034693506
55	0xbcf9a3d3	-0.030473625
56	0xbc69c4b8	-0.014268093
57	0x3cd27e96	0.025695127
58	0xb9d4e380	-0.00040605292
59	0x3cf4a442	0.02986348
60	0xbd8261ad	-0.063662864
61	0xbd0be1b6	-0.0341508
62	0xbd00d0fe	-0.03144931
63	0xbd209300	-0.03920269
64	0xbd795c59	-0.060879085
65	0xbdea6654	-0.11445299
66	0xbdc4ce2a	-0.09609635
67	0xbdeffc14	-0.11718002
68	0x3db2aa30	0.08723867
69	0x3d822fa8	0.06356746
70	0x3c93e9ef	0.018055884
71	0xbdac3823	-0.08409145
72	0xbd14fe9d	-0.03637563
73	0xbd12178f	-0.035667
74	0xbdf5f4cf	-0.12009584
75	0xbe31ad1a	-0.1735119
76	0xbdfcdc7e	-0.12346743
77	0xbd877ed6	-0.06615989
78	0xbdd5e047	-0.10443168
79	0x3e132233	0.14368515
80	0x3dbc3b99	0.09191055
81	0x3d112fcf	0.035445984
82	0x3bdd33b8	0.00675055
83	0x3d0b5fb1	0.034026805
84	0xbc9afe2e	-0.01892003
85	0x3cff8756	0.031192463
86	0x3cd9ecdc	0.026602201
87	0xbd0a45a7	-0.033757832
88	0xbcfffac6	-0.031247508
89	0xbd06d524	-0.03291811
90	0xbd64b5c2	-0.0558374
91	0xba52043e	-0.00080114964
92	0xbda89982	-0.08232404
93	0x3c224f4a	0.009906599
94	0x3d68cd6a	0.056836523
95	0x3d309831	0.04311389
96	0x39edc026	0.00045347324
97	0x3c8902c2	0.016724948
98	0xbd450c80	-0.048107624
99	0x3d7edf6c	0.06222479
100	0x3dbbccd0	0.09169924
101	0xbd775d4e	-0.060391717
102	0xbe20ccfd	-0.15703197
103	0xbdf772c0	-0.12082434
104	0xbca3e03d	-0.020004386
105	0x3bd84de1	0.0066010808
106	0x3c1d1280	0.00958693
107	0x3d229bc2	0.039699323
108	0x3deb26a4	0.114819795
109	0x3cb2fbf0	0.021848649
110	0x3a8269c0	0.0009949729
111	0xbc977285	-0.018487224
112	0x3ca46b1e	0.020070609
113	0xbd0ef0a3	-0.034897458
114	0x3d0a0cf9	0.033703778
115	0xbd593e44	-0.053037897
116	0xbe851d48	-0.25998902
117	0xbe9141a1	-0.28370383
118	0xbe55afe1	-0.20867874
119	0x3d43aa1a	0.047769643
120	0x3d308969	0.043099795
121	0x3e14798a	0.14499488
122	0xbdc6bb6b	-0.09703716
123	0xbc6e4eca	-0.014545152
124	0x3d530918	0.051522344
125	0x3e0429ca	0.12906566
126	0x3d64686f	0.055763658
127	0x3d367d09	0.044552837
128	0x3d8b4034	0.06799355
129	0x3d8f6235	0.070011534
130	0x3e100e70	0.14068007
131	0x3d94ac6c	0.07259449
132	0xbd875f11	-0.06609929
133	0xbc4600ef	-0.0120851835
134	0xbe29243b	-0.16517727
135	0x3df134ef	0.117776744
136	0x3e87d994	0.26533186
137	0x3d9e20cf	0.077211015
138	0xbc905c6a	-0.017622191
139	0xbcc3e1f3	-0.023911452
140	0x3cb4a1a6	0.022049736
141	0xbabcd9c0	-0.0014408156
142	0xbd086141	-0.033295874
143	0xbdca632c	-0.09882197
144	0xbd1650aa	-0.03669802
145	0xbd116348	-0.035495073
146	0x3d0bb4c9	0.034107957
147	0x3d8b2491	0.06794084
148	0x3d3e6c3f	0.04648995
149	0x3d9dc3a2	0.077033296
150	0x3d08b2ca	0.03337363
151	0xbc7c202f	-0.015388533
152	0x3e1462de	0.1449084
153	0x3e10ddb9	0.1414708
154	0x3e142d2d	0.14470358
155	0x3d87ecee	0.066369876
156	0x3dd275e7	0.10276394
157	0xbc1e7421	-0.009671242
158	0x3d69f048	0.057113916
159	0x3c8fe99a	0.017567445
160	0x3d7a6cf3	0.06113906
161	0x3e09c4e6	0.13454017
162	0x3df11ec8	0.11773449
163	0x3e112bae	0.14176819
164	0x3e21f100	0.1581459
165	0x3da23764	0.07920721
166	0xbe0f79dc	-0.1401133
167	0xbd037d20	-0.03210175
168	0x3cde7956	0.027157467
169	0xbb55da20	-0.0032631233
170	0x3e06538f	0.13117813
171	0x3bfc7212	0.007704028
172	0xbd445b38	-0.047938555
173	0x3c56edb4	0.013118196
174	0xbdf67fb9	-0.1203608
175	0x3d54aa44	0.05192019
176	0x3db95e59	0.090511985
177	0x3daa4589	0.08314044
178	0xbcf52fff	-0.029930113
179	0x3c290f34	0.010318566
180	0x3d9a86cc	0.07545242
181	0x3d9931a8	0.07480174
182	0x3cddba3c	0.027066343
183	0x3d2401ec	0.040040895
184	0x3d8ad8b3	0.06779613
185	0x3d06f7c3	0.032951128
186	0x3c818773	0.015811658
187	0xbb6a2c87	-0.0035732107
188	0xbcac6218	-0.021042868
189	0x3e759d28	0.23985732
190	0x3e4b8374	0.19874364
191	0xbdb27970	-0.087145686
192	0xbe04f759	-0.1298498
193	0xbe02970d	-0.12752934
194	0xbd65f531	-0.056142036
195	0xbd86926d	-0.06570897
196	0x3d71c7c1	0.05902839
197	0x3e89d492	0.2691999
198	0x3e31cf55	0.17364247
199	0x3d85f58e	0.065409765
200	0x3e85205c	0.2600125
201	0x3dbf29fc	0.0933418
202	0xbdd71640	-0.10502291
203	0x3e5b02a6	0.21387729
204	0x3daa0d99	0.08303375
205	0x3d82aa50	0.06380141
206	0x3cc1972f	0.02363166
207	0x3dfdf51b	0.12400266
208	0x3d8914a1	0.06693388
209	0xbdbc2ff6	-0.09188835
210	0xbe1220ed	-0.14270373
211	0xbddf9481	-0.10916997
212	0xbd5cade2	-0.053876765
213	0xbd603106	-0.054734252
214	0x3ded09d5	0.11574141
215	0x3e2aa20e	0.16663381
216	0x3dda9a6b	0.10673984
217	0x3e2c30f1	0.16815545
218	0x3dd616f8	0.104536
219	0xbbac1310	-0.005251296
220	0xbde2b16b	-0.11068996
221	0x3cc33c5d	0.023832494
222	0x3d7534bf	0.059864756
223	0xbdd74609	-0.10511405
224	0x3cee10cb	0.029060742
225	0x3d90e27b	0.07074448
226	0x3e5712c4	0.21003252
227	0x3cae86d0	0.021304518
228	0x3e87b47e	0.26504892
229	0x3e34531b	0.17609827
230	0xbc026e08	-0.007960804
231	0x3de0c6c1	0.10975409
232	0x3d84321e	0.064548716
233	0x3da0028d	0.078129865
234	0x3e0a6164	0.13513714
235	0x3e101383	0.14069943
236	0x3d77839e	0.060428254
237	0x38a22fca	7.7336634e-05
238	0x3d8a2537	0.067453794
239	0x3db73ea7	0.08947497
240	0x3d38d802	0.045127876
241	0x3e00fa84	0.12595564
242	0x3e426ce6	0.18986854
243	0x3e3cbc81	0.18431284
244	0x3d606e73	0.054792833
245	0x3e215990	0.15756822
246	0x3e15d1f2	0.14630869
247	0xbd368d27	-0.044568207
248	0x3d9a5053	0.07534852
249	0x3c898690	0.016787797
250	0x3e2db4b1	0.1696346
251	0x3e89d103	0.26917276
252	0x3d116184	0.03549339
253	0x3f04ca36	0.5187105
254	0x3d132dc9	0.035932336
255	0xbdf1a48b	-0.11798962

layers.0.bias f4 [100]
0	0x3dafd534	0.08585587
1	0x3dfe5ad3	0.12419667
2	0x3c1b50ac	0.009479683
3	0x3dd6a134	0.10479966
4	0x3e012d58	0.12614954
5	0x3d041c55	0.032253582
6	0x3dd34b0a	0.10317047
7	0x3d81c2da	0.06335993
8	0x3dcf4ba9	0.10121853
9	0x3d63e2ab	0.05563609
10	0x3da3d16a	0.07998927
11	0x3d586e19	0.052839372
12	0x3dc33e7a	0.09533401
13	0x3d9c4050	0.07629454
14	0x3dacfccb	0.08446654
15	0x3e1fc441	0.15602209
16	0x3de24b90	0.11049569
17	0x3d64604b	0.055755895
18	0x3dcb3fd0	0.09924281
19	0x3b067209	0.0020514748
20	0x3e0531a4	0.13007218
21	0x3cf1d775	0.029521683
22	0x3d6bee26	0.057600163
23	0x3d86ea53	0.065876625
24	0x3de7c333	0.11316528
25	0x3dc9498c	0.09828481
26	0x3e213a5a	0.15744916
27	0x3dd4c5f9	0.10389323
28	0x3d759652	0.05995781
29	0x3ddca76e	0.10774122
30	0x3d624de1	0.055250052
31	0x3d4c595b	0.049889904
32	0x3dfb11b6	0.122592375
33	0x3d117b5f	0.035518046
34	0x3d5ebd44	0.054379717
35	0x3d5f7b97	0.054561224
36	0x3d2af205	0.041734714
37	0xbc1efb45	-0.009703462
38	0x3d7dc89d	0.061958898
39	0x3d303a38	0.04302427
40	0x3d09f472	0.033680387
41	0x3cc3193f	0.02381575
42	0x3de9b11b	0.11410733
43	0x3cca4594	0.02469138
44	0x3e0cd7a6	0.13754138
45	0x3e0871bb	0.13324635
46	0x3d6149c7	0.055002
47	0x3dbbf6b9	0.09177918
48	0x3dbafe71	0.09130562
49	0x3e09ee7d	0.13469882
50	0x3d96ae60	0.07357478
51	0x3d9259ba	0.0714602
52	0x3da74213	0.081668995
53	0x3e1859dd	0.1487803
54	0x3da7b6b5	0.081891455
55	0x3cbb8f11	0.022895368
56	0x3d9a6526	0.07538824
57	0x3dc14bfa	0.094383195
58	0x3a10ae50	0.00055191386
59	0x3d8a2035	0.06744424
60	0x3dcadac9	0.09905011
61	0x3e069929	0.13144363
62	0x3d2ba165	0.041901965
63	0x3d38500e	0.04499822
64	0x3dd1f310	0.102514386
65	0x3dc0d5bd	0.09415767
66	0x3dc72fef	0.097259395
67	0x3db53a93	0.08849063
68	0x3d1a1190	0.037614405
69	0x3dd5b147	0.104342036
70	0x3d7c1a18	0.061548322
71	0x3dd13967	0.10216027
72	0x3dc6a437	0.0969929
73	0x3d40279d	0.04691278
74	0x3dcb9304	0.099401504
75	0x3dc3bceb	0.095575176
76	0x3d909314	0.07059303
77	0x3dbf2f8b	0.0933524
78	0x3d891349	0.066931315
79	0x3dfa301a	0.12216206
80	0x3d1459c0	0.036218405
81	0x3db7fba4	0.089835435
82	0x3daa28ca	0.08308561
83	0x3dbb3d9b	0.0914261
84	0x3d991679	0.074749894
85	0x3d013079	0.031540368
86	0x3d155547	0.03645828
87	0x3d52f5d7	0.051503982
88	0x3d97ecf6	0.074182436
89	0x3e19c771	0.15017487
90	0x3d584647	0.052801397
91	0x3db24af1	0.087057
92	0x3db180ba	0.08667131
93	0x3dd3c427	0.103401475
94	0x3d91d066	0.07119827
95	0x3de4245b	0.11139747
96	0x3c446942	0.011987986
97	0x3e0881b7	0.13330732
98	0x3d094756	0.033515297
99	0x3dbbd4d0	0.0917145

layers.1.weight f4 [50, 100]
0	0x3c5b6c00	0.013392448
1	0x3da9c75e	0.082899794
2	0xbce14a96	-0.027501386
3	0x3df0f1a2	0.11764838
4	0x3da0d79a	0.07853623
5	0x3cf059cf	0.0293397
6	0x3dd22221	0.10260416
7	0x3e82b4a8	0.25528455
8	0xbd52c359	-0.05145583
9	0xbde0840e	-0.109626874
10	0xbd83542b	-0.06412538
11	0x3dec8b60	0.11550021
12	0x3e943f53	0.28954563
13	0x3e0df556	0.1386312
14	0xbe0c8a78	-0.13724697
15	0x3e642330	0.22279048
16	0x3bf21918	0.0073882453
17	0x3e959452	0.29214722
18	0xbe15a2c6	-0.14612874
19	0x3e31bdac	0.1735751
20	0xbe4d2c1f	-0.20036362
21	0xbde89671	-0.113568194
22	0x3e09badd	0.13450189
23	0x3d746a1d	0.05967151
24	0xbd68924e	-0.056780152
25	0xbd1bd133	-0.038041305
26	0x3eb47656	0.35246533
27	0xbe3f1885	-0.18661697
28	0x3c97acea	0.018515069
29	0x3dd4da32	0.1039318
30	0xbe4e0d76	-0.20122322
31	0xbd587d70	-0.052854
32	0x3c39081e	0.011293439
33	0xbe311e39	-0.17296685
34	0x3e0a87ba	0.13528338
35	0x3e3f575e	0.18685672
36	0xbddfb89d	-0.10923884
37	0xbdf76dff	-0.12081527
38	0x3d92f760	0.07176089
39	0x3e25d53b	0.16194622
40	0x3dd0b764	0.10191229
41	0xbe43851f	-0.1909375
42	0x3e666e5e	0.22503039
43	0x3d32c65d	0.043646205
44	0x3e8d97a7	0.27654764
45	0xbd5d36a7	-0.0540072
46	0x3d643daf	0.05572289
47	0x3e3ebf8a	0.18627754
48	0x3db37663	0.08762815
49	0xbdaf8a93	-0.08571353
50	0x3dbd0540	0.09229517
51	0xbc068e3f	-0.008212625
52	0xbd90adae	-0.07064377
53	0x3e501bc4	0.20323092
54	0x3d7a33a6	0.061084412
55	0x3df9033e	0.121588215
56	0x3db8c657	0.09022205
57	0xbcee62f6	-0.029099923
58	0xbd78bd2e	-0.06072729
59	0x3c125839	0.008932167
60	0xbcfee117	-0.03111319
61	0xbe2da544	-0.16957575
62	0xbe2a2946	-0.16617307
63	0xbd63de50	-0.055631936
64	0xbd60dff7	-0.05490109
65	0xbd673e12	-0.05645568
66	0x3e8f7785	0.28020874
67	0x3e7ea3cf	0.24867176
68	0x3d31f8f3	0.043450307
69	0xbbd74094	-0.0065689776
70	0x3e08a239	0.13343133
71	0x3e03f7d1	0.12887503
72	0xbe14b531	-0.14522244
73	0x3e1e4a2d	0.15457983
74	0x3e09dc8a	0.13463035
75	0x3d67e873	0.056618165
76	0x3d754bdc	0.0598868
77	0xbd0a6588	-0.033788234
78	0x3e4237d9	0.18966617
79	0xbe00a33f	-0.12562273
80	0xbd827c29	-0.06371338
81	0xbc2ad751	-0.010427312
82	0x3d36b2a7	0.04460397
83	0x3d9c6b4f	0.07637655
84	0xbe320ccc	-0.17387694
85	0xbe2f3eec	-0.17113847
86	0xbe6e9090	-0.23297334
87	0x3da98557	0.08277386
88	0xbd54c8d8	-0.051949352
89	0x3e084256	0.13306555
90	0x3e09c185	0.13452728
91	0x3d038889	0.032112632
92	0xbe154049	-0.14575304
93	0x3d716604	0.05893518
94	0xbdb1c8c8	-0.08680874
95	0x3de0e5b1	0.1098131
96	0xbde2ba1e	-0.11070655
97	0xbd9307d5	-0.07179228
98	0x3d1d026f	0.0383324
99	0x3d3f12f1	0.046648923
100	0x3d832d83	0.06405165
101	0xbe4b7cf6	-0.19871888
102	0xbcb44a46	-0.022008073
103	0x3cbc4b56	0.022985142
104	0xbe887c7a	-0.26657468
105	0xbda685c8	-0.081309855
106	0x3e585b5f	0.21128605
107	0x3e84f31e	0.25966734
108	0x3e3dd123	0.1853681
109	0x3cce5759	0.025188135
110	0x3da2980c	0.07939157
111	0xbe344633	-0.17604904
112	0xbcc844a9	-0.024446802
113	0xbe460c94	-0.19340736
114	0x3cd4a8dd	0.025959427
115	0xbe519967	-0.20468675
116	0xbd131068	-0.035904318
117	0xbe50b110	-0.20380044
118	0x3e5c6eb2	0.21526602
119	0xbcf865c7	-0.030321969
120	0x3e540e82	0.2070866
121	0x3e5bf1ee	0.21479008
122	0x3cff6b9e	0.031179246
123	0x3e0ebdf4	0.13939649
124	0x3d02f1b5	0.03196879
125	0xbc783092	-0.015148299
126	0xbde14989	-0.11000354
127	0x3d66ccfc	0.056347832
128	0xbe3bf8e2	-0.1835666
129	0x3de21a72	0.110402
130	0x3bbea492	0.005817958
131	0xbd371417	-0.044696894
132	0x3dbdd544	0.09269193
133	0x3dd5c726	0.10438375
134	0xbd470eef	-0.048598226
135	0x3e256631	0.16152264
136	0x3e2fbb70	0.17161345
137	0x3e0fc8ae	0.14041397
138	0x3e6bbcc8	0.23021233
139	0xbb4688c4	-0.003029392
140	0x3e21eda0	0.15813303
141	0x3e017282	0.12641338
142	0xbe04fb54	-0.12986499
143	0x3d4abb9a	0.049495317
144	0xbe959a83	-0.29219446
145	0x3d682dc8	0.056684285
146	0xbd20e56a	-0.039281286
147	0xbe691cb9	-0.22764863
148	0x3e17264e	0.14760706
149	0xbe5ae1ca	-0.21375194
150	0xbd8f6c25	-0.07003049
151	0xbde05790	-0.10954201
152	0x3e278b86	0.16361818
153	0xbe105baf	-0.14097475
154	0xbe4f6e88	-0.20257008
155	0xbe9af977	-0.30268452
156	0xbe5b5baf	-0.21421693
157	0xbe1e6d00	-0.15471268
158	0xbda8a47b	-0.08234497
159	0x3e3a8538	0.18214881
160	0xbdfceba5	-0.12349633
161	0x3e0b75cd	0.13619156
162	0xbddf4951	-0.10902656
163	0xbd853c95	-0.06505696
164	0xbba5e0d0	-0.0050622
165	0xbe4ba663	-0.1988769
166	0x3d31de75	0.043425042
167	0xbe044fd3	-0.12921076
168	0xbe39472f	-0.1809356
169	0x3e3279f4	0.17429334
170	0xbd832613	-0.064037465
171	0x3e61e73a	0.22060862
172	0x3e1469d2	0.14493492
173	0x3d8d5169	0.069002934
174	0xbe2a366a	-0.1662232
175	0x3c55f8f1	0.013059841
176	0xbe2bffd9	-0.16796817
177	0xbc749355	-0.014927705
178	0xbdb13d3a	-0.08654256
179	0x3e2fbcd7	0.1716188
180	0x3e66c363	0.22535472
181	0xbbebec66	-0.0071998117
182	0xbd5b0596	-0.053472124
183	0x3e0fc068	0.14038241
184	0x3d256bfd	0.04038619
185	0x3ceabc0f	0.028654126
186	0x3d274470	0.04083675
187	0x3dca552f	0.09879529
188	0x3e4ca2fb	0.19984047
189	0xbe225a9f	-0.15854882
190	0x3e0861cf	0.13318561
191	0x3dd48d55	0.103785194
192	0x3dbdb4a5	0.09262971
193	0x3b8b4237	0.004249837
194	0xbbc14721	-0.005898372
195	0xb99a286e	-0.0002940329
196	0xbe898fd3	-0.26867542
197	0x3e56219b	0.20911257
198	0x3d0b81b5	0.034059245
199	0x3e0f7fc6	0.14013585
200	0xbcf3340f	-0.02968791
201	0xbdcf73b2	-0.10129489
202	0x3b071fb1	0.0020618255
203	0x3e1624d1	0.14662482
204	0xbb5f3613	-0.003405933
205	0x3d6deddf	0.05808818
206	0x3e088462	0.1333175
207	0xbde642e3	-0.112432264
208	0xbe2b5816	-0.16732821
209	0x3cdb8a2c	0.026799284
210	0x3d7885df	0.060674544
211	0xbe18e99c	-0.14932865
212	0xbc36f122	-0.011165889
213	0x3e03e6c7	0.12881003
214	0xbd2f7b9b	-0.04284249
215	0xbd107651	-0.035269085
216	0x3e30a403	0.17250066
217	0xbe448d5b	-0.19194548
218	0x3d941d1e	0.07232116
219	0xbe33b01c	-0.17547649
220	0x3d091a24	0.033472195
221	0xbb8ebbd0	-0.004355885
222	0x3dd5aa4b	0.104328714
223	0x3d8836b5	0.066510595
224	0x3e9023c3	0.28152284
225	0x3e6f4b1e	0.23368499
226	0x3e56cef6	0.20977387
227	0x3d82727c	0.063694924
228	0x3d374e9d	0.044752706
229	0x3dee3d31	0.11632765
230	0x3e0a8fe1	0.13531448
231	0xbd98ca7b	-0.07460495
232	0x3d963def	0.07336032
233	0xbd037013	-0.032089304
234	0xbe4b16eb	-0.19832961
235	0xbe4ab59f	-0.19795845
236	0xbd63dd91	-0.055631224
237	0x3c56e192	0.013115304
238	0xbd327f02	-0.043578155
239	0x3c661310	0.014042631
240	0x3d10fcd4	0.035397366
241	0xbcde37a2	-0.027126137
242	0xbca7265a	-0.02040403
243	0x3c44eed7	0.0120198345
244	0xbe276d0b	-0.1635019
245	0x3b52352e	0.0032075155
246	0x3e4f8db5	0.202689
247	0x3e2db535	0.16963656
248	0x3d9ca228	0.07648116
249	0x3e2bf489	0.16792502
250	0x3c254aac	0.010088604
251	0x3e20400c	0.15649432
252	0x3db8e585	0.090281524
253	0x3d6cc9b6	0.057809554
254	0x3cd5d0b2	0.02610049
255	0x3d4ac482	0.04950381

layers.1.bias f4 [50]
0	0x3dc237ac	0.09483275
1	0x3dd745af	0.10511338
2	0x3dff7644	0.12473729
3	0xbcbd4c54	-0.023107685
4	0x3dcfad06	0.101404235
5	0x3da3a543	0.079905055
6	0x3da642be	0.08118199
7	0xbcbcae53	-0.023032343
8	0xbc30a6ea	-0.010781983
9	0xbc74a819	-0.014932656
10	0x3b9cd54d	0.0047861696
11	0x3d77936a	0.06044332
12	0x3d14bdf5	0.03631397
13	0xbcdf3e28	-0.027251318
14	0x3de585fd	0.11207197
15	0x3c4cfa81	0.012510897
16	0x3c9686a4	0.018374749
17	0x3ce06944	0.027393945
18	0xbcfa0da4	-0.030524082
19	0x3d59a071	0.053131524
20	0xbd09eef6	-0.033675157
21	0x3e09d9de	0.13462016
22	0x3e0d541a	0.13801613
23	0xbc7be463	-0.015374276
24	0x3c87812a	0.016541082
25	0xbd16aa59	-0.03678355
26	0x3d6cbcf7	0.0577974
27	0x3dfce667	0.12348633
28	0x3dc6f834	0.0971531
29	0x3e168f0c	0.14703006
30	0x3d4fe358	0.05075392
31	0x3d4e34a3	0.050343167
32	0x3daf94de	0.08573316
33	0xbc7a0b2c	-0.015261453
34	0x3c27834e	0.010224177
35	0x3dc55148	0.09634644
36	0x3e03dde1	0.12877609
37	0xbd7b5e5f	-0.061369296
38	0xbd3cc80f	-0.04608923
39	0xbd81fc47	-0.06346946
40	0x3e1aec98	0.15129316
41	0xbce8f224	-0.028435774
42	0xbd3daba4	-0.046306267
43	0xbbc7ee28	-0.0061013885
44	0x3dbc59bb	0.09196802
45	0x3d67c744	0.05658652
46	0xbcececce	-0.028921511
47	0x3cc7d636	0.024394136
48	0x3d377911	0.044793192
49	0xbd163cf5	-0.036679227

emb_layer.weight f4 [2, 50]
0	0x3d865990	0.065600514
1	0xbd025156	-0.03181585
2	0xbe03f20d	-0.12885304
3	0xbd08930a	-0.033343352
4	0x3d175dd4	0.036954716
5	0xbd649d52	-0.055814095
6	0x3d9a58ce	0.075364694
7	0xbdba8984	-0.0910826
8	0xbd2658cc	-0.040612027
9	0xbcb4faa8	-0.022092178
10	0x3cb77660	0.022395313
11	0xbe0e09ca	-0.13870922
12	0xbdea07e3	-0.114272855
13	0xbdd97b34	-0.10619202
14	0x3db9dff6	0.0907592
15	0x3dd30522	0.103037134
16	0xbda210ed	-0.079133846
17	0x3e0508e7	0.12991677
18	0x3c2160e0	0.009849757
19	0x3d29e550	0.041478455
20	0xbd91169b	-0.0708439
21	0xbcacbe74	-0.021086909
22	0xbdbf730a	-0.09348114
23	0xbdd0de54	-0.10198656
24	0x3dd65a20	0.10466409
25	0xbddb1bac	-0.10698637
26	0xbdf178fa	-0.117906526
27	0x3d2df858	0.042473167
28	0xbde613a3	-0.11234214
29	0x3e103689	0.14083304
30	0xbdb9b429	-0.09067566
31	0x3d513f00	0.051085472
32	0x3d7a0db8	0.06104824
33	0xbde2f1be	-0.11081265
34	0x3e05a481	0.13051035
35	0xbdcb0a83	-0.09914114
36	0x3d47eaf4	0.048808053
37	0xbded2e2d	-0.11581073
38	0x3c22e1f0	0.009941563
39	0xb8317000	-4.2304397e-05
40	0x3de6ad16	0.11263482
41	0x3d3e7850	0.046501458
42	0xbe011bb1	-0.1260822
43	0x3d7a7b50	0.061152756
44	0xbd82869e	-0.063733324
45	0xbe0aa48b	-0.1353933
46	0x3df5cdc2	0.12002136
47	0xbd903e15	-0.07043091
48	0x3d7177c0	0.058952093
49	0x3df8fefa	0.12158008
50	0xbdacf952	-0.084459916
51	0x3d6a6888	0.057228595
52	0x3e04139f	0.1289811
53	0xbdfd0663	-0.12354734
54	0x3c2888a0	0.01028648
55	0x3cab6070	0.020920008
56	0x3d1a16e8	0.0376195
57	0x3db68a50	0.089131
58	0x3dc3364c	0.09531841
59	0x3dd7c16e	0.10534941
60	0xbdd09ede	-0.101865515
61	0x3d1f9580	0.038960934
62	0xbcd3d5e4	-0.025858827
63	0x3d25c6b0	0.040472686
64	0xbd6be894	-0.05759485
65	0xbb6880c0	-0.0035477132
66	0x3bfd6760	0.0077332705
67	0xbe0e00d2	-0.138675
68	0x3d64a95c	0.055825576
69	0xbd99d35f	-0.07511019
70	0xbcc1f704	-0.023677357
71	0x3bfbc140	0.0076829493
72	0xbde12a25	-0.109943666
73	0x3da02a80	0.07820606
74	0x3b219c80	0.0024659932
75	0xbce19d68	-0.027540877
76	0x3de47c8e	0.111565694
77	0x3dd81fe0	0.10552955
78	0x3dac25f8	0.084056795
79	0x3cbdb880	0.023159266
80	0xbd830a16	-0.06398408
81	0xbda40a1a	-0.08009739
82	0xbc9dac60	-0.019247234
83	0xbdf34080	-0.11877537
84	0xbe09fea1	-0.1347604
85	0x3dd7ff76	0.10546772
86	0xbe0cdec0	-0.13756847
87	0xbce99898	-0.028515145
88	0xbae06f00	-0.0017122924
89	0x3e0f9a4f	0.14023708
90	0x3d008904	0.03138067
91	0x3c955e50	0.018233448
92	0x3ce6a8a8	0.028156593
93	0x3ccae168	0.024765685
94	0x3db0a460	0.08625102
95	0x3d1a1f88	0.037627727
96	0x3db9780c	0.090561
97	0xbdb2b134	-0.08725205
98	0x3da28c16	0.079368755
99	0x3da8eba6	0.08248071

emb_layer.bias f4 [2]
0	0xbdb9544e	-0.09049283
1	0x3e0ff96b	0.14059989

class_layer.weight f4 [10, 50]
0	0xbdee870e	-0.116468534
1	0x3e6280f7	0.22119509
2	0xbd054b19	-0.03254232
3	0x3d3bbba3	0.04583324
4	0xbe137596	-0.14400324
5	0xbe59e32f	-0.2127807
6	0x3d88c9c5	0.066791095
7	0x3d12bbb2	0.03582353
8	0x3e2fb3f0	0.17158484
9	0x3ce5311c	0.027977519
10	0x3e4a1ef9	0.19738378
11	0xbde255a3	-0.1105149
12	0xbe071bbd	-0.13194175
13	0x3e524f35	0.20538028
14	0x3e83a328	0.25710416
15	0xbe83ec88	-0.25766397
16	0x3e05370d	0.13009281
17	0xb80ad78c	-3.3102508e-05
18	0xbca793bd	-0.02045619
19	0x3e221fe4	0.15832478
20	0xbc75ee82	-0.015010478
21	0xbe89cc2d	-0.26913586
22	0x3dd52ec2	0.10409309
23	0x3de60690	0.112317204
24	0x3e09b486	0.1344777
25	0xbdf651ed	-0.12027345
26	0xbe00f618	-0.12593877
27	0xbe68a020	-0.22717333
28	0x3d8135eb	0.06309112
29	0x3e2ad609	0.1668321
30	0xbe406827	-0.18789731
31	0xbddc5e35	-0.10760156
32	0xbe3bec8a	-0.18351951
33	0xbd9b30df	-0.07577681
34	0xbc914fe6	-0.017738294
35	0xbe1177fe	-0.1420593
36	0x3ca49650	0.020091206
37	0xbd001276	-0.031267606
38	0x3e307e8c	0.17235774
39	0xbce77bfa	-0.028257359
40	0xbe283703	-0.16427235
41	0xbc24b0df	-0.010051935
42	0xbe6e1921	-0.23251773
43	0x3e05c1f1	0.13062264
44	0x3e6f708d	0.23382778
45	0xbe3aa100	-0.18225479
46	0x3dead9ff	0.11467361
47	0xbe37dede	-0.17956111
48	0xbda322fd	-0.07965658
49	0xbdf273d0	-0.11838496
50	0x3e838ad3	0.25691852
51	0xbe0f829a	-0.14014664
52	0xbdef23d1	-0.11676753
53	0xbd94e456	-0.07270114
54	0x3d91b3da	0.07114382
55	0x3db52fd1	0.08847011
56	0xbca78868	-0.020450786
57	0x3e745fb6	0.23864636
58	0xbd5812b1	-0.0527522
59	0x3e3f1fe4	0.18664509
60	0xbb352a8a	-0.0027643763
61	0x3df6852a	0.12037118
62	0xbe51b6a2	-0.20479825
63	0x3e337229	0.17524017
64	0xbe68ee71	-0.22747208
65	0x3d478ca9	0.04871813
66	0x3e7fac94	0.24968177
67	0xbcab42ce	-0.020905878
68	0xbce0d089	-0.027443187
69	0xbe8019c0	-0.25019646
70	0xbd7ef455	-0.062244732
71	0x3e1300b1	0.14355733
72	0x3caca15e	0.02107304
73	0xbe302569	-0.17201771
74	0x3e10ac98	0.1412834
75	0x3e09b0ad	0.13446303
76	0xbdede0cc	-0.11615142
77	0x3dcc817d	0.099856354
78	0x3de97546	0.11399321
79	0x3d555a19	0.052087877
80	0xbdbbde6b	-0.09173282
81	0xbe0c134c	-0.13679236
82	0xbe2eb0b2	-0.17059591
83	0x3e233dca	0.1594154
84	0x3e39cd44	0.18144709
85	0x3dc2ef11	0.095182545
86	0x3dcbcb0e	0.09950839
87	0xbe839a5b	-0.257037
88	0xbe6f1697	-0.23348461
89	0xbe119020	-0.14215136
90	0x3d619fd9	0.055084083
91	0x3e04b444	0.12959391
92	0x3a678181	0.0008831248
93	0x3dc3e215	0.09564606
94	0xbcefde46	-0.029280793
95	0x3d987a44	0.07445195
96	0xbe931040	-0.28723335
97	0xba1c06b5	-0.0005951927
98	0xbdf1db7e	-0.11809443
99	0xbe574dd0	-0.21025777
100	0x3da69903	0.081346534
101	0x3e3e7885	0.18600662
102	0xbcea6abe	-0.028615352
103	0xbe49ea9d	-0.19718404
104	0x3e6a7fca	0.2290031
105	0x3d2e69d2	0.042581387
106	0xbd91ce5d	-0.07119439
107	0x3e380465	0.17970426
108	0x3e9a9140	0.30188942
109	0xbe188ab6	-0.14896664
110	0x3e0275d4	0.1274026
111	0xbdbd9e8a	-0.092587546
112	0x3ce71500	0.028208256
113	0xbded41d9	-0.11584825
114	0xbe67b29f	-0.22626732
115	0xbc63e260	-0.0139089525
116	0xbca26813	-0.019825017
117	0xbdd2a72a	-0.1028579
118	0xbe92ac7e	-0.28647226
119	0x3e0b8219	0.13623847
120	0x3e5998f7	0.21249758
121	0x3ddd3bcf	0.10802423
122	0x3d0898ca	0.033348836
123	0x3d7c83c2	0.06164909
124	0x3e27fbdc	0.1640467
125	0x3e47dfe7	0.19519006
126	0xbe845e2f	-0.25853106
127	0x3d7e2a91	0.062052313
128	0x3e19df23	0.15026526
129	0x3e5aca2f	0.2136619
130	0xbdbedf25	-0.09319905
131	0xbdd6c260	-0.10486293
132	0xbc19a5dc	-0.009377923
133	0xbcfb224e	-0.030656006
134	0x3e5e4e0b	0.21709459
135	0x3dc2bc90	0.09508622
136	0xbe295555	-0.16536458
137	0x3e0ccd58	0.13750207
138	0x3d91bf09	0.07116515
139	0x3e3c4c57	0.18388496
140	0x3e52f27b	0.20600311
141	0xbea85474	-0.32876933
142	0x3e00d089	0.1257955
143	0x3c2c3949	0.010511705
144	0x3dfefb4d	0.124502756
145	0xbd866d9b	-0.06563874
146	0xbe20a88f	-0.156893
147	0xbe3213e2	-0.17390397
148	0x3dc2710e	0.0949422
149	0xbe09cae2	-0.134563
150	0xbea28198	-0.31739497
151	0xbe0df5fe	-0.1386337
152	0x3e389a97	0.18027721
153	0x3e1eecf6	0.15520081
154	0x3e509b84	0.20371825
155	0x3cb3aca9	0.021932917
156	0x3e5aaa9e	0.21354148
157	0xbeba6029	-0.3640149
158	0xbdcaad1f	-0.098963015
159	0x3e099b31	0.13438107
160	0xbe28238a	-0.16419807
161	0x3d1ab1bc	0.037767157
162	0xbe17e0a3	-0.14831786
163	0x3e0d3dd1	0.13793112
164	0xbe3dc069	-0.1853043
165	0xbd13f1b6	-0.036119185
166	0xbd893370	-0.06699264
167	0x3c288076	0.010284534
168	0xbe4a469f	-0.19753502
169	0x3e30fb43	0.17283349
170	0x3e4b4b22	0.1985288
171	0xbe9f47ec	-0.3110956
172	0xbe5e6003	-0.21716313
173	0xbe38e601	-0.1805649
174	0xbe24dc11	-0.16099574
175	0xbd1b894b	-0.03797273
176	0x3d897941	0.067125805
177	0x3ddf093c	0.10890433
178	0x3e1cee2e	0.15325233
179	0xbdf7e825	-0.12104825
180	0xbc2f0f2c	-0.01068477
181	0xbe716ce9	-0.23576702
182	0xbd771de0	-0.060331225
183	0x3dd1a608	0.10236746
184	0x3e2cf286	0.1688939
185	0xbb776551	-0.0037749598
186	0x3da9ca47	0.082905345
187	0xbad90463	-0.0016557093
188	0xbe241c45	-0.16026409
189	0xbce8e427	-0.028429104
190	0x3a4b78b3	0.0007761821
191	0xbe1e7403	-0.15473942
192	0xbe06a6a9	-0.13149513
193	0x3d0c98dd	0.03432547
194	0x3d557ac5	0.052119035
195	0xbb515642	-0.0031942283
196	0x3a343f1f	0.0006875861
197	0x3e312747	0.1730014
198	0x3bb6fc64	0.0055842865
199	0x3e1c3792	0.15255573
200	0x3e18d3aa	0.14924493
201	0xbe15e29a	-0.14637223
202	0x3e58ae03	0.2116013
203	0xbcb6667b	-0.022265663
204	0xbdd97b63	-0.10619237
205	0x3cbd55eb	0.023112258
206	0x3ddc8f07	0.10769468
207	0x3d7f1833	0.062278938
208	0xbea9cfbe	-0.33166307
209	0xbe3329c9	-0.17496409
210	0x3e80ca14	0.25154173
211	0xbc88806a	-0.016662795
212	0x3c0857ce	0.0083217155
213	0xbe8ff0b9	-0.28113344
214	0x3b2b9283	0.0026179857
215	0xbd3a147b	-0.045429688
216	0xbe5d82fb	-0.21631996
217	0x3d056602	0.032567985
218	0x3deb4f3f	0.11489724
219	0xbe0ae2b5	-0.13563044
220	0xbe61c50f	-0.22047828
221	0x3df68eda	0.120389655
222	0x3e5205da	0.20510045
223	0x3df08f87	0.11746126
224	0x3e4f7282	0.20258525
225	0xbdaa17de	-0.083053336
226	0x3e46f3a7	0.19428883
227	0xbdf9018d	-0.12158499
228	0x3e6773e5	0.22602804
229	0xbdd5f76d	-0.10447583
230	0x3e2420a1	0.16028072
231	0x3cebbbe4	0.028776117
232	0xbd40653a	-0.046971537
233	0xbe3e4b56	-0.18583426
234	0x3e0cd482	0.1375294
235	0x3d048ec3	0.03236271
236	0xbdf0f8bb	-0.117661916
237	0x3d9eec94	0.077599674
238	0x3e37290c	0.17886752
239	0xbe963472	-0.29336888
240	0x3e30bfd9	0.17260684
241	0x3aef3162	0.001824897
242	0xbd9ec727	-0.07752829
243	0xbe82c5a8	-0.25541425
244	0xbe1cf15d	-0.15326448
245	0x3dfabc69	0.12242968
246	0xbe52faf9	-0.20603551
247	0x3e0e6c6e	0.1390855
248	0xbdf25be0	-0.1183393
249	0x3dd8fa41	0.10594607
250	0xbdf449bc	-0.11928126
251	0xbe598e05	-0.21245582
252	0x3db0f584	0.086405784
253	0xbd373d5a	-0.044736244
254	0x3d2e7905	0.042595882
255	0xbe0bfac4	-0.13669878

class_layer.bias f4 [10]
0	0xbcbbe090	-0.022934228
1	0x3e184a0e	0.14872
2	0xbd7bf070	-0.061508596
3	0xbdb7e724	-0.089796335
4	0xbdb36e65	-0.087612905
5	0xbd87c30e	-0.066290006
6	0x3df143e2	0.11780526
7	0x3e104b5c	0.14091247
8	0xbd9e7d82	-0.077387825
9	0xbe2ac734	-0.16677552
