notebooks/paper-plots/models/w0.1.pt (torch, 339531 bytes, 8 tensors)

layers.0.weight f4 [100, 784]
000000 0e 22 db bc 4b 32 0c bd fb 49 00 bd 75 a5 05 bd
       -0.026749637 -0.03422765 -0.031320553 -0.032628495
000010 90 3d 44 bb 9a 69 b7 3c 13 0e 93 bc 5c 38 21 3c
       -0.002994392 0.022389222 -0.017951047 0.009840097
000020 33 e8 b1 bc 73 2c f0 bc ea 42 84 bc f0 7c 4a 3c
       -0.021717167 -0.02931807 -0.016145188 0.012358889
000030 2a a4 77 bc b0 22 14 3b 78 33 80 bb d5 02 98 bc
       -0.015114823 0.0022603683 -0.0039123856 -0.018556038
000040 d0 92 50 3c 20 96 9f ba 0e e2 dc bc 38 4c 40 3c
       0.012730315 -0.0012175478 -0.02696326 0.011736922
000050 c3 c6 f8 bc 30 68 ef bb 1a 0d 95 3c 84 cc 59 3c
       -0.030368214 -0.0073061213 0.018194724 0.013293389
000060 6e c4 a8 bc b0 f4 dc 3b 5e cc ea 3c 18 49 4f 3c
       -0.020601477 0.006743036 0.028661903 0.012651704
000070 03 cd 90 bc 8c 9c 07 bd dc a2 83 bc e0 00 61 3b
       -0.017675882 -0.03310828 -0.016068868 0.0034332797
000080 46 7f ea 3c b8 a8 f3 bb 20 d5 d4 3c 10 22 a4 3c
       0.028625142 -0.0074358843 0.025980532 0.020035774
000090 ad 48 95 3c bf cd 5d bd cc 72 09 be 77 74 1e be
       0.018223131 -0.054151293 -0.13422698 -0.15474115
0000a0 36 a4 88 bd f5 27 71 bd 06 47 07 be ec 7a 47 be
       -0.06671946 -0.058875997 -0.13210687 -0.19480485
0000b0 c7 eb 87 be e3 19 9d bd b4 03 07 bd 98 63 66 bd
       -0.2654707 -0.07670953 -0.032962516 -0.056247324
0000c0 98 f2 13 be f2 14 6b bd 4b 45 a3 bc 0e b8 86 bc
       -0.14448011 -0.057393022 -0.019930502 -0.016445186
0000d0 40 5e fc bb d5 12 0b 3d 90 0b c9 bc de fd 01 bd
       -0.007701665 0.033953506 -0.024541646 -0.031736247
0000e0 94 6f af bb f8 0e bf 3b 75 27 0c 3d 63 16 8a bc
       -0.0053538773 0.005830642 0.034217317 -0.016856378
0000f0 01 34 b0 3d b0 fc 10 3e 71 e7 c0 3d d8 07 3f bd
       0.08603669 0.14158893 0.09419144 -0.04663834
000100 aa fc c3 bc 64 90 01 3d 38 cc 6d be 75 50 27 be
       -0.02392419 0.031631842 -0.23222435 -0.16339286
000110 c5 62 e8 bd 7a 64 e0 bd 84 50 75 be ab 61 99 bd
       -0.11346964 -0.109566644 -0.23956496 -0.07489332
000120 4a 2e 52 bd 67 e3 2d be 26 aa b4 bd 79 8d 84 bd
       -0.051313676 -0.16981278 -0.08821516 -0.06472296
000130 83 b4 ce bd 47 8b a4 bd 94 7b ca bd ff 1c 1f be
       -0.10093024 -0.080343775 -0.09886852 -0.15538405
000140 9d 72 07 be 40 60 c3 ba 48 88 d3 3b ac c7 ac 3c
       -0.13227315 -0.0014906004 0.006455455 0.021091305
000150 5c 71 16 3c ca a4 95 3c 85 50 06 3d 70 c8 29 bb
       0.0091823 0.018267054 0.032791633 -0.0025906824
000160 a2 b6 4c 3d 54 b1 29 3d 5c d2 a6 bc 1c 35 12 be
       0.04997886 0.04142888 -0.020363979 -0.14278072
000170 75 9a ce bd b0 84 5f be ba 54 a6 be b0 45 20 be
       -0.10088054 -0.2182796 -0.32486516 -0.15651584
000180 8a 1e fc bd 2a 39 0a be 19 c7 bb bd 14 67 a5 bd
       -0.12310512 -0.13498369 -0.09168834 -0.08076301
000190 46 49 3c be 34 e9 df bd cf 78 f0 bd 90 73 24 be
       -0.18387327 -0.10933152 -0.117417924 -0.16059709
0001a0 b6 38 4c be 13 57 c8 bd 36 2d 0f be af a5 2c 3d
       -0.19943509 -0.09782233 -0.1398209 0.042150196
0001b0 d8 9a 6a 3e dc a1 39 3c 34 e7 41 3c 30 33 af bc
       0.2291063 0.011330094 0.011834908 -0.021386713
0001c0 94 97 e5 bb ce f9 d6 bc 80 07 07 3c a3 bc 00 3d
       -0.007006595 -0.026242163 0.008241534 0.031429898
0001d0 a1 a2 65 3e 18 91 a2 3c eb 90 4c be ac 77 19 be
       0.22425319 0.019844577 -0.19977157 -0.14987057
0001e0 b6 a0 a5 bc 57 f5 45 3d 67 87 18 bd ce b5 32 3d
       -0.020218235 0.048329677 -0.037238505 0.043630414
0001f0 f1 e5 fd bb 7f cd 97 bd 6e 10 c6 bc 70 2c 18 bd
       -0.0077483584 -0.07412242 -0.024177756 -0.037151754
000200 5d 12 65 3c 24 a3 41 bd a0 81 6e 3c c0 0d 36 be
       0.013981429 -0.047274724 0.014557272 -0.17778683
000210 15 29 45 bd 6f f2 4f 3d 10 58 60 3d 1e 11 2b 3c
       -0.048134882 0.050768312 0.054771483 0.010441093
000220 e8 16 6c 3e 5d d8 8c 3e ca 2c 8f bc 0a 2a 1b bc
       0.23055613 0.27508822 -0.017477412 -0.009470472
000230 ea 03 b7 3c dc 7e 98 bb 02 76 22 be bf be 75 be
       0.022340734 -0.0046537947 -0.15865329 -0.23998545
000240 63 e2 35 be db 90 3f be 76 3e 91 be 39 df 77 be
       -0.17762141 -0.18707602 -0.28367966 -0.24206246
000250 2e 2f 27 be f8 7a 2b be 65 5f 4a bd cd a1 9f 3b
       -0.16326591 -0.16746128 -0.04940738 0.004871583
000260 e6 d9 ed 3c 86 ca 17 bd 5d e8 8c 3c 90 e3 09 bd
       0.029034566 -0.037058376 0.017200643 -0.033664286
000270 b0 a6 34 bc 85 a1 9e 3d 28 f7 0c bc ab bb 2f 3d
       -0.0110260695 0.07745651 -0.0086038485 0.042903583
000280 f3 5a b3 3d b2 b5 15 3e a6 44 a3 3d 62 fd ea bc
       0.087575816 0.14620093 0.07972078 -0.028685275
000290 f8 61 ff 3b e0 af d6 bd 4a 8e 99 bc e5 41 3c 3e
       0.007793661 -0.10482764 -0.018744607 0.18384512
0002a0 60 ac 0d bb a4 75 62 3c 81 c5 15 be 53 b3 4f be
       -0.0021617636 0.013821993 -0.14626123 -0.2028325
0002b0 f7 f9 6d bd b1 b1 e7 bd 9c 82 71 be dc d1 5d be
       -0.058099713 -0.11313189 -0.2358498 -0.21662086
0002c0 85 17 7d bd 4f 2a e7 bd 20 ab 64 bc 6e 6e a9 3d
       -0.061790008 -0.112873666 -0.013956815 0.08273016
0002d0 37 34 9f 3d fc e1 c5 3d 7f 2f c2 3d b7 87 a0 3d
       0.07773631 0.09662244 0.094817154 0.078383856
0002e0 ca c7 22 3e 20 2e 29 3e ca 2d a1 3d 46 11 99 3d
       0.15896526 0.16521502 0.07870062 0.07473998
0002f0 9c 93 f7 3d 3a 67 ff 3d 2f 5c a3 3d 4c 04 19 3e
       0.12088701 0.12470861 0.07976567 0.14943045
000300 f1 ad 6d 3e 9c 51 f6 3d 82 30 f0 bc a6 a0 d5 bd
       0.23210885 0.120272845 -0.029320005 -0.10431032
000310 b8 19 01 bd 83 b2 9f be 8c 39 cd bd c8 16 ea bc
       -0.031518668 -0.3119088 -0.10020742 -0.028575316
000320 42 76 1c be 5e ba 08 be d9 08 ba bd ae dd 1f be
       -0.15279487 -0.13352343 -0.09083719 -0.15611908
000330 4b 89 c7 3d 0b 54 95 3c f3 69 29 bc 57 44 5b 3d
       0.097429834 0.018228551 -0.010340202 0.05353197
000340 06 54 ad 3d e6 34 25 3e 62 a0 d9 3d 5d 79 11 3e
       0.08463292 0.1613346 0.10626294 0.14206453
000350 8a 89 3c 3e 4d 30 d4 3d a5 f0 c6 3c c0 f6 14 3e
       0.18411842 0.10360775 0.02428467 0.14547253
000360 d7 4d d9 3d b7 3e 31 3d 0b 65 8c bd 82 c5 24 3e
       0.1061055 0.0432727 -0.0685521 0.16090968
000370 04 aa 45 3e 7b ee 3a 3e 51 30 29 3d ba 39 20 be
       0.19303137 0.18255036 0.041305844 -0.15647021
000380 21 a2 08 bd 8c 0d 93 bd c4 0c ac bd 73 7b 37 be
       -0.033357743 -0.07180318 -0.08400872 -0.17918186
000390 26 87 17 be cd d8 c1 bd da 3d 84 bd 79 a9 fd 3c
       -0.14797649 -0.094651796 -0.0645711 0.0309646
0003a0 6a 2a 25 3e 51 36 07 3e 05 76 a0 3d e8 9b 0e 3e
       0.16129461 0.13204314 0.078350104 0.13926661
0003b0 7c 5b 96 3d 48 e0 1c 3d da 75 13 bd 82 4c 02 bd
       0.07341668 0.03829983 -0.036001064 -0.031811245
0003c0 a7 15 1d 3e d6 83 8e 3c b6 b8 e8 3d d5 f3 23 3e
       0.15340291 0.017396849 0.11363356 0.16010983
0003d0 34 72 54 3d 2e ac 08 3d 91 26 f6 bb 32 d7 dc 3d
       0.051866725 0.03336733 -0.0075119217 0.10783233
0003e0 11 53 a8 3e 1f 82 af 3e d8 80 93 3d 6f c6 64 3e
       0.32875875 0.34278962 0.07202309 0.22341321
0003f0 32 ff 76 bd 7e 54 96 be 83 6b 1c bd 47 6c 0a be
       -0.060301967 -0.29361337 -0.03818847 -0.13517867

layers.0.bias f4 [100]
000000 ba fb ef 3d 0f e5 eb 3d c5 00 be 3d 1a 65 ed 3d
       0.11717935 0.11518299 0.092774905 0.11591549
000010 81 a4 86 3d 0f fc 5c 3d da 84 08 3e e4 c7 f2 3d
       0.065743454 0.05395132 0.13331929 0.11854532
000020 0a 9f b5 3d 0d 89 80 3c 39 57 7c 3d 83 a5 ee 3d
       0.08868225 0.01569035 0.06160662 0.116526626
000030 4a 9b a5 3d 80 fd 54 3d a3 5b dc 3d 2d 76 dd 3d
       0.0808626 0.05199957 0.10759666 0.10813556
000040 52 25 64 3d e1 ed de 3d 14 a7 b0 3d b4 03 d6 3d
       0.055699654 0.108852156 0.086256176 0.10449925
000050 61 c4 c4 3d 61 a5 0c 3e 85 39 c2 3d c7 82 d2 3d
       0.09607769 0.13734962 0.09483627 0.1027885
000060 d0 23 41 3d 86 0f dd 3d cd ff c1 3d 24 11 dc 3d
       0.047153294 0.107939765 0.09472618 0.10745457
000070 c1 40 97 3d 9b 5f d9 3c 02 9a 13 3e f0 d9 20 3e
       0.07385398 0.026534846 0.14414218 0.15708137
000080 db de d7 3c 4b d0 01 3e 01 1d f9 3d 7d a2 1b 3e
       0.026351383 0.12677114 0.12163735 0.15198703
000090 36 17 15 3e d2 af 41 3d b0 73 83 3d 9f 27 bb 3d
       0.14559636 0.047286816 0.0641855 0.091384165
0000a0 64 f0 b0 3d 05 7e b0 3d e0 15 f6 3d 81 2a d6 3d
       0.08639601 0.08617786 0.12015891 0.10457326
0000b0 1d 3a 18 3e 29 4c ff 3d 5a 99 d8 3d 65 28 f6 3d
       0.14865918 0.12465698 0.105761245 0.120194234
0000c0 10 f7 1a bc 66 8b cf 3d 8c 1e 07 3e 30 2a 9e 3d
       -0.009458318 0.1013401 0.13195246 0.077228904
0000d0 5a bd 0c 3e 25 c8 d0 3c 15 4e c8 3d 90 c8 c7 3d
       0.13744107 0.025486061 0.09780518 0.09755051
0000e0 41 f0 20 3e 36 7d 2e 3d 61 6d 81 3c 72 3d c6 3d
       0.1571665 0.04259988 0.015799226 0.096796885
0000f0 09 2a 18 3e d5 57 b3 3d 50 45 d4 3c 9c 14 8f 3d
       0.14859785 0.08756987 0.025911957 0.06986353
000100 17 1e be 3d 95 e6 c2 3d 5e 43 b1 3d 00 ce 7c 3d
       0.09283083 0.09516636 0.086554274 0.061719894
000110 35 5d c3 3d 50 43 a8 3d b3 3a bd 3d c7 f4 30 3d
       0.09539262 0.08215964 0.092397116 0.043202188
000120 e3 2a 08 3e aa 97 16 3e 1f dd be 3d 3a a3 7b 3d
       0.1329761 0.14706293 0.09319519 0.06143496
000130 8c 12 97 3d eb 14 b2 3d 0d b7 a9 3d a4 f4 79 3d
       0.073765844 0.08695396 0.08286867 0.061024323
000140 8d b7 11 3d 19 ae f8 3d 8e 87 8e ba 34 c0 9d 3d
       0.03557544 0.121425815 -0.0010874139 0.077026755
000150 51 b3 23 3d 7d 01 90 3d c1 51 cd 3c 47 ab e2 3d
       0.03996593 0.07031534 0.025063397 0.11067825
000160 0e f5 93 3d bf 7b 11 3e 2f eb e7 3d 86 5f 3c 3e
       0.07224475 0.14207362 0.113241546 0.18395814
000170 7f d0 83 3d 51 88 d6 3d e4 4b f9 3d 4a ed cc 3d
       0.06436252 0.10475219 0.12172678 0.10006197
000180 65 58 00 3e 75 35 db 3d 95 b6 ea 3d 3a 3f e6 3d
       0.1253372 0.107035555 0.11460606 0.11242528

layers.1.weight f4 [50, 100]
000000 dd a9 db 3d 5f 18 08 3d 52 c5 d3 3d 6c 0a 28 3e
       0.10725758 0.033226367 0.1034037 0.16410226
000010 94 bf dc bd 1d 87 f0 3d ae 8b 38 3d 1c 4c d8 bd
       -0.10778728 0.11744521 0.045055084 -0.10561392
000020 f8 33 31 bd bd 57 d2 3c e2 95 95 ba 1d f3 03 3e
       -0.043262452 0.025676602 -0.0011412466 0.12885709
000030 5f b1 80 bd e5 40 ce bd 11 95 71 be be ab 39 bd
       -0.06283831 -0.100709714 -0.2359202 -0.0453298
000040 49 aa 9c bd 6b 81 0d 3e 7f a4 9c 3d ea 1e 7f 3d
       -0.07649667 0.138189 0.07648563 0.06228534
000050 3f 78 68 3e 7c 28 1d 3e 2d a7 b7 bd 6f 21 f1 bc
       0.2270212 0.15347475 -0.08967433 -0.029434888
000060 94 61 5a be 98 ed 37 bc 3d 76 24 be cd a1 0f 3e
       -0.21326286 -0.01122608 -0.1606073 0.14026566
000070 d8 32 0b be 23 c8 c8 bd d6 19 83 bd b5 a5 86 bc
       -0.13593614 -0.09803798 -0.06401412 -0.016436437
000080 58 de ba 3d 7b 7a 5c 3e 3e d5 d5 3d 95 44 a9 3d
       0.0912444 0.21531098 0.10441063 0.08265034
000090 98 fe 27 be ff 76 11 bd fe 02 d9 bb 53 ef d6 3d
       -0.16405714 -0.035513874 -0.006622671 0.10494866
0000a0 48 85 31 3b 46 a6 b4 bd fa 44 e1 bd bd 54 c0 be
       0.0027087498 -0.08820777 -0.10999484 -0.3756465
0000b0 5c 6d f2 3d 68 1b 50 bd 26 96 14 3d 2d 12 a2 3d
       0.11837265 -0.050807387 0.036276005 0.07913623
0000c0 0b 9c 5a 3e b1 ef 98 3d 24 45 a1 bd 0f 4b 4b 3e
       0.21348588 0.074675925 -0.07874516 0.19852851
0000d0 23 e0 70 3c 9b 5e 25 3e a6 25 ab 3d cc 3e 66 bd
       0.014701876 0.1614937 0.0835679 -0.05621223
0000e0 05 86 ab be 57 de 5b 3d a9 bf a5 ba e0 b8 35 be
       -0.33500686 0.053678837 -0.001264562 -0.17746305
0000f0 13 6f 00 3d b9 3a 36 3e ee 43 13 3e 89 96 78 3e
       0.03135593 0.17795838 0.14381382 0.24276175
000100 2b 0d 8b 3d 5a e0 c1 3d af c3 9f 3d 6b 9e 8e 3d
       0.06789621 0.0946662 0.078009956 0.069638096
000110 e4 d6 20 3e 7c f8 a7 bd 65 9f 37 3e e2 93 a2 3d
       0.15706974 -0.082016915 0.17931898 0.07938363
000120 5b 97 6a be 08 09 18 3d 60 ad f6 bc 9d ee b4 bd
       -0.229093 0.037117988 -0.030111969 -0.08834574
000130 b2 90 7f 3d de 1b 99 3d d7 00 21 3e 3b 07 f0 3d
       0.06239385 0.07476018 0.15722977 0.11720129
000140 66 df f0 bd db 4a 9a 3d 17 b6 22 be 09 b7 18 bd
       -0.1176136 0.07533809 -0.15889774 -0.03728393
000150 74 9a 79 bd cd 63 e6 bd 80 51 04 3e 17 00 b8 3d
       -0.060938314 -0.11249504 0.12921715 0.08984392
000160 be 85 44 3d 0d 4e 73 3d f7 49 ae 3d 7d 33 7b be
       0.04797911 0.059400607 0.085102014 -0.2453136
000170 12 b7 31 3d f5 97 0f 3c 32 45 f8 3d 87 9c 15 3e
       0.04338748 0.008764257 0.12122573 0.14610492
000180 a8 f6 7e be ed b3 de bc 3a a4 a2 bc f2 f7 23 3d
       -0.2489878 -0.027185405 -0.0198537 0.04003138
000190 4e 97 94 3c 24 1e d6 3c b6 64 df 3d 5f e6 39 3e
       0.018138554 0.026137419 0.10907881 0.18154286
0001a0 f5 8a e2 3d 56 ad bd 3d 66 d1 04 3e 28 6c d1 bd
       0.1106166 0.09261577 0.12970504 -0.10225707
0001b0 cb 3b ee bd c0 6c 11 3b 75 41 59 bd 1d a5 c7 bd
       -0.11632498 0.0022190064 -0.05304094 -0.0974829
0001c0 d8 7e be 3c 07 b8 c4 bc 5e 6e 0d 3e 5e 31 07 be
       0.023253843 -0.024013532 0.13811633 -0.13202426
0001d0 92 49 a2 3e fd 4b 01 3e 9a 7b 86 3c f9 8d de 3c
       0.31696755 0.12626643 0.01641636 0.027167307
0001e0 57 b5 97 bd e9 18 20 3d 11 bc 3d be 37 db 9e 3c
       -0.07407635 0.039086256 -0.18528773 0.01939164
0001f0 ef 43 20 3e f1 12 ff 3d 3b ac 19 3e e1 e1 0a 3e
       0.15650915 0.12454785 0.15007107 0.13562728
000200 1f 61 8d bd 4c 96 32 bd 5d 26 13 bd dd b1 18 bd
       -0.0690329 -0.043600366 -0.035925258 -0.037279
000210 19 fa 30 3e 4d dc 50 3d 16 c3 0f 3e ef ab d3 3d
       0.17282905 0.050991345 0.14039263 0.10335528
000220 a0 11 98 3e e7 57 6a be 26 41 8f bc ec 5d 53 3d
       0.29700947 -0.22885095 -0.01748712 0.051603243
000230 99 fa 1f be 81 51 bb 3e 63 63 55 3e bc 80 91 3e
       -0.15622939 0.3658562 0.20838694 0.2841853
000240 83 c9 46 bc ce 44 5d bd 6f c7 a6 bd 84 13 70 bd
       -0.012133005 -0.054020695 -0.08143508 -0.05861236
000250 ec d8 1f bc 22 6d 03 3e b9 fd 94 bc 80 57 fe bc
       -0.009756308 0.128346 -0.01818739 -0.031047583
000260 6e c1 de bd 7c 0a 17 bc b9 9d db 3d 67 77 38 3d
       -0.108767375 -0.009218808 0.107234426 0.045035746
000270 11 a8 93 3d 61 8f 46 3e 72 de 2d 3e ac ff 32 3e
       0.072097905 0.19390632 0.16979387 0.17480344
000280 d2 b0 c8 3c 82 f1 1e 3c 01 ec eb 3d 70 4a de bb
       0.024498377 0.009701135 0.115196235 -0.006783776
000290 34 66 99 3d cd 3c df 3d cd 1f da 3b 6e f4 77 bd
       0.07490197 0.10900269 0.006656623 -0.06053584
0002a0 62 ab 2e be 1e 30 64 3d c7 08 63 bd 02 55 b1 3c
       -0.17057565 0.05570995 -0.055428293 0.02164698
0002b0 91 3c f1 3e 69 b7 26 bd 21 a8 98 3d f3 be 64 be
       0.4711652 -0.040702257 0.07453943 -0.22338466
0002c0 37 40 83 3e 35 a6 40 3e b8 b8 0e be f6 8a c9 bc
       0.2563493 0.18813403 -0.13937652 -0.024602395
0002d0 95 4f eb 3e c6 1d 9d 3d a6 a5 22 be 50 fc aa bd
       0.45959154 0.076716945 -0.15883502 -0.08348906
0002e0 a3 b4 21 be 0d b3 a4 3e e0 1b 00 3e 03 8c a5 bd
       -0.15791564 0.32167855 0.12510633 -0.08083346
0002f0 db ad e4 bc 42 1b c0 3c c1 1e 4a 3d 3f 2b 85 3d
       -0.027914932 0.023450498 0.049345735 0.06502389
000300 e0 95 3f 3d 24 62 a4 bd c9 4a 63 3d c8 0b db bd
       0.04677379 -0.08026531 0.055491243 -0.106956065
000310 a8 93 2c be ca 0d 27 bc d6 b5 19 bd 5d 59 87 3e
       -0.16853201 -0.010196159 -0.037526928 0.26435366
000320 6c 18 c3 3d e8 dd 31 3e 4d df db bd cc 73 12 3e
       0.095261425 0.17369807 -0.107359506 0.14301986
000330 3b 2c d8 bd 46 a6 e5 3c 47 95 7e bd 68 cb 09 be
       -0.10555311 0.028033387 -0.06215408 -0.134565
000340 85 52 c3 bc 60 cd b0 bd b1 2b b6 3d 80 ae dc 3c
       -0.02384306 -0.08632922 0.08895052 0.026938677
000350 5a 9d 49 3c 19 95 c2 3d ba 84 68 3e d7 c4 3e be
       0.012305582 0.09501094 0.22706881 -0.18629776
000360 ac 54 0d 3e ea 24 d8 bc db 84 25 3e 91 98 8d be
       0.13801831 -0.02638479 0.16163962 -0.2765546
000370 f2 dc ef 3d 00 b1 6c 3d 75 77 a5 3d 5b b8 1a 3d
       0.11712064 0.057785988 0.08079425 0.03777347
000380 a0 10 e6 3d e9 82 59 bd de a5 4f bd 02 53 ae 3c
       0.1123364 -0.05310336 -0.050695293 0.021279816
000390 fa da cd bc 89 a2 5a bc e7 f6 cf bd 53 2b 87 3d
       -0.02512883 -0.013344415 -0.10154515 0.0660006
0003a0 b2 75 04 3d 73 7d 8e 3d 5b b5 9f 3d 10 2d 6f 3e
       0.032338805 0.06957521 0.07798263 0.23357034
0003b0 b1 9d 06 be 6e 0f d7 bd 80 aa 8d 3a 3f 74 0a bd
       -0.13146092 -0.1050099 0.0010808259 -0.033802267
0003c0 36 eb 05 be 1b 40 bc 3d ea ec 9c 3c 1d 92 7a 3d
       -0.13078007 0.09191915 0.019155938 0.0611745
0003d0 5f 97 97 3d 81 d1 09 be 74 00 82 bd 2c 5f 2b 3e
       0.074019186 -0.13458826 -0.06347743 0.16735524
0003e0 62 21 89 3d a6 71 03 3d 74 c8 13 be 89 76 bb bc
       0.066958204 0.032090805 -0.14431936 -0.02288367
0003f0 48 21 8f 3c 7b 5e 04 3e 01 32 01 3e 00 63 a0 3c
       0.017471924 0.12926666 0.12616731 0.019578457

layers.1.bias f4 [50]
000000 51 60 74 3d 3a d9 76 3d f2 51 95 3d 90 d6 00 3b
       0.059662167 0.060265757 0.072910205 0.001965914
000010 59 fb 26 bd 8a 0a e8 bb 3b f4 03 3a 90 50 23 3e
       -0.040767048 -0.0070813345 0.00050336466 0.15948701
000020 94 53 28 bd 01 a7 06 3e 9a 0c 2d 3d 67 41 50 3d
       -0.04109533 0.13149644 0.042248346 0.050843623
000030 62 13 9b bc 1d 5b 64 bd a3 36 84 3d f4 60 24 bd
       -0.01893014 -0.055750955 0.064557336 -0.040131524
000040 8f 77 09 3d 88 80 e7 3d f8 ba c9 3d 88 58 c9 3d
       0.033561286 0.11303812 0.098501146 0.09831339
000050 9e 8c 0d bd f6 e5 ab 3d 33 e9 dc 3d 99 47 cf 3d
       -0.03455793 0.08393471 0.10786667 0.10121078
000060 5b 6b 52 3d 5d 61 89 ba 46 a6 8f 3d 0a 62 02 3c
       0.051371913 -0.0010481287 0.07014136 0.007957945
000070 35 20 11 bd f8 c5 56 bd 67 fb 57 bd 4c 85 f9 3d
       -0.035431106 -0.05243489 -0.05272999 0.121836275
000080 37 a3 2c 3b 65 ee 6a 3c f3 ff bb bc d7 21 40 ba
       0.00263424 0.014339064 -0.022949195 -0.0007329261
000090 df b7 12 3c b7 62 81 3d 8e 0d 33 bd b6 db 1e bc
       0.008954971 0.063176565 -0.0437141 -0.009695938
0000a0 99 b7 6e bd 80 5b 04 bc b4 11 cd 3d 8a 73 49 3e
       -0.05828056 -0.008078456 0.10013142 0.19672981
0000b0 73 f4 c0 37 24 60 3d 3c e9 bb 88 3d 0b 7d 92 bd
       2.3002014e-05 0.011558566 0.06676466 -0.07152756
0000c0 9f b3 98 3d db bb 76 3d
       0.07456135 0.060237747

emb_layer.weight f4 [2, 50]
000000 23 1a 55 3b e2 51 76 3d f6 3b cd bd c3 32 5b bd
       0.00325168 0.060136683 -0.10021202 -0.053515207
000010 b7 3a fc bc 5e 84 b9 bd da 2d 20 bc c0 29 72 bd
       -0.030789716 -0.0905845 -0.009776557 -0.059121847
000020 9f e1 19 bc f8 69 f8 bd c6 db c6 bd 4a 56 75 bd
       -0.009392171 -0.12129587 -0.09709887 -0.059896745
000030 0e 76 11 3d d7 b9 88 bc 66 c8 d5 3b 15 71 b0 3c
       0.035512976 -0.016690178 0.0065241335 0.021538297
000040 86 12 0b 3e 9c 16 29 3d d1 82 a8 bd 4d 67 66 bd
       0.13581285 0.041281328 -0.08228076 -0.05625086
000050 8e 4c 4b bd 5b 46 e0 3b 80 1b e2 bc 3f 5f e2 3d
       -0.049633555 0.0068443245 -0.027601004 0.11053323
000060 18 86 95 bc 7f 7f 68 3d 0c 84 ab bd 4e 3c 6e bd
       -0.018252417 0.056762215 -0.08374795 -0.05816298
000070 eb 57 d8 3d 69 b4 ea bd 0d 36 34 3d 19 cc 8d 3d
       0.10563644 -0.11460192 0.04399686 0.06923694
000080 20 64 02 3d ab ab c6 bd 29 76 5c bd 24 da 11 3d
       0.031833768 -0.09700712 -0.053823624 0.035608426
000090 b4 bd c7 bd cb 65 21 bd c3 74 64 3d 11 23 f5 3d
       -0.0975298 -0.039403718 0.055775415 0.11969579
0000a0 37 bc 90 3d 2f 6c 64 bd 3a b1 83 bb 4d 82 85 3d
       0.07067149 -0.055767234 -0.00401893 0.065189935
0000b0 83 48 87 bc 26 26 4e 3d 2c 27 bf 3b be 1d 01 3c
       -0.016514068 0.05032935 0.005833527 0.007880626
0000c0 6f 48 d9 3d 2e b1 31 3d 5f cd 82 bd ed 7c 69 3d
       0.10609519 0.043381862 -0.06386828 0.057003904
0000d0 7c 72 36 3d 23 52 18 bd 00 3b 15 3d ca d5 83 bb
       0.044542775 -0.037187707 0.03643322 -0.0040232884
0000e0 bc 3b 0f 3d bc 0b a2 bc 62 7a ba bd 51 b3 b4 bd
       0.034969077 -0.019780986 -0.09105374 -0.088232644
0000f0 3f 2e 20 3e ed f1 46 3b 45 47 9b 3d 44 e9 aa 3d
       0.15642641 0.0030356601 0.07581953 0.08345273
000100 c1 a3 b9 3d 83 8e 8f 3d e8 1d a3 bd 9d 30 9f bc
       0.09064437 0.07009604 -0.079646885 -0.01943236
000110 2d 22 17 be 9f 0e 0f bd 6f 51 d8 bc 13 48 b3 3d
       -0.14759131 -0.034926053 -0.026406018 0.087539814
000120 36 85 dd bc ea a5 85 3c cb fc b1 3d 21 9f a6 bb
       -0.027041059 0.016314466 0.086907946 -0.0050848876
000130 f9 0f 5c 3b 0c 3d 94 bd 2f 5d f1 bc ae e9 34 bd
       0.0033578856 -0.07238206 -0.029463379 -0.044168167
000140 d1 8b 88 3c 95 81 3b bd 1e 9a b7 bd c4 79 9d bd
       0.016668232 -0.045777876 -0.089649424 -0.076892406
000150 75 e6 3a 3d 56 d0 13 3d b1 9b 18 3d 85 6b 79 3d
       0.045629937 0.036087357 0.037257854 0.060893554
000160 56 b8 26 3d 25 a4 3c bd f4 16 84 bd ac c2 cd bc
       0.04070314 -0.046054978 -0.064496905 -0.02511724
000170 11 46 81 bd ca b2 6f 3d 05 fc 22 3c 03 8f 4a bb
       -0.06312192 0.058520116 0.009947781 -0.0030907996
000180 8d 6e aa bc 6b 30 48 bc 81 2f 3e 3b e8 15 71 3d
       -0.020804668 -0.012218575 0.0029020014 0.058858782

emb_layer.bias f4 [2]
000000 d6 e4 75 3d ea d5 92 bd
       0.060032688 -0.07169707

class_layer.weight f4 [10, 50]
000000 b9 34 d8 bd b6 05 6f be 38 5e 11 be f6 1d 62 3d
       -0.10556931 -0.23342022 -0.14196098 0.055204354
000010 81 ea ae bd 4d 66 33 be 6c 1b 63 3e 88 3a 65 be
       -0.08540822 -0.17519493 0.2217843 -0.22385609
000020 b3 eb 2d be e4 ad 89 bd a6 2b 06 3e 30 98 6c be
       -0.16984443 -0.0672262 0.13102588 -0.2310493
000030 b7 0e 95 bd 0e 46 87 bd d9 0e 7d bd 2a ff b0 bd
       -0.07278197 -0.06605159 -0.061781738 -0.08642419
000040 ca 28 0e be 61 c8 ab bd 73 c6 75 3e 3e 03 bc 3c
       -0.13882747 -0.083878286 0.24001484 0.022950765
000050 72 07 8e be b6 af 98 bd 7d 1e df bd 0c f9 1d be
       -0.27740055 -0.07455389 -0.10894487 -0.15427035
000060 37 38 4e 3e d7 83 48 be 3a 29 fe bd 0e 85 90 3d
       0.20138632 -0.19581543 -0.12410207 0.07056628
000070 58 09 b1 3d f6 6f 5b 3e 20 e5 b9 3d b6 54 69 3d
       0.0864436 0.21429428 0.09076905 0.056965552
000080 eb 88 6d 3d 51 13 44 3d c7 f3 79 bb d8 d4 2e be
       0.057991903 0.047869984 -0.0038139687 -0.17073381
000090 bc 19 85 3d 37 8b 1d 3e 28 12 80 bd 61 f4 75 be
       0.06499049 0.15385137 -0.06253463 -0.24019004
0000a0 4f f9 70 be 6e 8f 30 3d d3 1c 59 3e 4c a7 3f 3e
       -0.23532604 0.043105535 0.21202402 0.18716162
0000b0 68 40 d3 3b 92 f6 27 bd 8d 00 0a 3e c4 64 47 3e
       0.006446887 -0.041006632 0.13476773 0.19472033
0000c0 46 6e 5c 3e 00 ea 2f bc ab 42 b8 bd 37 04 3d 3e
       0.21526441 -0.010736942 -0.08997091 0.18458639
0000d0 29 fe 05 3e b4 c3 79 be 59 2e b7 bd 8b 0c 7d 3e
       0.13085236 -0.24391061 -0.08944387 0.24711816
0000e0 c6 5d fa bd c6 b8 43 be e7 4e 68 be 70 6d df 3d
       -0.12224917 -0.19113454 -0.22686349 0.109095454
0000f0 cd 23 4a bd 26 dc 81 3e 86 79 8e be 49 0e 36 bd
       -0.04935055 0.25363272 -0.2782709 -0.044447217
000100 5d c4 0d 3e 65 97 aa 3c 6f c1 b0 bb d0 fe 17 3e
       0.13844438 0.020824144 -0.005394153 0.14843297
000110 ab 65 12 be d0 a5 1e 3e fa e2 8b 3d a9 e2 54 3d
       -0.14296596 0.1549294 0.06830402 0.051973972
000120 43 ec 71 3e 0c 6b 1a 3e f7 69 d9 bd ab a8 a2 bd
       0.23625283 0.15079898 -0.10615914 -0.07942327
000130 a0 3f 8f bd 07 93 0a 3e 01 fe 27 3e a8 c0 9b 3e
       -0.069945574 0.13532649 0.16405489 0.30420423
000140 9f b4 06 be c4 5d 1f be 36 e8 10 be 29 82 30 be
       -0.13154839 -0.15563112 -0.14151081 -0.17237152
000150 dc bf 0d be 0f f9 62 be bd 13 4b bd 96 cd 4b 3d
       -0.1384272 -0.22165321 -0.04957937 0.04975661
000160 3e b6 e3 3d c0 63 92 3d 44 1f 24 3e 5c a2 f9 3d
       0.11118744 0.07147932 0.16027552 0.12189171
000170 da 28 52 be 73 06 da 3d 89 f4 2f 3e 07 fa 12 3e
       -0.20523396 0.10645761 0.17183127 0.1435319
000180 1d 6e 1d 3e 99 1c ec bd dd c0 0b be 96 1a f9 bd
       0.15374036 -0.11528892 -0.1364779 -0.12163274
000190 41 c7 08 3e 04 5d c8 3d 98 4c cf bd 65 62 24 3d
       0.1335726 0.09783366 -0.10122031 0.0401329
0001a0 54 d7 88 be d3 96 db bd 12 ba 8c 3d 14 aa 83 be
       -0.26726782 -0.10722127 0.068714276 -0.25715697
0001b0 b2 53 72 3e a7 53 0b be ff af 8e 3e 3c fd 36 3e
       0.2366474 -0.1360613 0.2786865 0.17870039
0001c0 80 8c 21 3e 10 d2 69 3e 7f 40 a4 3c 87 9b 89 be
       0.15776253 0.22834039 0.020050285 -0.2687647
0001d0 10 ed 37 bd 4f b3 f5 bd 0f 50 01 3e 74 d6 b9 3d
       -0.044903815 -0.11997091 0.12628196 0.09074107
0001e0 58 43 6d bd b5 8a 7f be 97 f7 5c bd e0 53 5b 3e
       -0.057925552 -0.24955256 -0.053947058 0.21418715
0001f0 57 ed 8c bd 96 e4 f2 3d 38 a3 11 3e 83 4d 0c bd
       -0.068812065 0.118600056 0.1422242 -0.03425361
000200 55 17 40 be c1 50 94 bd 27 7a d3 3d 42 45 59 bd
       -0.187589 -0.07241965 0.10326033 -0.053044565
000210 67 9d 12 be f3 af 80 b8 cb f7 7f be ff c0 65 3d
       -0.14317857 -6.136289e-05 -0.2499687 0.05609226
000220 09 87 00 be 38 64 80 3e 6f 34 12 be af eb e8 bc
       -0.12551512 0.2507646 -0.14277814 -0.028432695
000230 ac d1 87 3c 31 f5 9c 3d 25 39 5c 3d 97 54 7e bd
       0.016579472 0.07663954 0.053765435 -0.06209239
000240 c4 ba 4d 3e fd c0 0f be 17 eb 26 3e d2 d6 50 be
       0.20090777 -0.14038463 0.16300617 -0.20394447
000250 f5 e3 53 bd 0b 56 16 bd 7f 09 4b 3e 42 bb 1e be
       -0.05173107 -0.03670315 0.19827841 -0.1550112
000260 60 3f e8 bb 5e 18 2b 3e 92 b9 14 be 08 bb dc 3d
       -0.007087633 0.16708514 -0.14523914 0.10777861
000270 20 e8 2f be fd be 34 bc a6 9a e2 3d 57 0c e3 bd
       -0.17178392 -0.011031863 0.11064653 -0.11086338
000280 da 94 9c bd b8 e4 82 bc ad 36 18 3e 2d 73 04 3e
       -0.07645579 -0.015978202 0.14864607 0.12934561
000290 92 38 3b 3b 82 2e 7a 3d a4 0b 57 3d de 78 a5 be
       0.0028567654 0.06107951 0.052501336 -0.32318777
0002a0 ce ea ac 3d 8b ed e3 bd 5d 84 0a 3e 1b 83 00 3e
       0.08443223 -0.11129292 0.13527055 0.12550013
0002b0 4a 18 68 3e 5d f3 84 be 5f 34 36 3e aa c7 a1 3d
       0.22665516 -0.2596692 0.17793415 0.07899411
0002c0 c7 7c b1 bd 4f 14 0d 3e 43 98 cb bd 3c 23 b0 bc
       -0.086663775 0.13777278 -0.09941151 -0.021501176
0002d0 8d e2 46 3e 14 30 70 be 69 e6 50 3e 5e 62 fc 3c
       0.1942236 -0.2345584 0.20400394 0.030808624
0002e0 9c fc 8a 3d 33 7d 03 3d b8 c5 17 bd cf c2 23 be
       0.06786463 0.03210182 -0.037053794 -0.15992282
0002f0 95 82 71 3e 49 ec 89 3d 65 5b 66 be 94 d3 bf bd
       0.2358497 0.06734521 -0.22495802 -0.09366527
000300 20 99 84 bc 37 8a 19 3e 84 71 15 3e 70 c9 95 be
       -0.016186297 0.14994131 0.14594084 -0.29255247
000310 51 13 57 3d b4 31 1b be 54 3d 2c be a2 c4 b5 bc
       0.052508656 -0.15155679 -0.1682027 -0.022188488
000320 6d 9a 91 bd a5 41 a1 be 53 ae 89 be 74 9e 0d 3e
       -0.071095325 -0.31495395 -0.2689081 0.13829976
000330 06 12 bd 3d 81 5e 0c 3e aa f2 8d 3d b9 4f 5b 3e
       0.09231953 0.13707925 0.0693105 0.2141713
000340 09 db f9 bc c0 c0 39 3e e1 0a c1 3d 6c e4 13 3e
       -0.030499952 0.18139935 0.09425903 0.14442605
000350 b2 35 1f 3e 05 11 54 be fc 8d 8d be aa 7c 0a 3d
       0.15547827 -0.20709617 -0.27647388 0.033810295
000360 41 08 32 3e bc d1 35 3e ab 5a 90 be a6 1d c1 3d
       0.17385961 0.17755789 -0.28194174 0.09429483
000370 e3 b2 a8 bd 60 40 c0 3d ce 8e 89 bd a4 02 61 3d
       -0.08237245 0.093872786 -0.06716691 0.05493416
000380 84 ee b8 3d 74 63 52 3d bc 61 e4 bd 25 94 1a 3d
       0.09029868 0.051364377 -0.11151454 0.037738938
000390 47 89 c5 bc cb 26 43 3e a8 5c 4c be 0c 55 c6 3c
       -0.02411331 0.19057767 -0.1995722 0.024210475
0003a0 0b e7 34 bc fd 43 86 be 16 7e a8 3d ee 92 21 3e
       -0.011041413 -0.26223746 0.08227174 0.15778705
0003b0 ed 61 e0 3d 43 77 33 3c 44 37 83 bd 9c 97 69 3e
       0.10956178 0.010953727 -0.064070255 0.2281174
0003c0 e4 6b 8a 3c 90 02 c6 3c a1 87 9a 3b 41 f9 90 be
       0.01689715 0.024171144 0.0047158753 -0.28315166
0003d0 69 4e 77 be f4 32 54 3e bf 97 3a 3e e5 d2 ec bc
       -0.24151005 0.20722562 0.18221949 -0.028909156
0003e0 35 5f 02 be 0a 98 8e bc cd b1 1b bc 47 70 38 3e
       -0.12731631 -0.017406482 -0.00950284 0.1801158
0003f0 0e e1 81 bd 2c 55 c3 bd 8b 55 ad 3e a5 2d 01 be
       -0.06341754 -0.095377296 0.33854327 -0.12615068

class_layer.bias f4 [10]
000000 90 2d b1 3d 4f 3d b8 bd ff 7b 95 bd 35 9a 21 bd
       0.086512685 -0.08996069 -0.07299041 -0.039453704
000010 6e 17 ba 3d 76 53 f9 3d 3c c4 05 bd ff 2e 4b bd
       0.090865 0.12174122 -0.032657847 -0.049605366
000020 c7 ad 02 be 53 a3 e3 3c
       -0.12761603 0.02778784
