notebooks/paper-plots/models/w0.2.pt (torch, 339531 bytes, 8 tensors)

layers.0.weight f4 [100, 784]
00000000: 2366 d2bc 8a5c 96bc cc77 843c 904b 52bb
00000010: 512d 0f3d 196d 033d 26f0 963c 0ea9 a53c
00000020: 5fcd 0e3d 8091 db3b accd fbbc ac27 cb3c
00000030: 239a bfbc e0b2 793b 44b9 043c 68bd a4bc
00000040: 66d8 d43c 081b b73c e840 2e3c 406a 67ba
00000050: 650f 0cbd d840 be3b bcb7 01bc 90bb 903c
00000060: b20e 2dbc 60f3 333b 4a4d debc 3087 6b3b
00000070: d87a 72bc 5ec3 d73c f9df 073d 9ca9 c83c
00000080: 4661 a93c 77e4 a1bc 2877 0e3c 6219 cf3d
00000090: 1e01 c93d 1e4c d63d e145 b53d 0206 f43d
000000a0: db7b efbc 7808 b73d 4281 873e 9ccd 5d3e
000000b0: fa17 a83d b8a9 ee38 3f27 e93d 64bb ce3d
000000c0: 1e1f 9b3d 0bd0 6d3e 902f 303e 8097 c13b
000000d0: 9a6e b23c 60cb 91ba f303 e8bc d0f1 d0bc
000000e0: 8c2c 0bbd e0c2 f83a 507a 3e3b 5043 3d3c
000000f0: 4034 8dbb c0b5 193e de20 293e 203c b33d
00000100: 0d78 6f3a 5157 f33d cc15 303e 5007 7e3e
00000110: f95e 6d3e b940 713e 8911 c93e 3e9c 803e
00000120: 5410 393e ef91 903e b4fa 513e b2d2 533e
00000130: 4ce9 a53d 45a8 503d 7c48 3f3e cd99 2e3e
00000140: 5117 353e b0cc c23c c8ba ca3c 447a 243c
00000150: c02d d8bb fcbb bfbc b882 a73b 7ce6 0d3c
00000160: ae87 89bc 1e0d 213e ee84 fe3d 539c 133e
00000170: 0c29 193e 6a7a 4b3e 386b 493e 1d84 203e
00000180: cd15 163d e8c1 8b3d 8a3d 4a3e dd3c f03d
00000190: 7d45 413e 8ccc f03d 1fcb 6d3e e131 1b3e
000001a0: e4a7 b73d 0a38 67bd 4b55 183c 5fd2 9bb9
000001b0: 062a 4ebe 70c4 3bbb 5a44 b3bc c684 9a3c
000001c0: bc40 33bc 0011 e83b f060 6ebb 0934 85bd
000001d0: ef6d 0bbd 4f2e 2c3e 7704 913e 7eca 363e
000001e0: 8d86 b7bd 8e40 413d 51ee 0a3e ba67 53bd
000001f0: ff56 ecbd 3562 053d 4e89 2a3e 4cee a93d
00000200: dc28 b93d 1812 333d 5bf2 9bb8 ac14 3a3e
00000210: 1b08 883e efee 443e 77b3 013e c624 1f3e
00000220: 848c 8abe 3a30 d3be 68d3 b2bc 1848 c43c
00000230: f029 6b3b 8450 333c 299a 9bbb 7aa8 d8bc
00000240: 8bd9 b83d bd89 433e a162 003e 87aa cbbd
00000250: c16d 8ebd 3c81 33ba b1f7 eabd 4031 2fbe
00000260: f78c 0ebe e7b5 c5bc 43dc d5bb 9022 1f3d
00000270: 80c0 e7bc b2cf 903d ecaf 07bc f7ae 153d
00000280: 63f8 5b3d dee6 ed3d 08d0 8e3d f175 3a3d
00000290: 9356 b33d 6686 533c 1d92 b03d bed5 b9bd
000002a0: a004 aa3a b3f6 d0bc e5b0 063e f30c 7abd
000002b0: 2fab 47bc 7a80 403d 36d2 733d f884 ef39
000002c0: 0f30 e33c 7521 50bd dd02 7abe c388 52be
000002d0: 71e6 20be e348 00be 4a76 bebd 8475 b0bd
000002e0: 98a7 28be 9b46 c7bd 3f3b 12bd f9b6 94bd
000002f0: 4110 4bbd 4bef 09bd 5768 acbd a46c bfbd
00000300: 5ef8 16be dc25 97be 527e 9abe 5825 7dbd
00000310: 5169 f53a 7241 9ebd c678 083e e944 d5bd
00000320: 14e2 9d3b a4a4 663e 8602 083e 2a0d dabc
00000330: 6a6b fabd 473a 1fbe 3b13 68be ba94 11be
00000340: 0105 b2bd f8b2 9dbd 81ec 01bd 6b37 d5bd
00000350: 26bf 18be e053 80bd ebaa f1bd ac05 49be
00000360: 48f3 2abe d114 49bc da1a cab9 0e43 d9bd
00000370: f845 33be 1211 7ebe 9434 85be c819 ccbc
00000380: 5b5f 8ebc 93fd 01bc e9b0 5d3d c510 163c
00000390: e528 153e 90ec 3e3e bde8 043d c551 20be
000003a0: 484c 7ebe b047 8fbe a61f 33be 050b b8bd
000003b0: 1c74 9ebc 0ecc 0b3e 070a 023e fa98 a6bc
000003c0: 115f 58bd 64bc 91bd 4b5f 47be 0047 76be
000003d0: aeb6 22be ee3b a7bd c577 703d 9e0d d0bd
000003e0: 3e79 94be 6061 40be 4607 1fbd bffc 06be
000003f0: d664 35bd 7798 08bf 3f61 5e3c c7ee eebd
-0.025683468 -0.018354673 0.016170405 -0.0032088496 0.034955326 0.032086466 0.018425059 0.020222213
0.034863826 0.0067006946 -0.03073772 0.02479919 -0.023388928 0.0038101003 0.008100811 -0.020109847
0.025982093 0.022351757 0.010635592 -0.0008827783 -0.03419437 0.00580607 -0.007917341 0.017667562
-0.010562586 0.0027458295 -0.027136464 0.0035938732 -0.014799796 0.026338276 0.03317258 0.024494939
0.020676266 -0.01976226 0.008695401 0.10112263 0.09814666 0.10463737 0.08851219 0.119152084
-0.029233864 0.08937162 0.26465803 0.21660465 0.08207698 0.00011380337 0.11384439 0.10094336
0.075742945 0.23223893 0.17205644 0.005907953 0.021781255 -0.0011123233 -0.028322196 -0.02550593
-0.03397803 0.0018978976 0.0029064603 0.011551693 -0.004309207 0.15010738 0.16516444 0.08751702
0.00091350154 0.11881889 0.17195815 0.24807477 0.2318076 0.23559846 0.3927119 0.25119203
0.18072635 0.28236338 0.20505792 0.20685843 0.081011385 0.050941724 0.18679994 0.17050858
0.17684676 0.023779243 0.024747267 0.010038916 -0.0065972507 -0.023405068 0.0051120184 0.008660909
-0.01678833 0.1572766 0.12427698 0.14415102 0.14957064 0.19870916 0.19669807 0.15675397
0.036641885 0.06824094 0.19750038 0.11730359 0.18874164 0.11757764 0.23222016 0.15155746
0.089675695 -0.056449927 0.009297679 -0.00029720642 -0.20133218 -0.0028651021 -0.021883179 0.01886214
-0.010940727 0.0070821047 -0.0036373697 -0.065040655 -0.034040388 0.1681454 0.2832372 0.17850682
-0.089612104 0.047180705 0.13567473 -0.051612593 -0.11540031 0.03256436 0.1665394 0.08297405
0.090409964 0.043718427 -7.436118e-05 0.18171948 0.26568684 0.19231771 0.12666117 0.15541372
-0.2706033 -0.4124773 -0.021829322 0.023960158 0.003588315 0.010944489 -0.004748602 -0.026447523
0.09025868 0.19095512 0.12537624 -0.09944635 -0.06954528 -0.00068475655 -0.11473025 -0.17108631
-0.13920961 -0.02413459 -0.0065265014 0.03885132 -0.028290033 0.07070865 -0.008281689 0.036543813
0.053703677 0.116163 0.069732726 0.045522634 0.08756747 0.012910461 0.08621619 -0.09073971
0.0012971349 -0.02550826 0.13153417 -0.061047506 -0.012186809 0.046997525 0.059526645 0.00045684702
0.027732877 -0.050813157 -0.24415155 -0.20559983 -0.15712906 -0.12527804 -0.092999056 -0.08616164
-0.16470182 -0.09730264 -0.035701033 -0.07261462 -0.049576048 -0.033675473 -0.08418339 -0.093468934
-0.14743182 -0.29521072 -0.301745 -0.061803192 0.0018723403 -0.077273265 0.13327321 -0.10413534
0.0048182104 0.22523743 0.13282213 -0.026617605 -0.12227519 -0.15549575 -0.22663586 -0.14216891
-0.08692361 -0.07700151 -0.03171969 -0.10410961 -0.14916667 -0.06265998 -0.11800178 -0.1963107
-0.16694367 -0.012273029 -0.00038548448 -0.10608493 -0.1750716 -0.248112 -0.26016676 -0.024914637
-0.017379453 -0.007933992 0.054123793 0.009159272 0.14566381 0.18644929 0.03244852 -0.15656193
-0.24833786 -0.2798438 -0.17492542 -0.08986477 -0.019342475 0.1365206 0.12699138 -0.020336617
-0.052825037 -0.07116011 -0.19469945 -0.24050522 -0.1589 -0.081657276 0.05870797 -0.10158847
-0.2899875 -0.18787146 -0.038825296 -0.13182352 -0.044285618 -0.5335764 0.01357299 -0.11666637

layers.0.bias f4 [100]
00000000: 6a8d 1d3e 90d1 ac3c c0f2 c73d 0d6d ed3d
00000010: e9cb 9f3d d6ef 2d3e ad60 4d3e 4fe4 db3d
00000020: afd1 ab3d e21b ee3d 9fed 003e 5260 073e
00000030: 9c38 a63d a7fa c03d 73bf 4b3d 69d4 e43d
00000040: 5a8b c03d fca3 ee3d 5149 2b3e 5352 d03d
00000050: bc27 0a3d 0edf 77bc 9e64 cb3d 022e 343d
00000060: 2657 d93d a11d 713d c1d8 f83d f3ce 243e
00000070: 8f86 c53d 2781 063e 6fd0 353d e0fb c13d
00000080: 91c5 163e 8ff5 7d3d 9337 be3d 0fc4 213e
00000090: 95c7 043e dee3 af3d 1b23 043e cd4b e43d
000000a0: 48cc f23d bc74 6c3d c742 9b3d faeb ec3b
000000b0: dcae 123e 54b6 263d 8bf1 c53d 6f5c d43d
000000c0: 2144 483e b390 173e a213 f13c a864 013e
000000d0: e5d1 0a3e 3847 183e 9d08 863d 4d47 8f3d
000000e0: 83d4 933d 5b49 9f3d cecd 8b3d 341b 5f3d
000000f0: 5b5c 0d3e c545 4e3e dbe8 af3d fe9e e23c
00000100: cf07 323d 4719 ac3d b2e6 b93d 9e17 c53d
00000110: 1a59 d23c 8235 843d f2bb e03d b3cb 133e
00000120: 570e 923d 337e 083e 3bb3 c53d 2545 1a3e
00000130: 5979 613e 8759 0f3e 4c76 093e a216 8e3d
00000140: f577 be3d 3a62 bb3c 5963 e33d 4069 e63d
00000150: f69e e73d 50b2 1d3c 7886 0e3e b363 173e
00000160: 3555 c83b 9df3 b33d 7521 873d da5d 9d3d
00000170: 968b ac3d d620 133e 9b0d 1c3e 76d2 b13d
00000180: 6835 f43d 7e78 cb3d 6fdb f53d e399 003e
0.15385976 0.021096021 0.09763098 0.115930654 0.07802565 0.16986021 0.2005641 0.10736906
0.08389603 0.11626412 0.12590645 0.13220337 0.08116266 0.09422808 0.049743127 0.111733265
0.09401579 0.11652371 0.16727187 0.10171952 0.0337293 -0.015128864 0.099313006 0.04398919
0.10612325 0.058866147 0.121507175 0.1609457 0.09644806 0.13135205 0.04438823 0.094718695
0.14723803 0.06200176 0.09287944 0.15797447 0.1296676 0.08588384 0.12904017 0.1114727
0.1185537 0.057728514 0.07581096 0.007230279 0.14324516 0.040701225 0.09665211 0.10369193
0.19557239 0.14801292 0.029428307 0.12636054 0.13556631 0.14870918 0.065446116 0.069960214
0.07218268 0.07777663 0.068263635 0.054469302 0.13804762 0.20143802 0.085893355 0.027663704
0.043464478 0.08403259 0.09077205 0.09623645 0.025677253 0.06455518 0.10973348 0.14433174
0.07131641 0.13329391 0.09653326 0.15065439 0.22018947 0.13998996 0.13424033 0.069379106
0.09300224 0.022873987 0.111029334 0.112505436 0.11309616 0.009625033 0.13918483 0.14784126
0.006113673 0.087867 0.06598178 0.076839164 0.084250614 0.14367995 0.15239565 0.0868272
0.11924249 0.099350914 0.12004744 0.12558703

layers.1.weight f4 [50, 100]
00000000: 4951 143e b491 c83d 2f97 0ebe bb99 0abe
00000010: 1bb5 0c3e d724 ee3b 74a9 c73d 2044 11be
00000020: 0837 1a3e 22ca 20bc 1948 f83c 7303 463e
00000030: 31e4 0ebd c0ea 89bd 3fc7 0d3e f9d3 01be
00000040: 4ff5 363e 87ed 77bd 1903 913b 973e a23c
00000050: b728 893d 801b 48be 6560 603c a853 273e
00000060: 0cb5 c6bd d6f6 0bbe f453 bb3d 711f 0b3d
00000070: dcb6 10bd 81b6 45bc f061 893e 87ba f5bc
00000080: cca2 fe3d 946c a23d f7ba c5bd 86cb 72bd
00000090: 498a 1a3e ce0f 2b3d 01a9 043d c4bc 7d3e
000000a0: 8599 d3bd b57d aa3d 7fef 3ebd 1d14 aebd
000000b0: 4f24 b43e e714 8f3c 6033 da3d 5860 8d3d
000000c0: 085d 3bbe 3fa6 8d3c 407a 8f3e fb65 3d3e
000000d0: c7f5 27be 6fcb 8dbd a793 0d3e 2f29 313d
000000e0: a510 3d3d 2a73 913c 5c7d 6a3e 9fb3 3f3e
000000f0: 2eea c7bd f2b9 163e 8054 4ebe 84f8 00be
00000100: 4025 073e 5f94 1bbd f21b 8cbd 4776 213e
00000110: ec1c 6cbd eb65 f93d 28bc 0d3e 5618 ecbc
00000120: e5ef 953d 6df6 81bb 4ff9 283e 8646 babc
00000130: 5614 983e 560e 1c3b 504e 4f3e bb23 0dbe
00000140: daf1 223c af44 33be c5d3 87bb 1109 563d
00000150: c35c 1b3e c614 8d3d 9c19 783c e0c9 ccbd
00000160: 6a49 423d e1d0 2fbd 7246 223e 92e0 90bd
00000170: c5ba fb3b edb8 f2bd 4435 0f3e b74c 373e
00000180: 7c9e 90bd 6f09 6dbd e15c 0cbd b03e 8c3d
00000190: b62d a43d 4178 7bbd ccfa a1bd 28b6 063d
000001a0: 4319 c9bd 623d b93d c529 3abe 81bb e33c
000001b0: 0ad5 233d 1798 a13d 2269 cdbd 045a a7bd
000001c0: 2af6 7b3d 36f2 f2bd a5b1 3ebe 5fb8 873e
000001d0: 77a1 353e 361a 253d aaff e8bb eb19 9bbe
000001e0: 1f40 db3b 5a2a 523e dd0e b7bd 4239 f63c
000001f0: 26cc f6bc 30c0 b73d 42c7 bcbd 24e6 ab3c
00000200: d968 ad3d fe27 26be 3914 72be 42a5 89bd
00000210: d574 b63d db56 74bd adc5 9cbc 6df0 44bd
00000220: 9006 d83d 436c 2abd 9522 02be b6ae 99bd
00000230: 04d5 15be 7f1c 0d3e 6efc 1fbc 7d30 3c3e
00000240: e3ee 03bd 8751 10be a18a a4bc 5f5a 39bd
00000250: 2546 963d dc49 a33d 1309 c1bd 8402 56be
00000260: 45eb cfbd 5d45 b13d b939 3ebd 22cf c83d
00000270: 2899 893c 0c32 b33c e8c5 3dbd e87f 863e
00000280: 588b bbbd 9747 46bd f9fc b93d f6f3 3d3e
00000290: 982b e63d b16f 0bbc 1f01 82bd f7a3 003d
000002a0: 5769 89bd 76a0 193b c7a5 fb3d 1bac 8b3d
000002b0: 84b4 80bc 9aed 373e fe79 36be 3174 1a3d
000002c0: f9d9 73bd 0bad edbc c6a6 613d 4b02 b1bc
000002d0: 2c0b aebd ad34 113e 7444 4a3e e131 cdbd
000002e0: 6fef 1e3e 9362 113d aae6 443d 951c 23bd
000002f0: 3cf0 7ebe 495b a33d c4a2 0a3c b1b8 bbbc
00000300: a3ca 3a3b 3089 dc3d b603 213e f472 663d
00000310: bd34 b63d 4f2c e4bc dfa8 073e f098 073e
00000320: 449a a6bc c1f3 4b3d 0728 233e c25d 2fbc
00000330: 2cd1 42bc 6cee c9bd 07c4 a53d c4bd fb3d
00000340: c5c5 da3d c26e 04bd af09 743e 1a5c 41bd
00000350: cdd3 d9bd eb2a 2c3e d6df bcbc ad52 c9bd
00000360: 403c 863e d2cf dcbd 7978 1b3e 2b8f 093e
00000370: c7a8 0bbd df4b 5a3e 5076 06bd 7318 08be
00000380: e6ea fc3d 5afa 77bd a087 003e 455b 0d3e
00000390: 0c02 6c3d 7d90 5c3d caa5 83bc 2f34 0a3e
000003a0: f115 2dbd 5955 203d ef40 763d 1eb1 fb3b
000003b0: 65b4 43be c33c 763e 3f2e 94bc a31a b9bd
000003c0: edba a1bc 2788 a8bc ada6 11be bf2e 37be
000003d0: d04a ae3c 9424 5dbd 1c54 2fbe 0031 0cbc
000003e0: 56d4 f93d 2edd e5bd cba5 e43c 9e30 0cbd
000003f0: cb91 13bd aa9e 9b3c 07cd 0f3c a71b c0bc
0.14484133 0.09793416 -0.1392486 -0.13535206 0.13740961 0.0072675752 0.097491175 -0.14186144
0.15060055 -0.009813817 0.030307816 0.19337253 -0.03488559 -0.06734228 0.13845538 -0.12678517
0.17867015 -0.060529258 0.004425418 0.019805236 0.06697219 -0.1954174 0.013694857 0.16340506
-0.09702501 -0.13668379 0.09146872 0.03396553 -0.03533064 -0.012067438 0.26832533 -0.02999617
0.12433395 0.07930866 -0.09654801 -0.059276126 0.15091814 0.04176312 0.032387737 0.2477904
-0.10332016 0.08324758 -0.04661512 -0.0849993 0.3518395 0.017466022 0.1065433 0.06903142
-0.18297207 0.017291186 0.28022957 0.18495934 -0.1640235 -0.069235675 0.13825856 0.043252166
0.04615845 0.01775511 0.22899383 0.18720864 -0.09761463 0.1471937 -0.20149422 -0.12594801
0.13197803 -0.037983295 -0.06841268 0.15767775 -0.05764477 0.121776424 0.13841307 -0.028820198
0.07321147 -0.003966144 0.16501354 -0.022738706 0.29703015 0.0023812256 0.20244718 -0.13783161
0.009945357 -0.1750667 -0.004145118 0.05225474 0.15172105 0.06888728 0.0151428245 -0.09999442
0.047433294 -0.04292381 0.15847185 -0.070740834 0.007682177 -0.11851678 0.13985163 0.17900358
-0.070614785 -0.057870325 -0.034268264 0.06847894 0.08016531 -0.06139398 -0.07909164 0.03288856
-0.098192714 0.09044911 -0.18179996 0.02779937 0.03999809 0.07890337 -0.10029818 -0.08171466
0.061514057 -0.11862604 -0.18622454 0.2650785 0.17737375 0.0403082 -0.0071105557 -0.3029321
0.0066909934 0.20523968 -0.08938382 0.0300566 -0.030126642 0.08972204 -0.09217693 0.020983763
0.08467264 -0.16226193 -0.23640527 -0.067209736 0.08909003 -0.059653144 -0.019137228 -0.04808085
0.10548127 -0.041607153 -0.12708504 -0.075040266 -0.1463204 0.13780402 -0.009764774 0.18377872
-0.032210242 -0.140936 -0.020085635 -0.0452522 0.07337598 0.07973072 -0.09425559 -0.20899397
-0.10152296 0.08655808 -0.046441767 0.098051324 0.016796663 0.02187445 -0.046331316 0.2626946
-0.09157437 -0.048408117 0.09081454 0.18550095 0.112387836 -0.008510516 -0.0634787 0.03140637
-0.06709545 0.002344159 0.12287479 0.06819936 -0.015711077 0.17961732 -0.17819974 0.037708465
-0.059534047 -0.029013177 0.05509069 -0.021607539 -0.084982246 0.1418025 0.19752675 -0.10019279
0.15521024 0.0354944 0.04807154 -0.03982218 -0.2489633 0.07976396 0.008461658 -0.022915216
0.0028502129 0.10768354 0.15724072 0.05626197 0.08896778 -0.02785316 0.13248013 0.13241935
-0.020337231 0.04979301 0.15933238 -0.010703506 -0.011890691 -0.098599285 0.0809403 0.12292054
0.10682253 -0.03233219 0.23831819 -0.047206976 -0.10636101 0.16813247 -0.023055952 -0.09830222
0.26217842 -0.10781826 0.15182675 0.1343352 -0.034096505 0.21318005 -0.032827675 -0.13290577
0.12349491 -0.06054149 0.12551737 0.13804348 0.05761914 0.053848732 -0.016070265 0.13496469
-0.042257253 0.039143894 0.06012052 0.007681026 -0.19111784 0.24046616 -0.018088458 -0.09038284
-0.019742453 -0.020572735 -0.14223738 -0.17888926 0.021275908 -0.05398996 -0.17121929 -0.008556604
0.12198703 -0.11223827 0.027911087 -0.034226052 -0.03602771 0.018996555 0.00877691 -0.023450686

layers.1.bias f4 [50]
00000000: e2a5 0c3e d5d6 54bc 2955 3d3c 7f7c fc3d
00000010: fd66 e73b ec6e 43bd 0d20 aabc d068 f8bc
00000020: ce40 a93d 0296 c93d 40a6 94bc fbaf f2bc
00000030: 0428 803c 2d65 133e 46b7 c03d f89b 523d
00000040: f95a b73d 8619 383e f4fe 54bd f8fc ed3d
00000050: c41e 8dbb 8d67 6b3d 919e 323d 8b0d 8e3d
00000060: 28c6 363d caf2 943d d033 57bc 1406 833c
00000070: 1d10 163d 24c2 b33d b552 e43c dc3c e93d
00000080: 7015 d53d cda7 dd3d 159d 853d 8c30 393e
00000090: db4a c13d 6216 953d 1885 98bc 2b7c 20bd
000000a0: 8a02 5d3c ae06 1abd b879 74bd 5423 273e
000000b0: 760e 113d 1be8 c83b 745e cebc 0318 5c3d
000000c0: c1e5 803d 5942 f33c
0.13735154 -0.012990673 0.011555948 0.12328433 0.0070618377 -0.047713205 -0.020767236 -0.030323416
0.08264314 0.09843065 -0.01814568 -0.02962493 0.015644081 0.14394064 0.09409957 0.051418275
0.089528985 0.17978486 -0.052000955 0.116205156 -0.004306646 0.0574718 0.043608252 0.06936177
0.04462257 0.07272871 -0.013134912 0.01599411 0.03663646 0.08777264 0.027871469 0.11388561
0.104044795 0.10823021 0.06524102 0.18084925 0.09438106 0.0727966 -0.018618152 -0.039180916
0.013489375 -0.037604026 -0.059686393 0.1632207 0.03541418 0.0061311848 -0.025191523 0.053733837
0.06293822 0.029694723

emb_layer.weight f4 [2, 50]
00000000: bcfb 08bd 7fbe a63c d19c 05be 8a3e c23d
00000010: 55ec 75bd dca4 a13c 0cb1 163d 96de 62bd
00000020: 20d3 3f3d 93a2 3abc 249d c8bd bbb3 fc3d
00000030: 3836 0bbd 6d65 c13d a61a 9bbd 6d6f 00ba
00000040: d1d5 b53d 048c 9d3d 934b a0bc cee9 58bc
00000050: b505 073d 0bac 1abc 80a8 06bd 4825 7c3d
00000060: ba97 f63b cc87 e0bc 2b2d 2cba 83d7 c63d
00000070: e70f 4b3d 2ae1 1ebd 1a91 9d3c eede eb3c
00000080: 1790 aebd 598a 96bd 1c96 19be 13ad dd3b
00000090: d078 2fbc 7e19 c4bd 452f 563d cb11 70bd
000000a0: c580 56bd 592f 103b 7335 073c 8a12 283c
000000b0: e999 f03c 58f4 953d f49f 483c 4389 cb3d
000000c0: 7c48 32bd ea58 533d 68e9 87bd ed80 ee3d
000000d0: 960f 723d 1562 cabd b124 07bc 94f8 9f3d
000000e0: 6ccf d93d 985c 0c3d 047e a03b 12e1 a8bd
000000f0: ce29 9a3b 5101 97bd 2069 dcbd 8368 91bb
00000100: bead b93c e8af 903d e8d5 b0bd 8d5c 92bd
00000110: ce61 e9bd 6e1a f23c 12bb ea3c a1e8 7e3b
00000120: 668c 243d f86e 9c3d 298d 0f3d d2b1 5f3c
00000130: 897b d33c 51c3 133c c772 d5bc 6d75 9d3d
00000140: aac7 d5bd 4a7f cd3d 9c2b 5f3d e426 dbbd
00000150: 0c61 503d 9156 2f3d 1044 8fbd 0166 28be
00000160: 2861 23bd 90b6 4bbd 1fea bdbd d2d3 583b
00000170: b8c0 ee3c fee6 593d 6275 a5bc a65f 783d
00000180: 2c8d cdbc e95a c3bc b5a3 f1bd a0a3 453d
-0.033443198 0.020354507 -0.13048102 0.09484585 -0.060039837 0.019731931 0.03678994 -0.055388056
0.046832204 -0.0113913 -0.09795597 0.12338968 -0.033987254 0.094431736 -0.07573442 -0.0004899416
0.08878673 0.076927215 -0.019567287 -0.013239337 0.032964427 -0.009440432 -0.032875538 0.06155899
0.0075254114 -0.027408503 -0.000656801 0.09709074 0.049575713 -0.038788952 0.019234229 0.028792825
-0.08523577 -0.073506065 -0.14998668 0.006765017 -0.010709956 -0.09575175 0.052291173 -0.05861072
-0.052368898 0.0022000878 0.008252489 0.010258326 0.029370265 0.073219955 0.012245167 0.0993829
-0.043526158 0.051598467 -0.066363156 0.116456844 0.059096895 -0.09881989 -0.008248494 0.078110844
0.10635266 0.03426799 0.0048978347 -0.08246054 0.0047046905 -0.07373298 -0.107622385 -0.0044375076
0.022665855 0.070648015 -0.086345494 -0.07146559 -0.11395608 0.029553618 0.028653655 0.0038895982
0.040172957 0.07638353 0.03504673 0.0136532355 0.025815742 0.009018735 -0.026055707 0.07688413
-0.104384735 0.10034044 0.05448495 -0.10700777 0.0508738 0.042807166 -0.06995404 -0.16445161
-0.039887577 -0.049734652 -0.09273171 0.003308524 0.02914463 0.053198807 -0.020197574 0.060638092
-0.02509173 -0.02384706 -0.11798803 0.048251748

emb_layer.bias f4 [2]
00000000: 8cde bbbd 12e6 9b3d
-0.09173307 0.07612242

class_layer.weight f4 [10, 50]
00000000: aac7 df3c ecba 3cbe 57c4 313e da01 f2bc
00000010: 4615 05be 5896 a0be 7143 103e 4320 763d
00000020: 7d23 31be acf3 ee3c 2f3c ffbd e3c5 7f3d
00000030: e7a7 b9bd c2e1 6c3d ed7f 0c3e f05c 21be
00000040: 7d98 843d 178d a03e 0fec 9cbd 70b6 bdbc
00000050: c9f4 673e 9d95 0e3e 8dfb f1bd 6316 533e
00000060: 3eef bbbe e85c 2cbe 09fa f6bc 8f35 a6be
00000070: 786b 88be 7522 8e3e ebf2 91be e6f8 77be
00000080: 98e4 f4bd a860 0c3e 1607 083e 9419 463c
00000090: 0e49 f0bd 1de1 85bd a319 65be a8e7 253e
000000a0: 968a c8bd b264 cd3c 6878 2bbc 0bd8 4d3d
000000b0: 788e b1bd 4efd 0dbd b8d5 48bd 6690 1cbe
000000c0: 66c9 503d 22f3 3d3e 7dd0 033e c2ff c73d
000000d0: b9ff 113e a38d 993b e8d5 203e 3470 123d
000000e0: 1dab 913d 6458 603d 4fd0 233e c0fd 13bd
000000f0: 5719 573e 4d1e bcbd cedf 62bc e4a7 6dbe
00000100: 4de5 153d 6afe fbbc 98cb 19be ff86 4ebe
00000110: e2d2 463e 15e3 63be 03e5 2d3e 7b52 ffbd
00000120: e3bd 293e 1899 2fbe eac9 293e b428 79be
00000130: bba2 1ebe 15b6 0bbe 5f9c 2e3e 43be 45be
00000140: f1fb ae3d b65e 073e 29e0 ebbc da5d 8abe
00000150: 57f3 82be d8a7 d1bd 5a8d a1bd f223 223e
00000160: cf71 b83d 0e06 1bbe 5325 443c aeb1 173e
00000170: d5d7 313d c896 4a3a 51b3 b8bd 594b da3a
00000180: 4125 0bbe 25bb 473e fff2 d3bd 8af2 153e
00000190: 023b 213e a3b9 38be 6335 913b 65ef 623e
000001a0: d822 1bbe 1ab5 843e 2b50 2bbe 89fd da3d
000001b0: 9597 ebbd 771b 2dbe fa33 a7be 577a cabd
000001c0: 29fa 04be ebd0 0c3e 4969 5d3d 7aaa 2ebe
000001d0: b2ca b6bd f5f9 1a3e ee82 93be c661 21be
000001e0: 2f20 2abf 5bba c23d e936 113e 82a6 ab3c
000001f0: 9d1e 58be c7ac 703c 311d 19be c234 11bd
00000200: 49aa 893e 19db babc e8e8 783d 632c cd3d
00000210: f3a7 da3a 3c7e 0e3e d1e9 0d3e 3272 173b
00000220: d987 113e 9597 ec3d cb78 22bb 9bdc 2fbe
00000230: b0a0 d73d c573 bf3c dcbb fb3e 377b 76bd
00000240: 3cf3 97be c277 dc3c 679e 53be 20cd 8b3e
00000250: 03e2 81be b0ee 2f3e 2182 273e 0a9d fbbd
00000260: f2ba 3d3e 64a9 973c 9319 80be d412 013e
00000270: d1b3 c2bc ca59 053e 5099 a53e 38b3 14bd
00000280: 5bfe 933d 9c9a 37be 2ac2 9e3e cb82 133e
00000290: 21a3 91be b314 a43d cd83 313e faf7 16be
000002a0: 6a2b cfbd 8441 343e 3ffa 47bd 4a8c 5abb
000002b0: 8d22 f53d 9abf b23d c98b 8abe 4d3e 003e
000002c0: 453e 143e 0954 b9bc bc82 cd3d 00d7 d239
000002d0: 6bcc bd3d fddd 35be d2b7 803d f414 1fbe
000002e0: 370f 93bc 47b5 b3be 67ae 733d ae7b 413c
000002f0: a2f2 653b b469 d63d 04da 35be 62a5 be3d
00000300: 59ea c1bb d3ea a1be 7438 053c eb88 273e
00000310: a8a8 963d d4ec 60be 6291 8fbe f9f2 f73d
00000320: 3558 1b3e 19df acba 8019 98be 319a 33be
00000330: 8d40 b1bc 1a75 6ebe a764 6bbd d011 edbd
00000340: 2e3a 683b eda5 933e 718c a53e bff3 ca3d
00000350: 3b0b 8fbe 72b8 9c3d 1e24 413e 2aa0 4ebe
00000360: e540 0dbe df8b 42bc edf5 d9bd 2d97 213e
00000370: 7278 9e3e e3ae 7a3d f502 6a3e 1350 ce3c
00000380: e8f6 8d3e 03e5 933e 47c2 64be 0eba 40bd
00000390: 15fc a33d bed4 093d e180 31be 2e52 b3bd
000003a0: b60a 79be bb77 483e 0c3f 0dbe f922 cf3d
000003b0: 52f5 a43c 9f34 8fbd a2b7 44be cb45 adbd
000003c0: bd3d 3f3e 92e9 98bd ef7d cfbd 2652 35be
000003d0: 504c 3a3e 6b1d 1fbe 8e0a 2c3e b6db c1bd
000003e0: adb5 13be 5004 8bbe 2140 83be f8e5 be3d
000003f0: f1f6 863e c8f2 70bd 6ec3 d7bc 6ee1 e4bd
0.027316887 -0.1843068 0.17360054 -0.029541899 -0.12996396 -0.31364703 0.14088227 0.06008936
-0.17298694 0.029168926 -0.12462651 0.06244458 -0.09065228 0.057832487 0.13720675 -0.15758109
0.06474397 0.31357643 -0.07662212 -0.023158282 0.22651972 0.1392426 -0.11815558 0.20614009
-0.36705965 -0.16832316 -0.030148523 -0.32462737 -0.26644492 0.27760664 -0.28505644 -0.24216041
-0.11957663 0.13708746 0.13283953 0.012091059 -0.11732684 -0.065370776 -0.22373061 0.16201651
-0.09792058 0.02507243 -0.010465719 0.050254863 -0.08669752 -0.0346654 -0.049031943 -0.15289459
0.05097332 0.18549779 0.128725 0.09765579 0.14257707 0.004686074 0.15706599 0.035751536
0.071127154 0.054771796 0.15997432 -0.036130667 0.2100576 -0.09185467 -0.0138473045 -0.23208576
0.03659563 -0.030760963 -0.15019071 -0.20168684 0.19416383 -0.22254594 0.16981892 -0.12466904
0.16576342 -0.17148244 0.1658093 -0.24331933 -0.15491764 -0.13643678 0.17051838 -0.1931086
0.08544148 0.13219723 -0.028793411 -0.27024728 -0.2557628 -0.10237092 -0.07888289 0.15834025
0.09006082 -0.15139028 0.011971789 0.14813873 0.043418724 0.00077281566 -0.09018577 0.0016654535
-0.1358843 0.19504984 -0.10349082 0.14643303 0.15745166 -0.18039565 0.004431413 0.22161634
-0.1515001 0.2591942 -0.167298 0.10692889 -0.11503521 -0.16905008 -0.32656842 -0.09886616
-0.12986054 0.13751571 0.054055486 -0.17057219 -0.0892538 0.15134414 -0.2881083 -0.15759954
-0.6645536 0.09508201 0.14181103 0.02095342 -0.21105428 0.014689631 -0.14952542 -0.035450704
0.2688773 -0.022809552 0.06076899 0.10018232 0.0016682133 0.13915342 0.13858725 0.0023108837
0.14211978 0.115523495 -0.0024791237 -0.17173998 0.105286956 0.023370633 0.49166763 -0.0601761
-0.2967776 0.026912574 -0.20665894 0.27304935 -0.25367746 0.17180896 0.16358234 -0.12285812
0.18528345 0.018513389 -0.25019512 0.12604839 -0.023767384 0.13022533 0.3234353 -0.03630373
0.07226249 -0.17930073 0.3100751 0.14405362 -0.2844477 0.080117606 0.17335434 -0.14743033
-0.101157025 0.17603117 -0.048822638 -0.003334778 0.11969481 0.08727951 -0.27059773 0.12523766
0.14476879 -0.022623079 0.10034701 0.0004021451 0.09267505 -0.17760463 0.06285061 -0.15535337
-0.017951591 -0.3509924 0.059492495 0.011809273 0.0035087247 0.1046938 -0.17758948 0.09308888
-0.005917829 -0.3162447 0.008131135 0.16360824 0.073563874 -0.21965343 -0.28040606 0.1210689
0.15170367 -0.0013189047 -0.29706955 -0.17539288 -0.021637226 -0.23286858 -0.057469036 -0.11575663
0.0035435068 0.2883753 0.3233371 0.09909772 -0.27938256 0.07652368 0.18861434 -0.20178285
-0.13794287 -0.011874168 -0.1064261 0.15780325 0.30951267 0.06120194 0.2285269 0.025184667
0.27727437 0.2888566 -0.22339736 -0.047052436 0.08007065 0.033650152 -0.1733432 -0.08755909
-0.24320492 0.19576924 -0.13793582 0.101140924 0.02013651 -0.069924586 -0.19210675 -0.084605776
0.18675895 -0.07466425 -0.10131442 -0.17707118 0.18193173 -0.15538566 0.16800901 -0.09465735
-0.14424773 -0.27151728 -0.25634864 0.09321207 0.26360276 -0.058825284 -0.026338305 -0.1117581

class_layer.bias f4 [10]
00000000: 2ce1 fd3c 3f7d 0bbd 0c6f 5a3d dfb1 a5bd
00000010: 5bea 83bd 2671 ef3d 056e 9f3d 7cd2 8b3c
00000020: 3964 e7bd c4cc d3bd
0.03099116 -0.03405499 0.05332856 -0.08090567 -0.06441184 0.11691503 0.077846564 0.01706814
-0.11298413 -0.1034179
