notebooks/paper-plots/models/w0.3.pt (torch, 339531 bytes, 8 tensors)

layers.0.weight f4 [100, 784]
0	0xbc5a710a	-0.013332615
1	0xbb324170	-0.0027199648
2	0x3cafa00a	0.021438617
3	0xbc957f4c	-0.018249176
4	0x3c766ea8	0.015041031
5	0xbc9b3f45	-0.018951068
6	0xbcff8b38	-0.031194314
7	0x3b392280	0.0028249323
8	0xbd0ce3ca	-0.034396924
9	0xbbce3c38	-0.0062937997
10	0xbbf82de4	-0.00757383
11	0xbcda039c	-0.02661305
12	0xbca37dd0	-0.019957453
13	0x3bba4e98	0.0056856386
14	0x3c333030	0.010936782
15	0x3bf67d80	0.007522285
16	0xbcb7bc40	-0.022428632
17	0x3c36b484	0.011151437
18	0x3ccdf622	0.02514178
19	0x3c7ef258	0.015560709
20	0xbcda0f58	-0.026618645
21	0x3ca6b0bc	0.020347945
22	0x3ce840ba	0.028351177
23	0xbc009404	-0.00784779
24	0x3abbc5a0	0.0014325865
25	0x3c8f20c8	0.017471686
26	0x3c46ac38	0.012126021
27	0xbc5aed4e	-0.013362242
28	0x3a9ca5c0	0.0011951253
29	0x3a9584c0	0.001140736
30	0xbb53d9d0	-0.0032325871
31	0xbc6e33ea	-0.014538744
32	0x3c9437e0	0.01809305
33	0x3c8d646c	0.017259799
34	0x3cc86680	0.024462938
35	0xbcc40173	-0.023926472
36	0xbd6a7a50	-0.057245553
37	0xbdbe63b8	-0.092963636
38	0xbdbd6932	-0.0924858
39	0x3b9e049c	0.004822327
40	0xbc35474e	-0.011064364
41	0x3d5b416e	0.053529195
42	0x3e3c1801	0.18368532
43	0x3e85428d	0.26027337
44	0x3e64b8de	0.22336146
45	0x3ca05ae7	0.019574596
46	0x3d7e0ec7	0.06202581
47	0xbdb88b24	-0.09010914
48	0xbe0e6bef	-0.13908361
49	0xbc8b0bc3	-0.016973382
50	0xbcdc0272	-0.026856635
51	0xbcb082c0	-0.021546721
52	0xbcd765d5	-0.026293674
53	0xbd0a6903	-0.033791553
54	0xb91a5f00	-0.00014721975
55	0x3c0049a4	0.007830057
56	0xbc5bb512	-0.01340987
57	0xbbb757c0	-0.0055951774
58	0xbc867e9a	-0.01641779
59	0x3bc6ec68	0.0060706623
60	0x3da70bef	0.08156573
61	0xbdaa115f	-0.083040945
62	0xbe07f5d9	-0.13277377
63	0x3d8b24b8	0.06794113
64	0xbc3fb571	-0.011700974
65	0xbd6a5ff4	-0.057220414
66	0x3e0814a5	0.13289125
67	0x3d491c93	0.049099516
68	0x3e6908ef	0.22757314
69	0x3e154b24	0.14579445
70	0x3db6f40a	0.089332655
71	0x3d2100bb	0.039307337
72	0x3d86bcd5	0.065789856
73	0x3e45ccd8	0.19316423
74	0x3d83349b	0.06406518
75	0xbb92dfc6	-0.0044822423
76	0x3c826332	0.01591644
77	0x3d296b6c	0.04136221
78	0xbd8682c9	-0.06567914
79	0x3da00e91	0.07815278
80	0x3d77fb67	0.06054249
81	0xbc8f20a5	-0.01747162
82	0xbbc6b3b8	-0.0060639046
83	0xbc93e235	-0.0180522
84	0xbd06f0bb	-0.032944422
85	0xbb9061f0	-0.0044062063
86	0xbd03b04f	-0.032150563
87	0x3ca0d87a	0.019634474
88	0x3dca9b4e	0.09892903
89	0xbe15a677	-0.14614283
90	0xbe0a15d3	-0.13484888
91	0xbccf1da6	-0.025282692
92	0xbc64365a	-0.013928974
93	0x3e418618	0.18898809
94	0x3e71bf1b	0.23608057
95	0x3e55a518	0.2086376
96	0x3e3f585b	0.18686049
97	0x3e4a2d95	0.1974395
98	0xbc962d40	-0.018332124
99	0x3e2ff348	0.17182648
100	0x3e206a11	0.15665461
101	0xbe1a5893	-0.15072851
102	0xbe1225a1	-0.14272167
103	0xbe10bbbd	-0.14134116
104	0x3bab82f8	0.0052341186
105	0x3e5bbde8	0.21459162
106	0x3e2927d1	0.16519095
107	0x3e0dcdce	0.1384804
108	0x3e000e85	0.12505539
109	0xbc8da967	-0.017292691
110	0xbc1b052a	-0.00946168
111	0x3ccfcc22	0.025365893
112	0xbc95fb23	-0.018308228
113	0xbcfdae2c	-0.03096684
114	0xbc8fa205	-0.017533312
115	0xbdfb54d5	-0.1227204
116	0xbe7cfaa9	-0.24704994
117	0xbd8e1f28	-0.06939536
118	0xbce56237	-0.028000934
119	0x3e8278c3	0.2548276
120	0x3e9fa8cf	0.31183478
121	0x3e2efca0	0.17088556
122	0xbdc6dc15	-0.09709946
123	0xbd2ad036	-0.04170247
124	0x3e755627	0.23958646
125	0x3e0a3d7d	0.13500018
126	0x3d0b7084	0.03404285
127	0x3cb0e434	0.02159319
128	0x3dda2cf0	0.106531024
129	0x3d8eaed1	0.06966937
130	0x3e102ab8	0.14078796
131	0xbd8f91e8	-0.07010251
132	0xbdb38e1f	-0.08767342
133	0x3caede10	0.021346122
134	0xbe1e9f0a	-0.15490356
135	0xbcf53134	-0.029930688
136	0x3e35eb7e	0.17765614
137	0x3e9acdde	0.3023519
138	0xba3cb340	-0.0007198341
139	0x3ccdc1f0	0.02511689
140	0xbca75c68	-0.020429805
141	0xbc96ece3	-0.018423503
142	0xbd045c95	-0.032314856
143	0xbb39fc9c	-0.0028379327
144	0x3e071f41	0.13195516
145	0x3cfdac71	0.030966016
146	0x3db94cf7	0.09047883
147	0x3e1771ba	0.14789477
148	0xbca7cb5c	-0.020482711
149	0x3dd74d4b	0.10512789
150	0x3c1be7aa	0.009515682
151	0x3dde23f6	0.10846703
152	0x3ea09af6	0.31368226
153	0x3e814f43	0.25255784
154	0x3de37dc2	0.11107971
155	0x3dfc5b75	0.123221315
156	0x3e818ce0	0.25302792
157	0x3e483f0d	0.19555302
158	0x3e687fbf	0.22704981
159	0x3c818bca	0.015813727
160	0xbd659bf5	-0.056056935
161	0xbbadec02	-0.0053076753
162	0x3d218eff	0.039443012
163	0xbd7ec8e6	-0.06220331
164	0x3d2658ec	0.040612146
165	0x3cc1a9a2	0.023640458
166	0xbe976dc5	-0.29575935
167	0x3dab75b9	0.08372063
168	0xbc663a7c	-0.01405203
169	0x3c8a88fc	0.016911022
170	0x3e05782e	0.13034126
171	0x3d2a255d	0.04153954
172	0x3d506eaa	0.050886787
173	0xbd179645	-0.037008543
174	0xbdcfd72e	-0.10148464
175	0x3d8de109	0.06927688
176	0xbce9a1c1	-0.028519513
177	0x3d45fb74	0.048335508
178	0x3d456c20	0.04819882
179	0x3d95d7e9	0.07316572
180	0x3e99491d	0.29938594
181	0x3e576c72	0.21037462
182	0x3e387509	0.18013395
183	0x3e46762b	0.19381015
184	0x3e238045	0.159669
185	0x3dcbe0b0	0.09954965
186	0x3e352830	0.17691112
187	0x3d2ec4b9	0.042668078
188	0x3cd63812	0.026149783
189	0x3ccbd74b	0.024882933
190	0xbc278549	-0.010224649
191	0xbd1bc826	-0.038032673
192	0xbd0520b3	-0.032501888
193	0x3d6e0508	0.058110267
194	0x3dd672eb	0.104711376
195	0xbd8cb440	-0.068703175
196	0xbc6a0747	-0.014283962
197	0xbd17bbdf	-0.037044402
198	0x3e6d0f2e	0.23150322
199	0x3d8e8b09	0.069601126
200	0x3e1d000f	0.15332054
201	0xbd00cc80	-0.031445026
202	0xbe3b79a6	-0.18308124
203	0x3dd458bd	0.10368488
204	0x3dee9dc5	0.11651186
205	0x3da86716	0.08222787
206	0x3e3b0a89	0.18265738
207	0x3e4399b4	0.19101602
208	0x3e56b9af	0.2096927
209	0x3df5d0a0	0.12002683
210	0xbd3aac69	-0.04557458
211	0xbc82e9db	-0.015980652
212	0xbd860ee2	-0.065458074
213	0xbe534b39	-0.20634164
214	0xbcc42a87	-0.02394606
215	0x3c66f1f3	0.014095771
216	0x3d9993e1	0.07498909
217	0xbb8f2085	-0.0043678903
218	0xbd980812	-0.07423414
219	0xbd84b395	-0.06479565
220	0xbdea964e	-0.114544496
221	0xbcf5186f	-0.029918877
222	0x3e0a9c2b	0.13536136
223	0xbe1cda8e	-0.15317747
224	0xbc9346e0	-0.017978132
225	0xb88db9d6	-6.7580186e-05
226	0x3e53d69d	0.20687337
227	0x3dbbb9c2	0.0916629
228	0x3e5091e1	0.20368148
229	0x3e1d8312	0.1538203
230	0xbd9de3f6	-0.07709496
231	0x3d38da01	0.04512978
232	0x3e03cbec	0.12870759
233	0x3e925416	0.28579777
234	0x3e3dbf31	0.18529965
235	0x3ce1ed24	0.027578898
236	0x3d6124a2	0.054966576
237	0xbd10cb1e	-0.035349958
238	0xbc8aa070	-0.016922206
239	0xbdecd919	-0.115648456
240	0xbe16ac71	-0.14714219
241	0xbd02aeed	-0.031905103
242	0xbc0d6369	-0.008629658
243	0x3d656fba	0.056014754
244	0x3d5d9d51	0.054105107
245	0x3c17f912	0.009275692
246	0xbd2f324a	-0.04277257
247	0xbe141a08	-0.14463055
248	0x390800e6	0.00012970305
249	0x3e198f7b	0.1499614
250	0xbd946d24	-0.072473794
251	0x3e57fa04	0.21091467
252	0xbb7633b8	-0.0037567448
253	0x3efaed66	0.49009246
254	0xbbfc8efc	-0.0077074748
255	0x3b17402a	0.0023079016

layers.0.bias f4 [100]
0	0x3db0bd97	0.086299114
1	0x3ddac7fd	0.10682676
2	0x3daf003e	0.08544968
3	0x3e274afe	0.16337201
4	0x3cc6866b	0.024234017
5	0x3d6c45e1	0.05768383
6	0x3e10de61	0.14147331
7	0x3e315ef0	0.17321372
8	0x3d85d1bd	0.06534145
9	0x3d9ecc3d	0.07753799
10	0x3e1e3e42	0.15453437
11	0x3d8836e8	0.066510975
12	0x3d95ae6e	0.073086604
13	0x3e5590ec	0.20856065
14	0x3e14331e	0.14472625
15	0x3de78b2c	0.11305842
16	0x3e0576f2	0.13033655
17	0x3d8bc5b6	0.0682482
18	0x3da6e10f	0.08148395
19	0x3e19bb46	0.15012845
20	0x3e271451	0.16316344
21	0x3d899b03	0.06719019
22	0x3dc47313	0.09592261
23	0x3e2aa68e	0.16665098
24	0x3d9a0e30	0.07522237
25	0x3da78138	0.081789434
26	0x3e0ad2a5	0.13556917
27	0x3e43f2fa	0.19135657
28	0x3dc01ea8	0.09380847
29	0x3dffcc51	0.12490142
30	0x3e281e87	0.16417895
31	0x3e0a2a33	0.1349266
32	0x3e4746f3	0.19460659
33	0x3db6123a	0.08890195
34	0x3d71f69c	0.059073076
35	0x3e326a50	0.17423368
36	0x3d8b75d1	0.06809581
37	0x3dfb841f	0.122810595
38	0x3d51bce6	0.05120554
39	0x3da6b4ba	0.081399396
40	0x3e42980d	0.19003315
41	0x3e9ea1c2	0.30982786
42	0x3df1938f	0.11795723
43	0x3dd9549c	0.10611841
44	0x3dd9cc0c	0.10634622
45	0x3dcdd35b	0.100500785
46	0x3ddd2d17	0.10799616
47	0x3dba1ad7	0.090871505
48	0x3e5bab18	0.21451986
49	0x3e16f366	0.14741287
50	0x3e0d0d54	0.13774616
51	0x3e22f7ac	0.15914792
52	0x3dcb07ea	0.09913619
53	0x3d43307a	0.047653653
54	0x3e11420c	0.14185351
55	0x3db69470	0.08915031
56	0x3db1d3ca	0.08682974
57	0x3e031153	0.12799577
58	0x3dd44314	0.10364357
59	0x3dc430ee	0.09579645
60	0x3e186c6d	0.14885111
61	0x3d7e7da4	0.06213154
62	0x3e094bff	0.13407896
63	0x3d60e79b	0.054908376
64	0x3d4f1591	0.050557677
65	0x3d068929	0.03284565
66	0x3de21f81	0.11041165
67	0x3e2ab8e9	0.166721
68	0x3d915493	0.070962094
69	0x3cafda09	0.021466272
70	0xbc38eaa1	-0.011286409
71	0x3dd81b89	0.10552127
72	0x3e1d7bfc	0.15379328
73	0x3de9fead	0.11425529
74	0x3d994bd9	0.0748517
75	0x3e3b8490	0.18312287
76	0x3daedf81	0.08538724
77	0x3d82511e	0.06363128
78	0x3d56f237	0.052477088
79	0x3e37df1b	0.17956202
80	0x3e50f6fd	0.20406719
81	0x3de09566	0.109659955
82	0x3de36a08	0.11104208
83	0x3dc5460a	0.096324995
84	0x3d997411	0.07492841
85	0x3dbbe2b1	0.09174097
86	0x3d936f6f	0.07198989
87	0x3de11f65	0.10992316
88	0x3e179abb	0.14805119
89	0x3e1cf50a	0.1532785
90	0x3d95316e	0.072848186
91	0x3d8232c8	0.06357342
92	0x3d135b19	0.03597555
93	0x3e4ecfbb	0.2019643
94	0x3d82b749	0.06382615
95	0x3dd96092	0.106141225
96	0x3d93455e	0.07190965
97	0x3e042320	0.12904024
98	0x3ded5f05	0.11590389
99	0x3df7aa3b	0.12093016

layers.1.weight f4 [50, 100]
0	0xbe7fa5ed	-0.2496564
1	0xbc899703	-0.01679564
2	0x3da9386e	0.08262716
3	0x3e419376	0.18903908
4	0x3e0f285b	0.13980238
5	0xbc5174a9	-0.012784162
6	0xbc8ad547	-0.016947402
7	0xbbf53265	-0.007482814
8	0x3e1368a5	0.14395387
9	0xbdc66976	-0.09688084
10	0x3dfcb879	0.12339873
11	0xbd448db5	-0.047986705
12	0x3d6fdb58	0.058558792
13	0x3d6add80	0.057340145
14	0x3df5cb4e	0.12001668
15	0x3ce7e30d	0.028306508
16	0xbb45f144	-0.003020362
17	0x3d3e3a1d	0.04644214
18	0xbd08d47a	-0.03340576
19	0xbd97ef94	-0.07418743
20	0xbcac5cf5	-0.02104042
21	0xbdbe51dd	-0.09292958
22	0x3d41abfd	0.04728316
23	0xbc9f7ff5	-0.019470194
24	0xbe7bfbe7	-0.24607812
25	0xbd8db765	-0.06919745
26	0xbb807af6	-0.003920908
27	0x3e004334	0.12525636
28	0x3d19c4e0	0.03754127
29	0xbd6fd684	-0.058554187
30	0x3a1695a0	0.0005744342
31	0x3c807cff	0.015684603
32	0xbd5c540d	-0.053791095
33	0xbdb55f08	-0.088560164
34	0x3e10614d	0.14099617
35	0x3e615a63	0.22007136
36	0xbe48721d	-0.19574781
37	0xbe6b6dd4	-0.22991115
38	0xbd533f55	-0.05157407
39	0x3e16efe8	0.14739954
40	0x3da1bfc9	0.07897908
41	0x3dc2342c	0.09482607
42	0x3e0a16c3	0.13485245
43	0x3e7adcee	0.2449834
44	0x3dddd7f7	0.10832208
45	0x3b406687	0.0029357986
46	0xbcb6b4aa	-0.022302944
47	0xbdbfc431	-0.093635924
48	0x3dacedd6	0.08443801
49	0xbe0e9cff	-0.13927077
50	0x3d26a397	0.040683355
51	0xbbc4ba81	-0.0060036783
52	0xbd033bea	-0.03203956
53	0xbe447c4e	-0.19188043
54	0x3e7b9fdf	0.24572705
55	0xbd01a5a0	-0.031652093
56	0xbdf213e3	-0.11820199
57	0xbde82857	-0.11335819
58	0xbde78b42	-0.11305858
59	0x3e5da681	0.21645547
60	0x3e1c5e53	0.15270357
61	0xbba6b2c4	-0.0050872285
62	0x3d7a5add	0.06112181
63	0x3d8a6196	0.06756894
64	0x3e226834	0.15860063
65	0xbe2b562a	-0.16732088
66	0xbdef27ac	-0.11677489
67	0xbe2f0d16	-0.17094836
68	0xbe68f65a	-0.22750226
69	0xbe3688ea	-0.17825666
70	0x3d597eb5	0.053099353
71	0x3dfe79e6	0.12425594
72	0x3e83d328	0.25747037
73	0x3aecdc74	0.0018071071
74	0xbd671fe3	-0.056426894
75	0x3e0ce0cd	0.1375763
76	0x3e02cb88	0.12772954
77	0xbe0aa5a8	-0.13539755
78	0xbdb8e4f0	-0.09028041
79	0xbe604411	-0.21900965
80	0x3dfe5e17	0.1242029
81	0xbe9fda28	-0.31221128
82	0xbd1300ba	-0.035889365
83	0x3dfb9f5c	0.12286255
84	0x3d711279	0.058855508
85	0x3dac7945	0.08421568
86	0xbe6c17d4	-0.23055965
87	0x3c3bb2f8	0.011456244
88	0x3de51af2	0.1118678
89	0x3e3e909a	0.18609849
90	0x3e34612c	0.17615193
91	0x3e560f32	0.20904234
92	0xbd085db5	-0.03329249
93	0x3c927858	0.01787965
94	0xbd25de37	-0.040495124
95	0x3d7d1935	0.061791617
96	0x3e88e757	0.26738998
97	0x3e66e6af	0.22548936
98	0x3d3a20f9	0.0454416
99	0x3e313336	0.17304692
100	0x3e30d7de	0.17269847
101	0xbe243b9b	-0.16038363
102	0xbb983726	-0.004645246
103	0x3d6d30ca	0.057907857
104	0xbc747589	-0.014920601
105	0x3d55234d	0.05203562
106	0x3b266094	0.0025387155
107	0xbd28cfc3	-0.041213762
108	0xbe2f050a	-0.17091766
109	0x3d8a6acc	0.06758651
110	0xbd768284	-0.060183063
111	0x3c251453	0.010075646
112	0x3ca2774a	0.019832272
113	0x3e0b0e3c	0.13579649
114	0xbc81e71a	-0.015857268
115	0x3d853a41	0.06505252
116	0xbb81e1a2	-0.003963665
117	0xbdac8a3b	-0.08424803
118	0x3e0e71da	0.13910618
119	0x3db84899	0.08998222
120	0x3d6dc88b	0.05805258
121	0xbccadb2f	-0.024762718
122	0x3d92e5f0	0.07172763
123	0x3e0f610c	0.14001864
124	0x3da74527	0.08167487
125	0x3e2d1766	0.16903457
126	0x3d5d60ae	0.05404728
127	0xbc8ae62c	-0.016955458
128	0x3c113bd8	0.0088643655
129	0x3dab1b4d	0.083548166
130	0x3d9d0801	0.07667542
131	0x3dda2548	0.10651642
132	0xbdaf6a49	-0.08565194
133	0xbc71db0d	-0.014761698
134	0xbdc8f764	-0.09812811
135	0xbe0295a2	-0.12752393
136	0xbcaa8cff	-0.020819185
137	0xbd81aaca	-0.063314036
138	0xbd87ca34	-0.06630364
139	0xbd6f5988	-0.058434993
140	0xbd14e415	-0.03635033
141	0xbd296e06	-0.041364692
142	0x3d688b0b	0.056773227
143	0xbcb4c611	-0.022067102
144	0xbddb372f	-0.10703885
145	0xbdaafbaf	-0.08348786
146	0x3dbff0be	0.0937209
147	0xbd37ff79	-0.044921372
148	0x3e72f8a1	0.23727657
149	0x3e4b1acd	0.19834442
150	0x3d9630eb	0.07333549
151	0x3d14a129	0.036286507
152	0xbe2518c3	-0.16122727
153	0x3dfe6046	0.124207065
154	0xbb4d7802	-0.0031352048
155	0x3d3a14bf	0.04542994
156	0x3df1838b	0.11792668
157	0x3dd7901d	0.10525534
158	0xbc9224a3	-0.017839735
159	0xbdfcba06	-0.12340169
160	0xbb901d37	-0.004398014
161	0x3e55c6e3	0.2087665
162	0x3e06b1d7	0.13153778
163	0x3d8cda71	0.06877602
164	0x3d0aacd4	0.033856228
165	0x3e07b1d8	0.13251436
166	0xbe23ddc2	-0.16002563
167	0x3d9294ba	0.071572736
168	0xbd0f6e97	-0.035017576
169	0xbd7c9b51	-0.06167156
170	0xbd0e510d	-0.034745265
171	0x3e3cf364	0.18452221
172	0xbc5966de	-0.013269154
173	0xbda3d97f	-0.080004685
174	0x3dfe0832	0.12403907
175	0x3d4e86d0	0.050421536
176	0xbd90f57b	-0.07078072
177	0x3d495924	0.049157277
178	0x3dbc9c62	0.09209515
179	0x3d85327c	0.0650377
180	0xbaf0af3e	-0.0018362773
181	0x3dabc068	0.08386308
182	0x3ddbf63a	0.10740323
183	0xbd259dec	-0.04043381
184	0x3c72b08a	0.014812598
185	0xbe308957	-0.17239891
186	0x3e0304a9	0.12794746
187	0x3d2107b7	0.039313998
188	0x3dba1203	0.09085467
189	0xbdf80a6f	-0.12111365
190	0x3d87fdc7	0.06640201
191	0xbe19251b	-0.14955561
192	0x3e6f21c9	0.23352732
193	0x3d1123af	0.03543442
194	0xbd301cc9	-0.0429962
195	0xbcfd10d4	-0.030891813
196	0xbe1cbf3a	-0.15307322
197	0x3abf8fa6	0.0014614954
198	0x3e03c683	0.12868695
199	0xbd11efcd	-0.035629082
200	0x3e37ac11	0.17936732
201	0xbd4e6a1b	-0.05039416
202	0x3da8cb28	0.08241874
203	0x3cf46a2f	0.029835789
204	0x3d684d25	0.056714196
205	0xbdf3cd7f	-0.1190443
206	0x3e874f0e	0.264275
207	0xbe0feec3	-0.14055924
208	0xbe2cbfc0	-0.16870022
209	0x3e4934dd	0.19649072
210	0xbdca8007	-0.098877005
211	0xbb12415b	-0.0022316787
212	0x3e1743c2	0.14771941
213	0x3d49aea8	0.04923883
214	0x3e5afca5	0.21385439
215	0xbccb9fd3	-0.024856484
216	0xbda28898	-0.079362094
217	0xbe0db2b6	-0.13837704
218	0xbb48a1d5	-0.0030614038
219	0xbd0434ef	-0.032277044
220	0x3d9b6b17	0.07588785
221	0xbd71afeb	-0.05900566
222	0x3dd49179	0.10379309
223	0x3c7a040c	0.015259754
224	0x3d433692	0.047659464
225	0x3e66ff0b	0.22558229
226	0x3bbc67da	0.0057496848
227	0x3cfa440d	0.030550027
228	0xbb9bd14e	-0.0047551757
229	0xbe6d99e1	-0.23203231
230	0x3d2373d2	0.039905377
231	0x3e5490d2	0.2075837
232	0xbde96cdb	-0.11397716
233	0xbda1bc12	-0.078972
234	0x3cd8704f	0.02642074
235	0x3e11221b	0.14173166
236	0x3d3ef5d8	0.046621174
237	0x3db89e7c	0.090146035
238	0xbe42b706	-0.1901513
239	0xbdf39aec	-0.118947834
240	0x3e274d98	0.16338193
241	0x3dc815b7	0.09769767
242	0x3d3d9ca7	0.046291973
243	0x3e7fb789	0.24972357
244	0x3debd48f	0.11515152
245	0xbbdcaeac	-0.0067346897
246	0x3c9eb142	0.019371632
247	0x3cdd4b75	0.02701352
248	0x3e5f5032	0.21807936
249	0x3e9acf2d	0.30236188
250	0x3e1f7eb0	0.15575671
251	0xbe744db4	-0.23857766
252	0x3dcf1e7f	0.101132385
253	0x3d09906c	0.033584997
254	0xbdce9913	-0.1008779
255	0x3d608258	0.054811805

layers.1.bias f4 [50]
0	0xbd4860bb	-0.048920374
1	0x3dfe0715	0.124036945
2	0x3c84763f	0.016169665
3	0xbd72c578	-0.059270352
4	0xbd7f3fe0	-0.062316775
5	0x3d9bc362	0.07605626
6	0x3e050632	0.12990645
7	0xbcfdae42	-0.030966882
8	0x3b81c71d	0.0039605037
9	0xbc93c823	-0.018039769
10	0x3ca5757a	0.020197619
11	0x3e020eff	0.12701033
12	0x3d2e1dde	0.042508952
13	0x3dc11d22	0.09429385
14	0x3da94a02	0.08266069
15	0x3d033940	0.03203702
16	0x3d9df273	0.07712259
17	0x3e010a9a	0.126017
18	0x3cda6949	0.026661532
19	0x3e3a6372	0.18201998
20	0x3dce0da4	0.100611955
21	0x3dd4ac8b	0.103844725
22	0x3dc93259	0.09824056
23	0xbda56c91	-0.08077348
24	0x3cc62843	0.02418912
25	0xbd8a9645	-0.06766943
26	0x3daa641c	0.083198756
27	0x3dcd0307	0.10010343
28	0x3df0d04c	0.117584795
29	0x3e2cb3a3	0.16865401
30	0x3e5d0c80	0.215868
31	0x3cc0c3e8	0.023530915
32	0x3dadebb2	0.08492221
33	0x3d698fd8	0.057021946
34	0xbccd475b	-0.025058439
35	0x3c524f0a	0.012836227
36	0x3d8a2644	0.0674558
37	0x3d76ff27	0.060301926
38	0x3c5a57bc	0.013326582
39	0x3df4348c	0.11924085
40	0x3b372e14	0.0027951049
41	0x3c65a228	0.014015712
42	0x3dff64f7	0.124704294
43	0xbd8df899	-0.06932182
44	0x3dad4535	0.08460466
45	0x3cba907f	0.02277398
46	0x3cae2c06	0.021261226
47	0x3d370824	0.044685498
48	0x3dd8a3cf	0.10578119
49	0x3d052037	0.032501426

emb_layer.weight f4 [2, 50]
0	0xbce1b9db	-0.027554443
1	0xbc398029	-0.01132206
2	0x3db6da28	0.08928329
3	0x3ca30e6d	0.01990434
4	0x3dd5fb5c	0.104483336
5	0xbd41977b	-0.047263604
6	0x3d3c0eed	0.04591267
7	0x3ce16b64	0.027517028
8	0xbba67cb7	-0.005080785
9	0xbb3655b9	-0.002782209
10	0x3d34b937	0.044121947
11	0xbc92fcbf	-0.017942784
12	0xbc8fc78d	-0.017551208
13	0xbd4783ce	-0.048709683
14	0xbab69263	-0.0013929125
15	0x3c272a81	0.010203005
16	0x3e206c92	0.15666416
17	0xbdb9afc4	-0.09066728
18	0x3d7d829a	0.06189213
19	0xbd00c333	-0.031436156
20	0x3b8b03f6	0.0042424155
21	0xbd91d2b6	-0.07120268
22	0x3d4b6b42	0.049662836
23	0x3ca3541d	0.01993757
24	0xbb80ac73	-0.0039268075
25	0xbdf815d2	-0.12113537
26	0xbda83377	-0.08212941
27	0x3d04e10a	0.032441176
28	0x3d598f9c	0.053115472
29	0xbb006a54	-0.0019594627
30	0xbe04c736	-0.12966618
31	0xbca1f011	-0.019767793
32	0x3c5431b6	0.012951305
33	0x3c03b044	0.0080376305
34	0xbd4c7ea1	-0.04992545
35	0xbba10a68	-0.0049145706
36	0xb9a224ef	-0.00030926566
37	0xbdc69756	-0.09696834
38	0x3b11244b	0.0022146876
39	0x3dcea74c	0.10090503
40	0x3c80c4d8	0.015718862
41	0x3dc271e9	0.09494383
42	0xbd6429f8	-0.055704087
43	0xbd9ceb78	-0.076620996
44	0x39f96c00	0.00047573447
45	0x3de030b1	0.10946787
46	0xbca2b489	-0.019861476
47	0xbcbf70c3	-0.023369199
48	0xbd93fe00	-0.07226181
49	0x3d9cbb45	0.07652906
50	0xbc5ea1ba	-0.013588363
51	0xbd770945	-0.060311574
52	0xbd89c046	-0.067261264
53	0xbd1fd21b	-0.03901873
54	0x3c0b5b8c	0.008505713
55	0x3d406764	0.0469736
56	0x3c10252f	0.008797928
57	0x3b9d46cd	0.0047997
58	0x3caf0054	0.021362461
59	0x3d9ca83f	0.07649278
60	0xbd7d45a6	-0.061834
61	0xbdf45cda	-0.119317725
62	0x39477057	0.00019019969
63	0xbdf0b007	-0.117523246
64	0xbd2365a0	-0.03989184
65	0xbd213a40	-0.039362192
66	0xbdc5880d	-0.0964509
67	0xbcd86ee6	-0.026420068
68	0xbcfbb0b9	-0.030723916
69	0x3ca67435	0.020319084
70	0xbcf1312c	-0.029442392
71	0xbcda5627	-0.026652409
72	0x3dc3ee2b	0.09566911
73	0xbc6b2a09	-0.014353284
74	0x3be293fd	0.0069146142
75	0x3dcfe2b6	0.101506636
76	0x3df030f4	0.11728087
77	0x3c710e3a	0.0147128645
78	0x3d6414f7	0.055684056
79	0xbcb2c6eb	-0.021823367
80	0x3e1b95f8	0.15193927
81	0xbd9e82bb	-0.077397786
82	0xbc22a5ad	-0.0099271955
83	0x3e2858db	0.16440146
84	0xbca5141b	-0.020151189
85	0x3d87f52d	0.066385604
86	0x3d64b5a7	0.0558373
87	0x3da444f2	0.08020963
88	0x3d49602d	0.049163986
89	0xbda803e0	-0.08203864
90	0xbc4d16e8	-0.012517668
91	0xbdaef679	-0.08543105
92	0x3dafaf2d	0.08578334
93	0x3b3276ca	0.0027231448
94	0xbbc24d5a	-0.005929631
95	0x3ceacdc0	0.028662562
96	0x3c9f7595	0.019465247
97	0x3cad5aa9	0.021161394
98	0x3dd23ef9	0.10265917
99	0x3cd3cd9f	0.025854884

emb_layer.bias f4 [2]
0	0x3dcb13e2	0.09915902
1	0x3dcc421c	0.09973547

class_layer.weight f4 [10, 50]
0	0x3e62f8eb	0.22165267
1	0x3ceb6ed7	0.028739376
2	0x3e7e4e0f	0.24834464
3	0xbeae187a	-0.3400305
4	0xbdbdf1a8	-0.09274608
5	0x3e93c15e	0.28858465
6	0xbe396507	-0.18104945
7	0xbdc6068b	-0.09669217
8	0x3e10cbe9	0.14140286
9	0xbe2e3528	-0.17012465
10	0xbe3fdb46	-0.1873599
11	0xbd9fa49e	-0.0779507
12	0xbdf3bed5	-0.11901633
13	0xbe2c45e0	-0.1682353
14	0x3e8bda2b	0.27314886
15	0xbe84f693	-0.2596937
16	0xbdb0d176	-0.086337015
17	0xbd8dd32e	-0.06925045
18	0xbd84efff	-0.06491088
19	0x3e1033f1	0.14082314
20	0x3e8cad54	0.2747599
21	0x3e0c2376	0.13685402
22	0x3c43add7	0.011943302
23	0xbe998b16	-0.29988927
24	0x3e37bc15	0.17942841
25	0xbd39d2e2	-0.04536713
26	0xbdf374f8	-0.118875444
27	0x3d392646	0.045202516
28	0xbe9cac9c	-0.3060044
29	0xbdb72604	-0.08942798
30	0x3e482874	0.19546682
31	0x3df2b6f5	0.118513025
32	0xbd49fa62	-0.04931105
33	0x3d990f23	0.0747359
34	0xbc3b12af	-0.011418029
35	0x3e4db5fb	0.20088951
36	0x3db7d74d	0.08976612
37	0x3c24e870	0.010065183
38	0x3dc63c7f	0.096795075
39	0xbe139e8f	-0.14415954
40	0xbd6215c6	-0.055196546
41	0xbeb437cb	-0.35198817
42	0xbe423a6a	-0.18967596
43	0x3e261c17	0.16221653
44	0xbca1090f	-0.01965764
45	0x3bd01eaf	0.006351314
46	0x3c8b94de	0.017038759
47	0xbe63d0f6	-0.22247681
48	0x3c9bf45b	0.019037416
49	0x3e783b19	0.24241294
50	0x3de54bc0	0.11196089
51	0xbdf4a5dc	-0.11945698
52	0xbe50eecc	-0.20403594
53	0x3eb9a746	0.36260432
54	0x3dde7ced	0.108636715
55	0xbd731dce	-0.059354596
56	0x3e201c04	0.15635687
57	0x3e268baf	0.16264223
58	0xbe064dcd	-0.13115616
59	0xbdfbbba8	-0.12291652
60	0x3e17c139	0.14819802
61	0xbd3d91e5	-0.046281714
62	0x3e4aafc7	0.19793616
63	0x3e52100e	0.20513937
64	0xbe098112	-0.13428143
65	0xbda15a45	-0.07878546
66	0xbe133180	-0.14374352
67	0x3e3c93ac	0.18415707
68	0xbce35161	-0.027748765
69	0xbe08c0ed	-0.13354845
70	0xbe4e874b	-0.20168798
71	0xbdc0cbff	-0.09413909
72	0x3e8c662e	0.27421707
73	0x3e199051	0.14996459
74	0xbe12ffa9	-0.14355339
75	0xbd0756a2	-0.033041604
76	0xbdc14788	-0.09437472
77	0x3e749f6f	0.23888944
78	0x3d09d397	0.033649053
79	0xbe371938	-0.17880714
80	0x3d9c7616	0.076397106
81	0x3db29d40	0.08721399
82	0xbe579e14	-0.21056396
83	0xbdbd74b8	-0.09250778
84	0xbe411b8c	-0.18858165
85	0xbd3a1d55	-0.04543813
86	0x3ccccfd0	0.025001436
87	0xbdbaa9f6	-0.09114449
88	0x3e0aebe6	0.1356655
89	0xbd0d6150	-0.034516633
90	0xbe0ef299	-0.13959731
91	0x3e324890	0.17410493
92	0x3dfaa4f9	0.12238497
93	0xbe046f0a	-0.12932983
94	0xbdae9b3b	-0.085257016
95	0x3de7fcd5	0.11327521
96	0xbe88297b	-0.26594147
97	0x3d5bba75	0.053644616
98	0x3e8ee19b	0.27906498
99	0xbe1e8957	-0.15482078
100	0xbe947f84	-0.29003537
101	0x3e3e09bc	0.18558401
102	0x3d6d2470	0.057896078
103	0xbcad44e1	-0.021151008
104	0x3e6627db	0.22476141
105	0x3e5c6817	0.21524082
106	0xbec4b8d6	-0.3842227
107	0x3e0bb145	0.13641842
108	0xbe18154d	-0.14851876
109	0x3e88a390	0.26687288
110	0x3e9740f7	0.29541752
111	0xbe25865e	-0.16164538
112	0xbdcf79aa	-0.101306275
113	0xbc1a1c83	-0.009406212
114	0xbe44258a	-0.19154945
115	0x3e2e79eb	0.17038696
116	0x3d8be436	0.06830637
117	0x3de2f6a7	0.110822015
118	0x3db5190b	0.08842667
119	0xbd8f92d0	-0.07010424
120	0xbcc448f4	-0.023960568
121	0x3c240429	0.0100107575
122	0xbd64e5db	-0.05588327
123	0x3e5b4f45	0.21416958
124	0xbe4ae174	-0.19812566
125	0xbe64ec97	-0.22355877
126	0x3dcddd6a	0.10051997
127	0xbdddf14d	-0.1083704
128	0xbda3816a	-0.07983668
129	0x3c3aff5d	0.011413422
130	0x3da69fc0	0.08135939
131	0x3e2c1e94	0.1680854
132	0x3d309e31	0.043119613
133	0xbd3be69c	-0.045874223
134	0xbe3438ca	-0.17599788
135	0x3df559cf	0.1198002
136	0xbca75e63	-0.02043075
137	0x3d806046	0.06268363
138	0xbe863216	-0.26210088
139	0xbe6b1424	-0.22956902
140	0x3e22058d	0.1582243
141	0xbdf55471	-0.119789965
142	0xbd93832d	-0.07202754
143	0xbe8ded96	-0.27720326
144	0x3e95cfd6	0.2926013
145	0x3bc40403	0.0059819235
146	0x3e62912f	0.22125696
147	0xbd0c743e	-0.034290545
148	0xbd496efb	-0.049178105
149	0xbcb0cf1e	-0.021583136
150	0x3dd92fe5	0.10604838
151	0x3e2a4cee	0.16630909
152	0x3e2b2a86	0.1671544
153	0x3e141667	0.14461671
154	0x3df1e611	0.1181146
155	0xbe8d49a3	-0.27595243
156	0x3e3bf291	0.1835425
157	0xbe135c0a	-0.14390579
158	0xbe7f0ae9	-0.24906506
159	0xbdc2c018	-0.09509295
160	0x3e49d408	0.1970979
161	0x3e84922a	0.25892764
162	0xbe8958d6	-0.2682559
163	0xbd30e7d9	-0.043189857
164	0xbe73f0a2	-0.23822263
165	0x3e14a169	0.14514698
166	0xbd17e801	-0.03708649
167	0x3e68397e	0.22678182
168	0xbe2e697f	-0.17032431
169	0x3d1a9502	0.03773976
170	0x3d4b0fee	0.04957574
171	0xbe14e12b	-0.1453902
172	0xbe20fc08	-0.15721142
173	0xbdc02cd0	-0.09383547
174	0xbe6d9760	-0.23202276
175	0x3e0cec2c	0.13761967
176	0x3e3c1b9e	0.1836991
177	0xbc863c7d	-0.016386265
178	0x3d4fb068	0.050705343
179	0x3ebf6c66	0.3738739
180	0xbd8ec9f6	-0.06972115
181	0xbde4fae9	-0.1118067
182	0xbde0d042	-0.10977222
183	0x3da7c045	0.081909694
184	0xbe7e5b19	-0.24839438
185	0x3d2b4730	0.041815937
186	0x3e4951b3	0.19660072
187	0x3b3d2906	0.0028863563
188	0xbe449165	-0.19196089
189	0xbe1f2419	-0.15541114
190	0xbd927a01	-0.07152177
191	0x3dea24a0	0.11432767
192	0xbdc4e648	-0.09614235
193	0x3e5fd4c2	0.21858504
194	0xbeb3fff5	-0.35156217
195	0xbe00c584	-0.12575346
196	0x3d45b060	0.048263907
197	0xbe96260b	-0.293259
198	0xbe80c6a9	-0.25151566
199	0xbe6bcd9f	-0.23027657
200	0x3e5bfdd9	0.21483554
201	0xbe4ac477	-0.19801508
202	0xbeb5e5b1	-0.35526803
203	0xbe1e21d7	-0.15442596
204	0xbe09107e	-0.13385198
205	0x3d32b30e	0.04362779
206	0x3e997571	0.29972413
207	0x3e0e97f5	0.13925155
208	0x3e0fa086	0.14026079
209	0xbdda9999	-0.10673828
210	0x3da2bfb8	0.07946724
211	0x3d8094b9	0.062783666
212	0xbddd8134	-0.10815659
213	0x3da056a4	0.078290254
214	0xbe42e191	-0.1903136
215	0x3e0241e9	0.12720455
216	0x3d155caa	0.036465324
217	0xbe8844ea	-0.26615077
218	0xbd485eb3	-0.048918437
219	0x3e10835b	0.14112608
220	0x3e148e7c	0.14507478
221	0x3dd868fa	0.10566898
222	0x3e869944	0.26288807
223	0xbe8d7e6c	-0.27635515
224	0x3ebdd3b7	0.37075588
225	0xbde350af	-0.110993735
226	0x3d4e929f	0.050432798
227	0xbe1395fa	-0.1441268
228	0x3cb50a80	0.022099733
229	0xbd97af18	-0.07406443
230	0xbe039e5a	-0.12853375
231	0xbdabcacb	-0.08388289
232	0x3e8367c4	0.25665104
233	0xbdf60bd9	-0.120139785
234	0x3e59fb2d	0.21287222
235	0xbeddcbf4	-0.43319666
236	0xbdf7909a	-0.120881274
237	0xbded5e86	-0.115902945
238	0x3e0c711d	0.13715024
239	0x3e8018b8	0.2501886
240	0xbe62c7f7	-0.22146593
241	0xbe768d11	-0.2407725
242	0xbd08f343	-0.033435117
243	0xbd94979b	-0.07255479
244	0x3e2f3f06	0.17113885
245	0x3e342582	0.17592433
246	0xbcdde049	-0.027084487
247	0x3dca80de	0.09887861
248	0x3e58091b	0.21097223
249	0x3e0ef168	0.13959277
250	0xbe17cb85	-0.1482373
251	0x3de05c45	0.10955099
252	0x3e063008	0.1310426
253	0x3e848cce	0.25888675
254	0x3d04cd24	0.0324222
255	0xbd89fdc2	-0.067378536

class_layer.bias f4 [10]
0	0x3d679a61	0.05654371
1	0xbbdb2828	-0.0066881366
2	0xbd598383	-0.053103935
3	0x3e359c9a	0.1773552
4	0x3e1af2f6	0.15131745
5	0x3df2deca	0.118589
6	0x3de7743d	0.113014676
7	0xbc6d9bdc	-0.014502492
8	0x3c8422df	0.01612991
9	0x3ba89e0c	0.005145794
