notebooks/paper-plots/models/w0.5.pt (torch, 339531 bytes, 8 tensors)

layers.0.weight f4 [100, 784]
0	0x3c17a728	0.009256162
1	0x3c7ce958	0.015436493
2	0xbd083810	-0.03325659
3	0x3b862f08	0.004094962
4	0xbb2d8400	-0.0026476383
5	0x3c5e83d8	0.013581239
6	0x3c274344	0.0102089085
7	0xbcfe5e6c	-0.031050883
8	0x3c831c68	0.016004756
9	0xbcf60c0e	-0.030035045
10	0xbce88ad3	-0.028386509
11	0x3c91394a	0.017727513
12	0x3c96d3ce	0.018411543
13	0xbb5be9d0	-0.003355611
14	0x3cda69de	0.02666181
15	0x3c939280	0.018014193
16	0xbce01aac	-0.027356468
17	0xbcbf6f93	-0.023368632
18	0x3beef178	0.007291969
19	0xbc5691f2	-0.0130963195
20	0x3c87df08	0.016585842
21	0xbce3fa45	-0.027829299
22	0x3ce70e32	0.028205011
23	0xbcf6f003	-0.030143743
24	0x3c873a0a	0.016507167
25	0x3af223e0	0.0018473826
26	0x3cf218da	0.029552866
27	0xbb69b590	-0.0035661198
28	0xbb651570	-0.0034955405
29	0x3cdbfd6e	0.026854243
30	0xbc739ac6	-0.014868444
31	0xbcdd6fcc	-0.027030848
32	0x3bd287a8	0.006424863
33	0x3c0c9d48	0.008582421
34	0xbb6a7930	-0.00357778
35	0x3d014c06	0.031566642
36	0x3d0432cc	0.032275006
37	0x3d79ff60	0.06103456
38	0x3d4596f3	0.04823966
39	0xbd0820a3	-0.03323425
40	0xbc19a03f	-0.009376585
41	0x3d514189	0.05108789
42	0x3c78bcf5	0.01518177
43	0xbddd9874	-0.10820094
44	0xbc7b780c	-0.015348446
45	0xbd4cb36d	-0.0499758
46	0xbe0faad9	-0.14030017
47	0xbc4838b8	-0.012220554
48	0x3dc1eaf4	0.09468642
49	0x3dccb570	0.09995544
50	0x3d9f7b30	0.07787168
51	0x3ac992c0	0.0015378818
52	0xbbd6c588	-0.0065543093
53	0x3c3196f8	0.010839216
54	0x3cd56a48	0.026051655
55	0x3cf571c6	0.029961478
56	0x3bb7b468	0.005606223
57	0x3d0fcfb5	0.035110194
58	0x3d0b98d5	0.0340813
59	0x3ceffdde	0.029295858
60	0xbd4e9e07	-0.050443675
61	0x3d6bc106	0.05755713
62	0x3dbaa644	0.09113744
63	0xbc4c5e07	-0.01247359
64	0xbcafa7ca	-0.021442313
65	0x3cd5e752	0.026111279
66	0xbd541db6	-0.051786147
67	0xbe190f78	-0.14947307
68	0xbcf985eb	-0.030459365
69	0xbd444b71	-0.04792351
70	0xbd2b2722	-0.041785367
71	0x3be56879	0.0070009795
72	0x3d0cff21	0.034422997
73	0xbdbc7181	-0.09201337
74	0xbd1aff50	-0.03784114
75	0xbb88ad92	-0.004171082
76	0xbd468f1b	-0.04847632
77	0xbd33dfb7	-0.043914523
78	0x3c1925ef	0.009347423
79	0xbc4e81f3	-0.0126042245
80	0xbcc87bd8	-0.024473116
81	0x3c485544	0.01222736
82	0xbc5af6ae	-0.013364477
83	0x3d0fe901	0.03513432
84	0x3cccf0c8	0.025017157
85	0xbb1518d0	-0.0022750385
86	0xbbdf8a40	-0.0068219006
87	0xbc5b64ee	-0.013390763
88	0xbd13d4d1	-0.03609163
89	0x3cbf12d1	0.023324402
90	0x3cf2e50d	0.029650236
91	0x3bf75e3f	0.007549077
92	0x3d35e533	0.044408035
93	0x3d23c759	0.039985035
94	0x3b61df27	0.0034465285
95	0xbd5663f1	-0.052341405
96	0xbcaecfb0	-0.021339267
97	0xbd70466f	-0.05866092
98	0xbcb1d90f	-0.021709947
99	0xbc732b10	-0.01484181
100	0xbba6a811	-0.005085953
101	0xbd7bb120	-0.061448216
102	0xbd32b34e	-0.04362803
103	0xbd62d598	-0.05537948
104	0xbb50ed3b	-0.0031879682
105	0xbce75ee3	-0.028243488
106	0x3c0a0cd2	0.008425908
107	0xbd2f1abc	-0.042750105
108	0xbd18d230	-0.037309825
109	0x3bda7438	0.0066666864
110	0x3cc5e8de	0.024158891
111	0xbbdc52e4	-0.0067237485
112	0x3c40aa68	0.011759378
113	0x3c695d50	0.014243439
114	0x3cc99ae0	0.024609983
115	0x3cf49a64	0.029858775
116	0x3ccd8783	0.025089031
117	0x3be6f412	0.0070481384
118	0xbd024bd6	-0.031810604
119	0xbd85650b	-0.06513413
120	0xbd3d2994	-0.04618223
121	0xbb3aaec4	-0.0028485516
122	0xbacdc77b	-0.0015699709
123	0xbca2d6ea	-0.01987787
124	0x3d1963cb	0.037448686
125	0x3c769a28	0.015051402
126	0xbcc16f07	-0.023612512
127	0xbbb17a86	-0.0054162173
128	0xbd5f7b7f	-0.054561134
129	0xbda4b506	-0.0804234
130	0xbbb06603	-0.0053832545
131	0xbd54d093	-0.051956724
132	0xb95b9e2b	-0.0002094439
133	0xbbf2f0e0	-0.0074139684
134	0xbd289910	-0.041161597
135	0x3ceae6fa	0.028674591
136	0x3cc4678a	0.023975153
137	0xbd98ed56	-0.07467143
138	0xbb52e900	-0.0032182336
139	0x3c86285e	0.01637667
140	0xbd042cca	-0.032269277
141	0xbbc999b0	-0.006152354
142	0xbafa693a	-0.0019104846
143	0xbcea4252	-0.028596077
144	0xbaeb5193	-0.0017953388
145	0x3cfea1d2	0.031083021
146	0xbbe1e641	-0.0068939035
147	0x3cab5150	0.020912796
148	0x3c9304dd	0.017946655
149	0x3d8befda	0.068328574
150	0x3d7e7ab4	0.062128738
151	0xbb23ba0d	-0.002498272
152	0xbc7dceef	-0.015491231
153	0x3d07fa67	0.033197787
154	0x3c1d2f2e	0.009593768
155	0xbddd97bf	-0.10819959
156	0xbd50ab24	-0.050944462
157	0xbd43ddf8	-0.047819108
158	0xbce7605e	-0.028244194
159	0xbd145267	-0.036211397
160	0xbc21e273	-0.00988065
161	0xbc6a5e68	-0.014304735
162	0x3d0842a3	0.033266675
163	0x3d9ceaec	0.07661995
164	0x3d353ce1	0.04424751
165	0xbc9e6c8c	-0.019338869
166	0xbc581f7b	-0.013191099
167	0x3d1918f1	0.0373773
168	0x3cef027e	0.029175993
169	0xbc9b9a1c	-0.018994384
170	0xbc8f50c3	-0.017494565
171	0xbc66de51	-0.01409109
172	0x3d63681d	0.055519212
173	0x3dcf6f35	0.10128633
174	0x3d463866	0.04839363
175	0x3d41af23	0.047286164
176	0x3d25d9ff	0.0404911
177	0x3c50d3bf	0.012745797
178	0x3d1363cd	0.03598385
179	0xbd7de871	-0.06198925
180	0x3ad2a9b8	0.0016072309
181	0x3ce747cb	0.028232476
182	0xbd73d283	-0.05952693
183	0xbd8c725c	-0.0685775
184	0xbd5174cf	-0.051136788
185	0xbd16f6f2	-0.0368566
186	0xbcf95f36	-0.030440908
187	0xbd1e54c2	-0.03865505
188	0xbb8243f6	-0.0039753867
189	0x3c748db3	0.014926362
190	0xbd2086f9	-0.03919122
191	0x3d4fe30d	0.050753642
192	0xbbce9dc8	-0.00630543
193	0xbdaa9930	-0.083299994
194	0x3c0f3a7a	0.008741969
195	0x3a4bb4c0	0.00077707693
196	0x3cd7d70f	0.026347665
197	0x3bebe34f	0.007198728
198	0x3d8ebc0d	0.069694616
199	0x3d3de554	0.046361282
200	0x3dec4408	0.115364134
201	0x3dabd940	0.083910465
202	0x3d12dffe	0.035858147
203	0x3d18c4aa	0.03729693
204	0x3a8ca555	0.0010730425
205	0x3d0b6a42	0.034036882
206	0x3cfe4e9a	0.03104334
207	0xbbcb734e	-0.0062088137
208	0xbc0d9337	-0.008641056
209	0xbd312872	-0.043251462
210	0xbd7a785e	-0.061149947
211	0xbcb503b7	-0.022096498
212	0xbd51feec	-0.051268503
213	0xbcf9c0e2	-0.030487482
214	0x3aa70ced	0.0012744941
215	0xbd39c67f	-0.045355316
216	0x3c396318	0.01131513
217	0xbcdbcc91	-0.026830943
218	0xbbf44434	-0.0074544195
219	0xbb83dfca	-0.0040244805
220	0xbd8ca663	-0.06867673
221	0xbd82610d	-0.06366167
222	0xbc7f13d5	-0.015568693
223	0xbd1de374	-0.038546994
224	0x3d0d34e2	0.03447426
225	0xbd141784	-0.03615524
226	0xbcf2caf5	-0.029637793
227	0x3d760909	0.06006721
228	0x3cba4939	0.022739993
229	0x3d6cf7cf	0.057853516
230	0x3d48e51a	0.049046613
231	0x3dc1cbe4	0.09462717
232	0x3dd11e53	0.10210862
233	0x3e18e351	0.14930464
234	0x3ca7f7cc	0.020503901
235	0x3b8fb0b1	0.004385077
236	0x3c71df79	0.014762753
237	0xbd3fe823	-0.046852242
238	0x3bbd9264	0.0057852734
239	0xbd2423bb	-0.040073138
240	0xbd936718	-0.07197398
241	0xbbb35306	-0.0054725436
242	0xbd2f40d8	-0.04278645
243	0xbd2c0c7b	-0.04200409
244	0xbc493b84	-0.012282256
245	0x3c0306f9	0.007997268
246	0x3c99f44a	0.018793244
247	0xbca65ce1	-0.02030796
248	0xbce24f36	-0.027625661
249	0xbcb7fea5	-0.022460291
250	0xbc90d321	-0.0176788
251	0xbe1c34b2	-0.15254477
252	0x3d1fdbd9	0.039028022
253	0x3cacd678	0.02109836
254	0xbc9828e7	-0.018574191
255	0x3daa42c5	0.083135165

layers.0.bias f4 [100]
0	0x3db42d1a	0.08797665
1	0x3db835ba	0.089946225
2	0x3e42bffb	0.19018547
3	0x3ce396ea	0.027781922
4	0x3e28f37f	0.16499136
5	0x3e1f5a7d	0.15561862
6	0x3db0c357	0.08631008
7	0x3e8db788	0.27679086
8	0x3e95467b	0.29155335
9	0x3dc0c138	0.094118536
10	0x3d4b71db	0.049669128
11	0x3e151e7f	0.14562415
12	0x3e0085ab	0.1255099
13	0x3e2354db	0.15950339
14	0x3dea5c99	0.11443443
15	0x3e43b94e	0.19113657
16	0x3cdd7e0a	0.02703764
17	0x3deccb40	0.11562204
18	0x3e09d894	0.13461524
19	0x3dcb309f	0.09921383
20	0x3d66bdf5	0.0563335
21	0x3db7f240	0.089817524
22	0x3dff0176	0.124514505
23	0x3dc17be5	0.09447459
24	0x3da98588	0.08277422
25	0x3e2342ca	0.15943447
26	0x3c2e9987	0.010656721
27	0x3dbbc1c1	0.09167815
28	0x3e05718b	0.13031594
29	0x3e01b1dd	0.12665506
30	0x3df6cde3	0.120509885
31	0x3d8f2e13	0.0699121
32	0x3d535701	0.051596645
33	0x3e078866	0.13235626
34	0x3e56708a	0.20941368
35	0x3e4f08df	0.20218228
36	0x3e5ff46f	0.21870588
37	0x3dbff37a	0.09372611
38	0x3e5846f3	0.21120815
39	0x3e4fa49a	0.20277634
40	0x3caa9179	0.02082132
41	0x3e22ed2d	0.15910788
42	0x3df3f9b5	0.11912862
43	0x3df0182c	0.117233604
44	0x3d0cbacb	0.034357827
45	0x3e06f663	0.13179927
46	0x3dbeb525	0.09311894
47	0x3e0ac101	0.13550188
48	0x3e2d933b	0.16950695
49	0xbcefa891	-0.029255183
50	0x3d82569c	0.06364176
51	0x3d5a7fff	0.053344723
52	0x3df6a44e	0.120430574
53	0x3e3fd922	0.18735173
54	0x3e146412	0.14491299
55	0x3db19891	0.08671678
56	0x3e8b482c	0.272035
57	0x3dbd71c4	0.09250215
58	0x3de3d57d	0.11124704
59	0x3ce5c00c	0.028045677
60	0x3d4818dc	0.048851833
61	0x3e63231f	0.22181366
62	0x3e5a0bfb	0.21293633
63	0x3b9c3f64	0.004768299
64	0x3dc7269f	0.09724163
65	0x3da462cb	0.08026656
66	0x3d2fc555	0.0429128
67	0x3e74ef2c	0.23919362
68	0x3d91d6e8	0.07121068
69	0x3dc118dd	0.094285704
70	0x3e1aa4a5	0.1510187
71	0x3cedd612	0.02903274
72	0x3e1ea8f2	0.15494135
73	0x3e23a8bb	0.15982334
74	0x3e7b70f9	0.24554814
75	0x3e83c397	0.2573516
76	0x3d44133b	0.047869902
77	0x3e61890b	0.22024934
78	0x3dac0163	0.08398702
79	0x3cb02c53	0.02150551
80	0x3e7eb9b1	0.24875523
81	0x3d7c73eb	0.061633985
82	0x3e0e52f2	0.13898829
83	0x3da53a3c	0.08067748
84	0x3de460c5	0.1115127
85	0x3d376357	0.044772472
86	0x3eccb369	0.3998063
87	0x3c872fd1	0.016502293
88	0x3e1225dd	0.14272256
89	0x3e60feee	0.21972248
90	0x3e122574	0.142721
91	0x3e7f9dfd	0.24962611
92	0x3e0704e0	0.13185453
93	0x3ddd2b4c	0.10799274
94	0x3e30297d	0.17203327
95	0x3d9b5911	0.075853474
96	0x3d0a04f2	0.033696122
97	0x3d8dd88f	0.06926071
98	0x3e0b968d	0.1363165
99	0x3e01e756	0.12685904

layers.1.weight f4 [50, 100]
0	0x3de7f510	0.11326039
1	0xbda3fe87	-0.080075316
2	0x3e2b8d5f	0.16753148
3	0x3c01c629	0.00792078
4	0xbe30abaa	-0.17252985
5	0xbcfa5cda	-0.030561853
6	0x3dab8627	0.08375197
7	0x3e24e734	0.16103822
8	0x3e48478a	0.1955854
9	0xbe898ccb	-0.2686523
10	0x3e013620	0.12618303
11	0xbda63828	-0.0811618
12	0x3bd5822e	0.006515763
13	0xbdcd64de	-0.100290045
14	0x3d506706	0.0508795
15	0x3e594fac	0.21221799
16	0x3d820e5c	0.06350395
17	0xbdb1573a	-0.08659215
18	0xbe14b5e2	-0.14522508
19	0x3e1560c4	0.14587694
20	0xbc40e768	-0.011773922
21	0x3d32363d	0.043508757
22	0x3d3fb4f3	0.046803426
23	0x3e055b6c	0.13023156
24	0x3e212216	0.15735659
25	0xbbabb078	-0.0052395426
26	0xbe123f22	-0.14281896
27	0x3c4ffb7c	0.012694236
28	0xbe9c0a54	-0.3047663
29	0x3d19dda0	0.037564874
30	0x3d2f48bb	0.04279397
31	0xbb9713a8	-0.0046104975
32	0x3daa05d0	0.0830189
33	0x3d2ad0a4	0.04170288
34	0x3e960c48	0.29306245
35	0xbd7dca65	-0.061960597
36	0x3d513587	0.05107644
37	0x3dee8e2a	0.116482094
38	0x3ef2c1b0	0.47413397
39	0xbd5d995d	-0.054101337
40	0x3d92f3c5	0.071754016
41	0xbca182de	-0.019715723
42	0xbcbfeb6a	-0.023427684
43	0x3c781caf	0.015143557
44	0xbc30f9ab	-0.010801713
45	0x3e84403b	0.25830254
46	0x3dbcf44c	0.092262834
47	0x3e29d91f	0.16586731
48	0x3ef60261	0.4804869
49	0xbdf9c480	-0.121956825
50	0x3e2b2e5b	0.16716902
51	0x3c558431	0.013032005
52	0x3ba7b8b5	0.0051184543
53	0x3e2d755c	0.169393
54	0x3d8fe741	0.0702653
55	0x3e60228f	0.21888183
56	0xbcdec0c5	-0.027191529
57	0xbe3a3665	-0.18184812
58	0x3e49d9a8	0.19711936
59	0xbe471334	-0.19440919
60	0x3e015efd	0.12633891
61	0x3c5efdc7	0.01361031
62	0xbbf60c5b	-0.007508797
63	0xbcef3b5a	-0.029203106
64	0x3e1bae74	0.15203267
65	0x3c88812b	0.016663155
66	0x3da32da6	0.07967691
67	0x3edcc63c	0.4311999
68	0x3d8b39d5	0.0679814
69	0x3d5ffcc1	0.054684404
70	0x3e1f051b	0.15529291
71	0x3c247dd1	0.010039763
72	0x3dc80b5f	0.09767794
73	0x3e065e61	0.1312194
74	0x3e9d5db4	0.30735552
75	0x3e16e16a	0.14734426
76	0xbc88e468	-0.016710475
77	0xbc9003e5	-0.017579982
78	0xbd69057e	-0.056890003
79	0x3d3360be	0.043793432
80	0x3ee7fe17	0.45311043
81	0xbdb15b2d	-0.086599685
82	0xbb8be912	-0.0042697275
83	0x3cca1e27	0.02467258
84	0x3caf5257	0.021401567
85	0xbe0cf437	-0.13765036
86	0xbdb155a9	-0.086589165
87	0xbe0e9638	-0.13924491
88	0x3e0e074e	0.13869974
89	0xbebfa1af	-0.37428042
90	0x3ec51c2d	0.3849806
91	0x3dd8aa49	0.10579354
92	0x3dcaad81	0.098963745
93	0xbe05ac9d	-0.13054128
94	0x3c878b38	0.016545877
95	0xbd457928	-0.048211247
96	0xbb8c7229	-0.00428607
97	0xbdfeb958	-0.12437695
98	0x3c5fd81e	0.013662366
99	0x3ddae74c	0.10688648
100	0xb9f8ea8c	-0.00047476997
101	0x3d817c56	0.06322543
102	0xbd74d132	-0.059769817
103	0x3dbd41f2	0.09241094
104	0x3e6babad	0.23014708
105	0x3e9d17d9	0.30682257
106	0xbcecc054	-0.028900303
107	0x3e5ece4e	0.21758386
108	0xbceedb46	-0.029157292
109	0x3e93621e	0.28785795
110	0x3def5bad	0.11687408
111	0xbd5ff846	-0.05468013
112	0x3d31278a	0.043250598
113	0xbbe9fbd1	-0.0071406146
114	0x3e1bf8d1	0.15231635
115	0x3d3486de	0.044073932
116	0x3cc995e5	0.024607608
117	0xbe1cee13	-0.15325193
118	0x3e1f0582	0.15529445
119	0xbd57afdf	-0.052657958
120	0x3dd056de	0.101728186
121	0x3b90611f	0.004406109
122	0xbc87f3f8	-0.016595826
123	0x3ddaca66	0.10683136
124	0x3d7b0854	0.06128724
125	0xbdd8f15b	-0.1059291
126	0x3e156621	0.1458974
127	0x3dd98887	0.10621744
128	0xbe97bd70	-0.29636717
129	0x3d4b263f	0.04959702
130	0x3cffd44b	0.031229159
131	0x3e3ebec6	0.18627462
132	0x3c673ce5	0.0141136395
133	0x3e44bf93	0.19213705
134	0xbde90d5f	-0.113795035
135	0xbe0a1808	-0.1348573
136	0x3e781934	0.24228364
137	0xbd6e68d6	-0.058205448
138	0x3d9b4ce8	0.07583028
139	0xbdf2d22e	-0.11856495
140	0xbe885204	-0.26625073
141	0x3e5cf16a	0.21576467
142	0xbe1fa7b6	-0.1559132
143	0xbdb8967d	-0.09013078
144	0x3cd26fb7	0.025688035
145	0x3cbf6920	0.023365557
146	0xbe4f4f83	-0.20245175
147	0xbd3c13a4	-0.04591717
148	0x3e3f689e	0.18692252
149	0x3e29a7fb	0.16567986
150	0xbaba78b4	-0.0014226646
151	0x3e4e9858	0.20175302
152	0xbeada647	-0.33915922
153	0x3d14253a	0.036168315
154	0x3e08c727	0.1335722
155	0x3ed432a4	0.41444886
156	0x3e4f9dfb	0.20275109
157	0xbc691d17	-0.014228127
158	0x3e3f9aa3	0.18711333
159	0xbdb0c33e	-0.086309895
160	0xbdb209ea	-0.08693297
161	0xbdfcecf1	-0.123498805
162	0x3e42e409	0.19032301
163	0xbd1566eb	-0.036475103
164	0xbe27496e	-0.16336605
165	0xbccc3ba7	-0.024930788
166	0x3c5b66d9	0.01339122
167	0x3e364e17	0.17803226
168	0xbb6494bd	-0.0034878694
169	0x3e67f6ef	0.22652791
170	0x3d15f02f	0.03660601
171	0xbda18a69	-0.07887728
172	0x3d44188f	0.047874983
173	0xbdeb96d2	-0.11503376
174	0xbe425076	-0.18976006
175	0x3e35cd8e	0.17754194
176	0x3e6df69f	0.2323861
177	0x3ed7dbcc	0.4215988
178	0x3deb9f35	0.11504976
179	0xbd70dbd5	-0.0588034
180	0x3dce65db	0.10078021
181	0x3dda8f5b	0.10671874
182	0xbe341d3e	-0.1758928
183	0xbe146a69	-0.14493717
184	0xbcf343b2	-0.029695366
185	0x3e4ce511	0.20009257
186	0x3e796327	0.2435423
187	0x3e1e4794	0.15456992
188	0x3e21b62b	0.15792148
189	0x3ed652bd	0.4186
190	0xbe96ea84	-0.29475796
191	0x3d8234a3	0.06357696
192	0xbe308097	-0.17236553
193	0xbdff7e00	-0.124752045
194	0x3dba15bd	0.090861775
195	0x3da3a75c	0.07990906
196	0x3dff5bd1	0.124686845
197	0x3e36eb04	0.17863089
198	0x3e03890a	0.12845245
199	0x3b6a2dee	0.0035732943
200	0x3e025368	0.1272713
201	0x3d1773cb	0.036975663
202	0x3ddc5ca6	0.10759859
203	0x3e9186b2	0.28423077
204	0x3dbf9b64	0.0935581
205	0xbe8e476b	-0.27788863
206	0x3cdd1be3	0.026990836
207	0x3e62a798	0.22134244
208	0x3d81206f	0.06305014
209	0xbe67ae9a	-0.22625199
210	0x3d3c4359	0.045962665
211	0x3e38579e	0.18002173
212	0x3d9e9c28	0.07744628
213	0x3e6b9154	0.23004657
214	0xbd27e4cd	-0.040989686
215	0x3bd543d2	0.006508329
216	0x3e217b19	0.15769614
217	0xbe9317d7	-0.28729126
218	0xbe500706	-0.20315179
219	0xbdf530ba	-0.119721845
220	0xbdae11ad	-0.08499465
221	0xbc8f2cf9	-0.0174775
222	0x3d74c2f0	0.05975622
223	0x3d849b0d	0.06474886
224	0x3cea753d	0.028620357
225	0xbe16a0fa	-0.14709845
226	0x3d54d22f	0.05195826
227	0xbdc51b9b	-0.09624406
228	0xbe923862	-0.28558642
229	0x3e499c59	0.19688548
230	0x3e4a6b98	0.19767606
231	0x3dc22170	0.09479034
232	0x3dac0de0	0.08401084
233	0xbd66031d	-0.056155313
234	0x3ddb42c6	0.107060954
235	0x3ccdb32a	0.025109846
236	0x3e1935d6	0.14961943
237	0xbd369982	-0.04457999
238	0x3e1c69a3	0.15274672
239	0xbd6857c8	-0.05672434
240	0xbdd9af6d	-0.10629163
241	0x3e6588c2	0.2241545
242	0x3dc1d2f5	0.09464065
243	0xbcae5395	-0.02128009
244	0xbd2b95cb	-0.0418909
245	0x3d9168d0	0.071000695
246	0x3ceb3ea1	0.028716387
247	0x3e0b85d8	0.13625276
248	0xbcdf9e9c	-0.02729731
249	0x3d9b7c2f	0.075920455
250	0xbca79902	-0.020458702
251	0x3d11dc0e	0.03561025
252	0xbecfffe4	-0.40624917
253	0x3e194812	0.14968899
254	0x3e3f01d4	0.18653041
255	0x3e132b86	0.14372072

layers.1.bias f4 [50]
0	0x3e277a3f	0.16355227
1	0x3d6d57b5	0.057944972
2	0x3e1f6271	0.15564896
3	0x3e0fc99f	0.14041756
4	0x3e4241d3	0.18970422
5	0x3d09ddf5	0.03365894
6	0x3e448e24	0.19194847
7	0x3e4f1033	0.20221023
8	0x3d9a2553	0.0752665
9	0x3e0ed1eb	0.13947265
10	0x3d954c77	0.07289975
11	0xbcee0abe	-0.029057857
12	0x3e4d4f6f	0.20049833
13	0x3e563dd8	0.20922029
14	0x3e1b0ada	0.15140858
15	0x3d963640	0.07334566
16	0x3e2436d0	0.16036534
17	0x3c858465	0.016298482
18	0x3dfc181b	0.12309285
19	0x3e7a278c	0.24429148
20	0x3e3e26dc	0.18569511
21	0x3de8d734	0.11369172
22	0x3dc5e062	0.09661938
23	0x3deae326	0.114691064
24	0x3dbc76d8	0.09202355
25	0x3c947fd3	0.018127358
26	0x3dcdfdeb	0.10058197
27	0x3da4ef02	0.080533996
28	0x3dd34a63	0.103169225
29	0x3cb89480	0.022531748
30	0xbd3755d6	-0.044759594
31	0x3dc6f591	0.09714807
32	0x3d8749c4	0.066058666
33	0x3dd3bf03	0.10339167
34	0x3e03da6b	0.12876289
35	0x3e1cfdaf	0.15331148
36	0x3d4a68ff	0.04941654
37	0x3da0bd38	0.078485906
38	0x3dce444e	0.10071622
39	0x3bb2316b	0.00543802
40	0x3e36b902	0.17844012
41	0x3cbd7355	0.023126284
42	0x3e1b0c35	0.15141375
43	0x3db692bd	0.08914707
44	0x3be7fd94	0.0070797894
45	0x3d95a9b7	0.07307761
46	0x3d950c6f	0.07277762
47	0x3df16613	0.11787047
48	0x3da702e0	0.08154845
49	0x3e4a3028	0.19744933

emb_layer.weight f4 [2, 50]
0	0xbc59d6de	-0.013295857
1	0xbd8227c5	-0.06355242
2	0xbe322959	-0.17398585
3	0x3d6dd2d3	0.058062386
4	0xbbdd5c95	-0.0067554214
5	0xbd3b3d75	-0.045712907
6	0xbb454ce8	-0.0030105654
7	0xbd2a7455	-0.04161485
8	0xbcfca5a2	-0.030840699
9	0x3d77bedc	0.060484752
10	0xbd9a0ee1	-0.07522369
11	0x3d52c25a	0.05145488
12	0xbdbb141c	-0.09134695
13	0x3caf202b	0.021377644
14	0x3c0fce51	0.008777217
15	0x3d22d822	0.0397569
16	0x3ca8bcd6	0.020597856
17	0xbcd02956	-0.025410336
18	0xbd34dd19	-0.044156168
19	0xbdc8ed64	-0.09810904
20	0x3cb4627c	0.022019617
21	0x3db50220	0.08838296
22	0x3d422a47	0.0474036
23	0xbca6ef36	-0.020377737
24	0xbd1021ca	-0.035188474
25	0xbdc47e1c	-0.09594366
26	0x3dc111a3	0.09427192
27	0x3c887c35	0.016660789
28	0xbd08b971	-0.033379976
29	0x3cde4f3f	0.027137397
30	0x3d8a679a	0.06758042
31	0x3de0b8fb	0.10972782
32	0x3cd9d077	0.026588662
33	0x3d0e1e23	0.03469671
34	0xbd36b823	-0.0446092
35	0xbd6f5a4f	-0.058435734
36	0x3d2f734e	0.042834572
37	0xbd3c6b1d	-0.04600059
38	0xbca4f094	-0.020134248
39	0xbd57cdd4	-0.052686527
40	0x3d6a491b	0.057198625
41	0xbdb108a5	-0.08644227
42	0xbda596fd	-0.08085439
43	0x3c86f7cd	0.016475582
44	0x3c6fa037	0.014625601
45	0x3db39206	0.08768086
46	0x3d1c5b5e	0.038173072
47	0x3dcec7ca	0.100967005
48	0x3db8e056	0.09027164
49	0xbcd31233	-0.025765514
50	0x3d4c533c	0.049884066
51	0xbd12e613	-0.035863947
52	0x3d8bf293	0.06833377
53	0x3d902ca6	0.07039766
54	0x3d361634	0.04445477
55	0xbd55ce98	-0.052198976
56	0x3c7e4339	0.015518957
57	0x3bc4ba96	0.006003688
58	0x3c5f9037	0.013645223
59	0xbd668e0f	-0.05628782
60	0xbd674ec3	-0.056471597
61	0x3c2b805a	0.010467613
62	0x3e1bd2bf	0.15217112
63	0xbcc863e3	-0.024461692
64	0x3d0b4b5e	0.034007423
65	0x3de7de8c	0.11321744
66	0xbcc7e76a	-0.024402339
67	0xbd3d483d	-0.04621147
68	0xbd24ffd4	-0.04028304
69	0x3cf9f9a6	0.03051455
70	0xbd813c71	-0.063103564
71	0xbe02360b	-0.12715928
72	0xbc8a9fa7	-0.016921831
73	0xbc4e9a32	-0.012610005
74	0x3e11c5c9	0.14235605
75	0x3d75bee6	0.059996508
76	0x3d9388c3	0.072038196
77	0x3c3d995b	0.011572207
78	0x3e056516	0.13026842
79	0x3c7fc7ce	0.015611602
80	0x3c419b5c	0.011816826
81	0xbdbad7a2	-0.0912316
82	0x3bc03474	0.005865628
83	0x3c56aa2b	0.013102095
84	0xbc8063d0	-0.015672594
85	0xbc8476ed	-0.01616999
86	0xbb89fb89	-0.0042108935
87	0x3dcbedb5	0.099574484
88	0xbbfb29d8	-0.0076649003
89	0xbc3f9ccb	-0.011695097
90	0x3dd9c619	0.10633487
91	0x3e00b724	0.12569863
92	0xbdf0c278	-0.11755842
93	0x3c31c502	0.010850193
94	0xbd809167	-0.06277733
95	0x3dd05276	0.10171978
96	0x3d0888a9	0.033333454
97	0xbb2364d2	-0.002493192
98	0xbd8122c5	-0.0630546
99	0xbae4ffab	-0.0017471215

emb_layer.bias f4 [2]
0	0xbc854150	-0.016266495
1	0x3aa68682	0.0012704881

class_layer.weight f4 [10, 50]
0	0xbd2cc238	-0.04217741
1	0xbef80b28	-0.48446012
2	0xbe0a88ce	-0.1352875
3	0xbe68589d	-0.22690053
4	0xbe2c12e2	-0.16804078
5	0x3d3388cb	0.043831628
6	0x3ccd4f7c	0.025062315
7	0x3eaa531c	0.33266532
8	0x3e0bb079	0.13641538
9	0x3e3938e2	0.18088105
10	0x3dfe07b3	0.12403812
11	0xbd21c486	-0.03949406
12	0x3d7e650d	0.06210809
13	0xbe628bff	-0.22123717
14	0xbd48b5b9	-0.04900143
15	0xbe310592	-0.17287281
16	0x3e959e43	0.29222307
17	0x3dd82136	0.105532095
18	0x3d47f41e	0.048816793
19	0xbe6ff154	-0.23431903
20	0xbe41b67c	-0.18917269
21	0x3e97d0b7	0.29651424
22	0xbe76f163	-0.24115519
23	0xbd61dead	-0.055144
24	0xbe5e2e7a	-0.21697417
25	0x3d87fcb5	0.06639997
26	0x3cde5b9a	0.027143288
27	0x3e67963f	0.22615908
28	0x3d5d9828	0.054100186
29	0xbe30b09c	-0.17254871
30	0xbe4015d4	-0.18758327
31	0x3e6d724d	0.23188134
32	0xbc845a68	-0.01615639
33	0xbe0d8450	-0.13820004
34	0xbdd417a9	-0.10356075
35	0xbdc6e49d	-0.09711573
36	0xbac9c1ad	-0.0015392803
37	0xbe561081	-0.20904733
38	0xbe84284b	-0.2581199
39	0x3e73faf8	0.23826206
40	0xbe8ec073	-0.27881202
41	0xbe94352b	-0.28946814
42	0xbe366060	-0.17810202
43	0xbd43bbf9	-0.047786687
44	0x3e93230a	0.2873767
45	0x3eab145d	0.33413973
46	0x3e9260ae	0.28589386
47	0xbd0bdc04	-0.03414537
48	0x3e45e018	0.19323766
49	0xbe8cfd72	-0.27537113
50	0xbde7f0fe	-0.113252625
51	0x3ed397a5	0.41326633
52	0xbcbbfbcc	-0.022947215
53	0x3e1ca449	0.15297045
54	0xbdc01311	-0.09378637
55	0xbdeec975	-0.11659519
56	0xbce40769	-0.027835565
57	0xbd5c1200	-0.053728104
58	0x3e2637de	0.16232249
59	0x3da49d3b	0.08037802
60	0xbe0cf5b2	-0.137656
61	0xbb392c1c	-0.002825505
62	0xbe061b31	-0.1309631
63	0xbaadadf1	-0.0013250691
64	0xbde9fc5c	-0.11425087
65	0x3e262566	0.16225204
66	0x3ea3e7fc	0.32012928
67	0xbed0bfb3	-0.40771255
68	0xbe25f32c	-0.16206044
69	0x3d96fc70	0.073723674
70	0x3e3a1477	0.18171869
71	0xbda5f8d8	-0.08104104
72	0xbe0ddbf0	-0.13853431
73	0xbeb7f093	-0.3592573
74	0x3e8975c2	0.26847655
75	0xbe9a5a33	-0.30146942
76	0x3e8cb101	0.27478793
77	0xbe578b92	-0.21049336
78	0xbe49bc74	-0.19700795
79	0x3e29d2be	0.16584298
80	0xbde43cd4	-0.111444145
81	0x3b68cedd	0.003552369
82	0xbeb0cb06	-0.34529895
83	0x3e947af9	0.2900007
84	0xbc8fdea3	-0.017562216
85	0xbe150ae3	-0.14554934
86	0xbe3815f2	-0.17977121
87	0xbe4c4eb3	-0.19951896
88	0x3dbafaf2	0.09129895
89	0xbe05ab77	-0.1305369
90	0x3cf6d70d	0.030131841
91	0x3e366407	0.17811595
92	0x3dd2fe40	0.103024006
93	0x3dcba283	0.09943106
94	0xbe9895c7	-0.2980177
95	0x3db45c76	0.08806698
96	0xbd877cff	-0.06615638
97	0xbe84fb63	-0.25973043
98	0xbc9a05d3	-0.018801605
99	0x3eae4f8b	0.3404506
100	0xbe9c3afa	-0.30513746
101	0xbe1551b7	-0.14581953
102	0xbd870818	-0.06593341
103	0xbe1d3009	-0.15350355
104	0x3e9818ff	0.2970657
105	0xbdecf5be	-0.11570309
106	0xbdd8f635	-0.10593835
107	0x3d80349a	0.06260033
108	0x3e84e517	0.25956032
109	0xbe176419	-0.14784278
110	0x3d1011c3	0.03517319
111	0xbe02e07a	-0.12780944
112	0xbe1894f8	-0.14900577
113	0xbef9245a	-0.48660547
114	0x3e17fedc	0.14843315
115	0xbeb12175	-0.34595838
116	0x3d031092	0.031998225
117	0xbdd74847	-0.10511833
118	0x3e358c6c	0.17729348
119	0x3d8b5f88	0.068053305
120	0x3e287c05	0.1645356
121	0x3e51dad6	0.20493636
122	0xbdca9fc6	-0.098937556
123	0xbe1dbd6d	-0.15404291
124	0xbbee0059	-0.007263225
125	0xbe37ce2e	-0.17949745
126	0x3d6ff4f0	0.0585832
127	0x3e8a0360	0.269557
128	0x3e670c72	0.22563341
129	0x3daf4f1a	0.08560009
130	0x3e0b859f	0.13625191
131	0xbe13f8d0	-0.14450383
132	0x3e432754	0.19057971
133	0x3d3fbcbb	0.046810847
134	0xbde1fabd	-0.11034153
135	0xbe71d18b	-0.2361509
136	0x3e50479b	0.20339815
137	0x3e6aacf5	0.2291754
138	0x3dbab9ea	0.091174915
139	0xbdc3dc60	-0.095635176
140	0x3e84bfc9	0.2592757
141	0x3cc3e112	0.023911033
142	0xbe7a9ac6	-0.24473104
143	0xbee55e33	-0.4479843
144	0xbe5ae355	-0.21375783
145	0x3df384af	0.11890542
146	0xbe8df452	-0.27725464
147	0x3e0d6967	0.13809739
148	0x3da42a91	0.080159314
149	0x3e6d2087	0.2315694
150	0xbed972c7	-0.4247038
151	0x3b5091d3	0.00318252
152	0x3e0a64bc	0.1351499
153	0x3db6b524	0.089212686
154	0x3d8b8758	0.06812924
155	0x3da807e5	0.08204631
156	0xbe88b758	-0.2670238
157	0x3d2049a4	0.03913273
158	0xbd45fda3	-0.04833759
159	0x3e088e67	0.13335572
160	0x3d947503	0.07248881
161	0x3c15c636	0.009141495
162	0x3c0fbfb0	0.008773729
163	0x3e6b9e40	0.23009586
164	0xbe374abb	-0.17899601
165	0xbe34d883	-0.17660718
166	0xbe8032fd	-0.250389
167	0x3d2d2705	0.04227354
168	0xbe28781e	-0.16452071
169	0xbe977212	-0.29579216
170	0x3dc9ef23	0.09860065
171	0xbe8bcc33	-0.2730423
172	0x3ec022fd	0.37526694
173	0xbe8ee3ee	-0.27908272
174	0xbe71b879	-0.23605527
175	0x3d83e6db	0.064405166
176	0xbde038a2	-0.10948302
177	0xbdcc3093	-0.09970202
178	0x3e6b4ad3	0.22977762
179	0x3e577c00	0.21043396
180	0x3e9c85c4	0.30570805
181	0x3defa70e	0.11701785
182	0x3ef74345	0.4829351
183	0x3e172dad	0.14763518
184	0xbc576159	-0.013145768
185	0xbedbf81c	-0.4296273
186	0xbe9a4427	-0.3013012
187	0x3c6bf48c	0.014401566
188	0xbeacd402	-0.337555
189	0x3d985ccf	0.07439577
190	0x3d7ba69d	0.06143819
191	0x3dffeaab	0.12495931
192	0x3dad7883	0.084702514
193	0x3e3ee499	0.1864189
194	0x3c8d495e	0.017246898
195	0xbe4d13f0	-0.20027137
196	0xbd80dba9	-0.06291897
197	0x3c85b7bf	0.016322969
198	0x3e2bf698	0.16793287
199	0xbe98e1d5	-0.29859796
200	0x3e65c7c9	0.22439493
201	0x3dfa8137	0.12231677
202	0x3ef2a8dd	0.47394457
203	0xbe0be0e4	-0.13660008
204	0xbd912bf4	-0.070884615
205	0xbe4a814a	-0.19775882
206	0xbdacc8fe	-0.08436774
207	0xbe84ae11	-0.25914052
208	0xbeaba0ee	-0.33521217
209	0xbe9a4c13	-0.30136165
210	0x3dc5f3f6	0.096656725
211	0xbd86dda1	-0.06585241
212	0xbdc7425b	-0.09729453
213	0x3e3c3ed1	0.18383338
214	0x3e592fa2	0.21209577
215	0x3ea2be69	0.31785896
216	0xbdc68264	-0.09692839
217	0x3dbecc27	0.09316283
218	0xbda805cb	-0.0820423
219	0x3dbab512	0.09116568
220	0xbe153a6e	-0.1457307
221	0x3e2a6d36	0.16643223
222	0x3dbcf03d	0.09225509
223	0x3c2e20b8	0.010627918
224	0xbd63059d	-0.055425275
225	0xbd26087b	-0.04053543
226	0x3ed8b33f	0.42324254
227	0xbd8fed71	-0.0702771
228	0xbdff16dd	-0.12455533
229	0xbe77ff0d	-0.24218388
230	0xbdca2dca	-0.09872015
231	0xbe2b72b4	-0.16742975
232	0xbe9ef6f6	-0.3104779
233	0xbe4adcac	-0.19810742
234	0x3e80e19c	0.25172126
235	0xbdc84832	-0.09779395
236	0x3cf3b8a1	0.029751124
237	0x3e53142b	0.20613162
238	0x3e71cd56	0.23613486
239	0x3ebc1afd	0.3673934
240	0xbd9ad9eb	-0.07561096
241	0xbe482c68	-0.1954819
242	0x3e804cee	0.25058693
243	0x3d476ed2	0.04868967
244	0x3dc824df	0.097726576
245	0x3dd41134	0.10354844
246	0xbe2f1e66	-0.1710144
247	0x3da59893	0.08085742
248	0xbe5dd854	-0.21664554
249	0xbdc0eec6	-0.094205424
250	0xbeb4a4e2	-0.35282046
251	0x3e9292af	0.28627536
252	0x3cee35c0	0.029078364
253	0xbc9bc04a	-0.019012589
254	0xbedbcce6	-0.42929763
255	0x3ec18221	0.37794593

class_layer.bias f4 [10]
0	0xbd7df1f2	-0.061998315
1	0x3de054e4	0.109536916
2	0x3d969201	0.07352067
3	0x3d75f9b3	0.060052585
4	0xbddd7099	-0.10812492
5	0xbd3f162e	-0.04665201
6	0x3da0c343	0.07849743
7	0x3d9d6f18	0.07687205
8	0xbe0fbf78	-0.14037883
9	0xbd15cd25	-0.036572594
