notebooks/paper-plots/models/w0.7.pt (torch, 339531 bytes, 8 tensors)

layers.0.weight f4 [100, 784]
000000 e4 76 c7 bb 3b c8 09 3d 0a d0 d8 3c 1c 0a 35 bc
       -0.006087171 0.03363822 0.026466388 -0.011049774
000010 12 cf ab 3c c3 a7 f3 bc 93 6f 10 bd a0 f9 1a bc
       0.020972762 -0.029743081 -0.035262655 -0.009458929
000020 d4 60 ea bb 7c 14 6b bc c0 cb 26 ba 4c f3 ba bc
       -0.007152656 -0.014348146 -0.00063627586 -0.022821091
000030 b0 c5 3d 3c 1e 61 af 3c cc 72 c9 bc 4b d2 07 3d
       0.011582777 0.021408614 -0.024590872 0.033159535
000040 78 1d 23 bc b0 7c 8a 3c 3c e8 af bc 00 18 eb 37
       -0.009955756 0.016905159 -0.021473043 2.8025359e-05
000050 7c 27 8d bc aa 63 d2 3c 20 59 a6 3a 30 20 a6 bc
       -0.017230742 0.02568229 0.0012691356 -0.02027902
000060 f3 73 0e bd 48 4d cd 3b 45 a3 b5 bc 32 e6 f6 3c
       -0.034778547 0.006265316 -0.02217258 0.030139063
000070 08 b0 f7 bb 10 f3 8a 3c 0e 28 ec 3c c3 de 9f bc
       -0.0075588264 0.016961604 0.028827693 -0.0195154
000080 ae 00 e5 3c a0 2a af 3c 4a df 19 bc e8 e0 d7 3c
       0.027954426 0.02138263 -0.009391615 0.02635236
000090 8e 71 86 3d 9e a9 65 3d e0 56 c6 bb d3 48 71 bd
       0.065646276 0.056069963 -0.006052837 -0.05890734
0000a0 d4 a0 73 3d 27 4d 1e be cf b2 22 be 0b 67 92 bd
       0.05947955 -0.15459119 -0.15888523 -0.0714856
0000b0 01 2e 8e bd 38 c2 ac bc 63 44 e6 bd 44 1c 85 bd
       -0.06942368 -0.021088704 -0.112435125 -0.06499532
0000c0 92 e1 97 3c 7e ed 97 bc 2b dc 8a 3b ce 16 6e bc
       0.018540177 -0.018545862 0.004237672 -0.014531804
0000d0 69 73 01 3d d0 9f 39 3c d0 f3 4c 3b 8e 7a ba bc
       0.031604204 0.011329606 0.0031273253 -0.022763517
0000e0 32 cb e4 3c 5c 93 0a bc 4e 50 cb 3c 92 01 ad 3c
       0.027928922 -0.008457985 0.024818566 0.021118913
0000f0 23 c7 4c 3d 3e 75 74 3d 33 3b bb 3c e6 dc 46 b9
       0.0499946 0.059682123 0.022855377 -0.00018965043
000100 24 29 ad bb c2 0d 89 3c a8 be 04 be 1a 87 43 be
       -0.0052844454 0.016730193 -0.12963355 -0.19094506
000110 d6 a3 5f bd fc 64 37 bd 72 6d 2a bd e4 43 12 bc
       -0.054599606 -0.04477404 -0.04160828 -0.008927319
000120 1d 53 81 bc 16 a3 00 bd 86 43 e3 bc 2e 4b 56 bd
       -0.015786702 -0.03140553 -0.027742159 -0.05231779
000130 39 36 89 bd ff 75 48 bd 69 b9 12 3d 1e eb 84 bd
       -0.06699795 -0.048940655 0.035821352 -0.064901575
000140 32 fb 36 bd 1e 90 ca bc 90 53 88 bb a3 ee cc bc
       -0.044673152 -0.024726924 -0.004160352 -0.025016135
000150 90 78 8c bb be 66 ec 3c 43 1a 0e bd 4d ec 0b bd
       -0.004286833 0.028857585 -0.034693014 -0.0341609
000160 cb 3f 64 3d 93 1d be 3c dd 1c 16 bc 69 4e 3b 3d
       0.0557249 0.023207461 -0.009162155 0.045729075
000170 3a 8c 36 3d 77 ae 1a bd bb 40 b4 bd 92 9a b0 bd
       0.044567324 -0.03776404 -0.08801409 -0.08623232
000180 b6 c7 14 be 5c e3 03 be 3c bb 5d bd 4c 9a e6 bd
       -0.14529309 -0.128797 -0.05413364 -0.112598985
000190 f4 0a 26 bd e0 71 1b bc 90 15 4a 3c 7e ee ac bc
       -0.04053779 -0.009487599 0.012334242 -0.021109816
0001a0 97 a2 c0 bc 0d 4f 2c bd b4 1a fc bb 77 83 1a bc
       -0.023515029 -0.042067576 -0.007693613 -0.009430758
0001b0 20 82 94 bc 50 12 b7 bc c7 d5 0a bd ca f2 81 3c
       -0.018128455 -0.0223476 -0.03389528 0.015862841
0001c0 e8 bf 3d 3c 20 0a 4e 3c 70 60 e2 bb 81 3d 1b bd
       0.011581399 0.012575656 -0.006908469 -0.03790045
0001d0 c3 b0 9c 3d d4 ee f3 3b 5a 8b 68 3a 8a db 32 3c
       0.07650902 0.007444242 0.00088708627 0.0109166
0001e0 67 e8 18 be 5b b6 df bc 15 d6 ed bc bd 2e 3f bd
       -0.14932404 -0.027308634 -0.029032746 -0.046675432
0001f0 7f ab e7 bd 39 21 03 be 5b 1d 96 bd f3 e4 35 be
       -0.11312007 -0.12805642 -0.07329818 -0.17763118
000200 7d ae 06 be eb 91 b8 bd b1 63 91 bb ef eb 66 3c
       -0.131525 -0.09012207 -0.004436933 0.014094337
000210 88 e2 57 3d 13 fb 04 3d da e9 dc 3d 02 db dd 3d
       0.05270627 0.032466006 0.10786791 0.10832788
000220 2e b5 2a bd 67 0f 11 bd 7c b8 69 3c 40 9e 7f bc
       -0.041676693 -0.03541508 0.014265176 -0.015601695
000230 4a a7 a9 3c d7 c9 08 3d a7 89 13 bd 79 7b f2 bd
       0.020709652 0.033395614 -0.036019947 -0.11839957
000240 ef 22 8d 3d 1f 54 83 3d cf 0b 2a 3d 3c bd 9c 3c
       0.06891429 0.06412529 0.041515168 0.019133203
000250 c2 47 2c bc 1a 87 07 bd 81 eb b6 ba 34 08 72 bd
       -0.010515155 -0.033087827 -0.0013955684 -0.059089854
000260 36 08 e6 bc 69 09 be bc e0 e0 9b bd 78 0a 8a bd
       -0.028080087 -0.023197846 -0.07611251 -0.06740278
000270 7e ab 86 bd da 28 14 bd 9e c1 3b bd 0c 80 10 bc
       -0.06575678 -0.03617177 -0.045838945 -0.008819591
000280 14 cb 04 bd b4 79 24 bd 7d af ac 3d db 9a d2 3d
       -0.032420233 -0.040155128 0.08431909 0.102834426
000290 43 6f 1a 3d f7 59 a4 3d 06 29 da bd 7f 7b 5c bd
       0.037703764 0.08024972 -0.10652356 -0.053828713
0002a0 58 66 04 bd 7b 3f 03 3d 7c 1f 06 be 28 7e c3 3c
       -0.032324165 0.03204296 -0.13097948 0.023863867
0002b0 b6 e0 1b 3e 49 84 d5 3c a0 4f f4 bb e0 37 ed 3c
       0.15222439 0.026064055 -0.007455781 0.028957307
0002c0 f5 ef 6e 3c cc 57 09 bc 78 84 18 bd 63 e4 ad bb
       0.014583577 -0.008382749 -0.037235707 -0.005306767
0002d0 9d 93 f5 bc 11 56 57 bc f1 41 b3 bb b5 e4 c1 bb
       -0.029977614 -0.013143078 -0.0054705073 -0.0059171566
0002e0 02 93 0e bd d3 84 17 bd a7 fb 88 bc 8b 6d a4 bc
       -0.034808166 -0.036991905 -0.01672156 -0.020071765
0002f0 9d e3 01 bd 4a 65 98 bd 2b 44 9c 3d 08 8c 6a 3d
       -0.03171121 -0.07441194 0.076301895 0.05726245
000300 47 ba 8a 3b 8b de c3 3b 30 1c ef bd c6 85 71 bd
       0.004233632 0.005977457 -0.11675298 -0.058965467
000310 a8 86 eb 3c 99 60 4e 3b 36 2f 37 3e 0e 32 01 bd
       0.028750733 0.0031490682 0.17889103 -0.031541876
000320 15 51 4e 3c 14 79 a5 bb 3d 21 61 bc ef 5f 7a bc
       0.012592574 -0.005049834 -0.013740835 -0.015281661
000330 c9 f6 7a bd dd 62 3f bd 1a 91 2f bd 20 46 06 3c
       -0.06127051 -0.046725143 -0.04286299 0.00819543
000340 0c 9f 51 3c 74 1a 36 bd be 75 e3 bd 03 45 9c bd
       0.012794267 -0.04445882 -0.11106442 -0.076303504
000350 da fc 17 bd 4b d5 ae ba 78 bc a2 3a b7 7f a4 bc
       -0.037106372 -0.0013338713 0.0012415787 -0.02008043
000360 6e 3f 3d bd b7 d6 c1 bb 97 cf 10 3d 91 7a fe 3c
       -0.04620307 -0.0059154886 0.035354223 0.031064304
000370 5b a5 2f bc 2b 38 9d 3c f3 80 f5 3c f2 1a 8c bd
       -0.010720576 0.019191822 0.029968714 -0.06841077
000380 17 25 a0 3c 23 7c 9d bd 7a 85 19 bd 93 d9 2b bd
       0.019548936 -0.07689693 -0.03748081 -0.04195554
000390 b0 a1 3d 3c 45 e5 0e bc 02 7b 0e 3d c3 bf 29 bd
       0.011574194 -0.008721654 0.03478528 -0.041442644
0003a0 1c a8 0c bd ab b8 ae 3c 49 1c cb bc ed e1 a4 bd
       -0.03434001 0.02132829 -0.02479376 -0.080509044
0003b0 bb a6 2c bd fe 8b 5d bd 8d bd 88 bd 17 a5 33 bd
       -0.042151194 -0.054088585 -0.06676779 -0.043858614
0003c0 ce e5 5d bd 88 33 2b bd 8c af 1a bd 35 64 fd bc
       -0.054174237 -0.04179719 -0.03776507 -0.030931571
0003d0 f2 77 3e bb 41 53 6f 3c fb 6a 2d 3d eb d0 b3 bc
       -0.0029063192 0.014607252 0.042338353 -0.021950206
0003e0 3c 52 f3 bc f6 fe dc bc df bd 01 bd d6 b0 b6 be
       -0.029702298 -0.026977044 -0.031675216 -0.3568179
0003f0 d5 b5 21 bc 8b 87 c9 bd 24 cd dd bd e6 14 3e bd
       -0.009870012 -0.09840306 -0.10830143 -0.04640665

layers.0.bias f4 [100]
000000 0f 08 46 3e 83 cc 81 3e 48 1b 88 3e 91 89 6d 3e
       0.19339012 0.25351343 0.26583314 0.23197009
000010 ae f0 58 3e 53 1b 57 3e 47 fa bb 3e d4 86 7c 3e
       0.21185562 0.21006517 0.36714384 0.24660808
000020 5f fc 0f 3e e5 fa 18 3d d1 41 d8 3d b1 e1 3d 3e
       0.14061116 0.037348647 0.105594285 0.18543126
000030 0c c2 a8 3d 6a 7b 49 3e 99 1b 04 3e 7c 31 45 3e
       0.082401365 0.19675985 0.12901153 0.19257158
000040 02 03 61 3e 4d 47 2a 3e 92 5c c1 3e 76 ac 88 3e
       0.21973804 0.16628762 0.37765938 0.26694077
000050 f9 8b 1c 3d 9e 19 28 3e e9 ba 8e 3e 0f b2 79 3d
       0.038219426 0.16416022 0.27876976 0.060960826
000060 9f d5 55 3e 17 6d 00 3e d2 ea 99 3c bc 36 cd 3c
       0.20882271 0.12541614 0.018788729 0.025050513
000070 6a bc 4a 3a b7 0c a0 3d be 72 7b 3e 2f 5e 51 3d
       0.00077337644 0.07814925 0.2455549 0.05111521
000080 fc 35 37 3e 38 2a 3b 3e 7a ac e8 3c 01 4b d6 3d
       0.17891687 0.18277824 0.028402556 0.104635246
000090 be f9 9d 3d 7b 04 bd 3c 50 9e 5e 3d df f4 46 3e
       0.0771365 0.023073426 0.054350197 0.19429348
0000a0 2d f2 35 3e ce 90 91 3e b1 ef 56 3e e8 31 8b 3e
       0.17768164 0.2843079 0.20989873 0.27186513
0000b0 59 29 09 3e 0d 79 d3 3d e4 ca 91 3e b2 78 26 3e
       0.13394679 0.10325823 0.28475106 0.16256979
0000c0 c9 3f a4 3d b5 33 1a 3e ed 56 2f 3e 8a f8 0a 3e
       0.080199786 0.15058787 0.17123003 0.13571373
0000d0 a8 85 60 3d 31 a6 a6 3d 62 3a c8 3d 2a cb de 3d
       0.054814965 0.08137167 0.09776761 0.10878594
0000e0 78 d4 03 3e 3a 2c 67 3d 3b 20 82 3e 46 85 d4 3e
       0.12874019 0.056438662 0.25415215 0.4150793
0000f0 f4 a4 28 bc 83 ea ef 3d c4 8f a3 3d 3b 41 80 3d
       -0.010293234 0.117146514 0.079864055 0.06262442
000100 4c b4 61 3d 9e e2 16 3e 14 70 9a 3d 22 9b 9d 3d
       0.055103585 0.14734885 0.075409085 0.07695605
000110 ff 4a aa 3d 62 d9 81 3e 1d 6f ae 3e 6a 52 61 3e
       0.083150856 0.25361162 0.34069148 0.22004095
000120 88 8a 54 3e 59 94 f7 3d f4 24 81 3c e0 a7 10 3c
       0.2075597 0.12088842 0.015764691 0.008829087
000130 e3 7f d0 3d bf 2f 63 3e 9a b7 83 3e a2 f5 29 3d
       0.101806425 0.22186182 0.25726014 0.04149402
000140 53 28 20 3e a0 b2 15 3e c3 35 d8 3e e2 73 86 3e
       0.15640382 0.14618921 0.42228517 0.26260287
000150 49 08 71 3e f0 3a 44 3e 93 c0 05 3d 63 71 1e 3d
       0.23538317 0.19163108 0.032654356 0.038682353
000160 ff ec 50 3c 4a 5e 30 3e 38 36 97 3c 0b ae 1f 3d
       0.012751817 0.17223468 0.01845847 0.03898434
000170 37 7a 55 3e 88 31 e2 3d ee 2a 87 3e e2 73 37 3c
       0.20847403 0.110446036 0.2639994 0.011197062
000180 56 70 67 3e a2 f3 a6 3d f6 4d 47 3e 1f e7 dd 3d
       0.22601447 0.08151938 0.19463333 0.108350985

layers.1.weight f4 [50, 100]
000000 16 67 98 bc 34 ed ce 3d e6 53 4a 3c 9d fc 94 3d
       -0.018603843 0.10103837 0.0123491045 0.07274745
000010 80 ba 77 3c d2 0f 4e 3d ed 67 cb bd 0f 3c 92 3c
       0.015120149 0.050308056 -0.09931932 0.017850904
000020 04 fb 5b bd 5f df 05 3e 43 33 60 3d 7a db cd 3d
       -0.053706184 0.1307349 0.054736387 0.100516275
000030 cf 54 f2 3d 9d 2c 80 3d d1 82 fd bb 1b e5 19 3d
       0.11832582 0.06258509 -0.007736542 0.037572008
000040 ea e9 28 3e a7 53 d9 3a 0b ad f6 3d cf 95 29 be
       0.16495481 0.0016580716 0.12044724 -0.16561054
000050 a2 3f da 3d 92 3b 2f 3d 6f 22 72 bd 72 30 ae bc
       0.10656668 0.04278142 -0.05911487 -0.021263335
000060 8b 5e 80 bd 9a 70 8c 3d fe c7 3f 3d 36 ec bc 3d
       -0.06268033 0.068574145 0.046821587 0.09224741
000070 fc 0d 3f 3d ab d0 65 bd 0d 03 1c bd 6b 32 23 3d
       0.046644196 -0.056107204 -0.038088847 0.039843004
000080 de 2c c2 3b e4 09 8e 3d 90 af e8 3d 10 11 1f 3d
       0.0059257587 0.0693548 0.11361611 0.03883463
000090 c4 98 80 3d 2a d2 bd bd 23 fb 7d 3d 62 88 94 bd
       0.06279138 -0.09268601 0.06200708 -0.072525755
0000a0 e1 bd b7 bd dc a9 31 bd 1a b3 e7 3d 6c 50 25 3d
       -0.089717634 -0.04337488 0.11313458 0.0403599
0000b0 2e 53 10 3d 4d b1 83 3d 84 30 b0 bd ae 9c 99 bd
       0.035235576 0.06430302 -0.086030036 -0.075005874
0000c0 7c de 6a bb b9 dc 0d bc 6e fb 08 3e b8 a4 df 3d
       -0.0035838177 -0.008658581 0.13377163 0.109200895
0000d0 d3 d4 ba 3d 5a df 98 bd 7e fa 82 bc 5b a1 75 3d
       0.09122624 -0.07464476 -0.015988585 0.059968334
0000e0 f4 6e 8a 3b 4c 4d 70 3c 5f 65 7f 3e e3 41 85 bd
       0.0042246524 0.0146668665 0.24941014 -0.065067075
0000f0 e4 2b 6b bd 9a 74 23 3e 7c 98 5f 3d 60 c8 12 bd
       -0.057414904 0.15962449 0.05458878 -0.035835624
000100 37 cc f1 3d fe 1a 8a 3d a3 00 08 3c 3f db df bc
       0.11806529 0.067434296 0.008300933 -0.027326224
000110 aa c5 84 3d e0 9c aa bd 5e fe cd bd ed b9 91 3d
       0.06483014 -0.08330703 -0.10058282 0.07115541
000120 7a f7 1b be 72 ba 2f 3e 99 00 ec 3d 58 5b d2 3c
       -0.15231124 0.17160967 0.115235515 0.025678322
000130 88 56 90 3d 50 3a 9e 3d 3d cb 13 3d 60 26 e4 3d
       0.070477545 0.07725966 0.036082495 0.11140132
000140 aa e1 fd 3c 4b 0c 81 3d a4 4f 77 3e fc a7 a5 3d
       0.030991394 0.06301173 0.24151474 0.08088681
000150 e7 9a 06 3c f9 cd af bc 92 d5 e8 3c 4e 4f 9a bd
       0.0082156425 -0.02146052 0.02842215 -0.075346574
000160 1c 62 be 3d b4 a2 92 3d 5a ae 05 3e 8b c4 52 3d
       0.09296057 0.071599394 0.13054791 0.05145697
000170 b0 c9 c2 bd 5c 85 a4 bc 14 4e 96 bd 07 91 07 3d
       -0.09511125 -0.020083122 -0.07339111 0.033097293
000180 5c 98 98 bd 03 5f 37 3d 41 35 22 3d 76 ac ca 3d
       -0.07450935 0.044768345 0.039601568 0.098961756
000190 e0 5b 6e bd be fd c7 bd 68 a9 45 3e 90 ff 5f 3e
       -0.058193088 -0.09765194 0.19302905 0.21874833
0001a0 7f 7a bd 3d a6 36 2e bd 59 44 0c 3d d6 c4 7d 3e
       0.0925188 -0.042532586 0.03424487 0.24782118
0001b0 6f 7e a0 3d 37 08 ec 3d 6b 2a f6 bc 8f 43 8f 3e
       0.07836615 0.11525004 -0.030049523 0.2798123
0001c0 da 82 f7 3d 6c 0a 1e 3e 38 00 01 bd 71 8d 80 be
       0.12085505 0.15433663 -0.03149435 -0.2510791
0001d0 a2 4e 13 3e 9c 59 a0 3d b8 da 90 bd 96 30 e5 3d
       0.14385465 0.07829592 -0.07072967 0.11190908
0001e0 01 c2 ae bc c1 5a 79 3c 80 57 36 3d 9e e0 6a 3e
       -0.021332743 0.015219391 0.04451704 0.22937247
0001f0 48 a3 76 3c fd 2d 88 bd 41 8a 0a 3d ca 62 10 be
       0.015053578 -0.066493966 0.033823255 -0.14100185
000200 17 d0 8a 3d 5e ba 36 bd c9 3d 23 3e 29 b3 6a 3d
       0.06777971 -0.044611327 0.15941538 0.057299767
000210 6b 46 9b 3d 03 c3 64 be e6 4d 11 3c 37 cb 3e 3d
       0.075817905 -0.22340016 0.00886867 0.04658052
000220 19 55 98 bc 87 34 52 3d d2 f0 2f 3e 56 c0 bd 3e
       -0.018595265 0.051319625 0.1718171 0.37060803
000230 c3 41 e3 bd d0 67 ba 3d c8 a8 86 3e 30 bd 7e be
       -0.110965274 0.09101832 0.26300645 -0.24876857
000240 c2 97 3b bb 34 a7 0a bd 09 6b 12 3e 00 8a c3 bd
       -0.002862439 -0.033850864 0.14298643 -0.09547806
000250 a5 d2 ab 3d 90 8b 13 bd 98 ac 25 bd 4f c6 36 3e
       0.08389787 -0.03602177 -0.0404478 0.17849086
000260 b2 6c f1 bc be b4 90 3e 18 98 ea 3d 95 8d af bb
       -0.029470775 0.28262895 0.11454791 -0.005357454
000270 72 29 28 bd ed 1c 2a bc df 4d 69 be f1 d4 94 bd
       -0.04105515 -0.010382873 -0.22783612 -0.07267178
000280 48 37 c7 bd 57 f1 0f be 86 10 85 3d 2f 3b 35 3e
       -0.09727341 -0.14056908 0.06497292 0.17698358
000290 d1 93 02 3e 49 68 ae 3d a6 64 af 3c 13 62 1e bd
       0.127517 0.085159846 0.021410298 -0.03866775
0002a0 71 89 36 3d 73 fc 9c 3e 63 68 56 bd 3c 74 e6 bd
       0.044564668 0.30661353 -0.052345645 -0.11252639
0002b0 e1 67 91 3e 48 9f 90 bd b0 e5 33 bd 34 95 99 3d
       0.28399566 -0.070616305 -0.04392022 0.07499161
0002c0 72 cd 76 3e 2a a9 41 3e 74 7c a1 bc a8 e6 d8 bd
       0.24101809 0.18912187 -0.019712664 -0.10590869
0002d0 94 1f 13 3d 49 8c cc 3d 54 bb 4f be 36 32 2b be
       0.035918787 0.09987695 -0.20286304 -0.16718373
0002e0 a5 48 93 3e bb 28 df 3b f6 ca 82 3d ee 34 cf bd
       0.2876636 0.0068102754 0.06386368 -0.101175174
0002f0 fe 27 3a 3e 70 88 47 3e 07 80 a4 bd c7 d1 c7 3d
       0.18179318 0.1948564 -0.08032232 0.09756809
000300 22 a0 7c 3e 05 9c 7b bc 57 ab e4 bc ee 0d b5 3d
       0.24670461 -0.015357022 -0.027913732 0.088405475
000310 9f 3e 3b 3e 98 58 c1 3d 79 9b 66 3c 38 bb 28 bd
       0.18285607 0.09440726 0.0140751535 -0.04119417
000320 48 3f b6 3c e5 ee 84 3d 9f 49 2b 3d 3c e0 db 3d
       0.022246972 0.06490878 0.041818257 0.10736129
000330 66 d7 50 3c 5b 12 1b be e7 14 71 bd 88 46 81 be
       0.0127466675 -0.15143721 -0.058857825 -0.25249124
000340 b6 30 d9 3d f9 7e 83 bd f9 d6 57 3d 26 19 d4 bc
       0.10604994 -0.064207025 0.05269525 -0.025890898
000350 cd 10 66 bd e7 1c 93 38 73 96 85 3e c1 38 f4 3c
       -0.056168366 7.01489e-05 0.26091346 0.029812219
000360 e2 89 36 3d 06 fe bb bd 44 02 23 bd 7e bf c1 3d
       0.04456509 -0.091793105 -0.039797083 0.09460352
000370 c0 42 3b 3e 28 15 87 bd 8a 76 ae 3d 1d 61 37 3e
       0.18287182 -0.06595832 0.08518703 0.1790814
000380 b6 1f 34 3d 3c c9 9c bd 49 ae 09 3d dc e3 1c 3e
       0.043975554 -0.0765557 0.033613477 0.15321296
000390 c5 fa bc 3d bb 28 01 3e 93 db 03 3e 1f 9d 3b 3e
       0.09227518 0.12613194 0.1287673 0.18321656
0003a0 93 27 cf bd 3b 04 6c 3e 5a 76 37 bd bc 10 9c 3d
       -0.1011497 0.23048489 -0.044790603 0.07620379
0003b0 c4 0f 14 3e 09 58 5e 3d 03 43 9e 3e be 03 4d bd
       0.14459139 0.054283176 0.309105 -0.050052397
0003c0 5f 01 f9 bd f3 6d 8a bd 47 d3 9e bc 50 42 0c bd
       -0.12158465 -0.067592524 -0.019387854 -0.034242928
0003d0 90 5e 78 bd 8d ce f3 3d bb 36 17 3e fe 0b a1 bd
       -0.060637057 0.11904631 0.14766972 -0.078636155
0003e0 1c fa db 3d 75 dc 94 3d 33 8b 8c 3d e7 f4 b4 bd
       0.10741064 0.07268611 0.06862488 -0.08835774
0003f0 4e be 03 3e d1 23 30 bd dd cf 4f bd af e9 a4 3d
       0.12865564 -0.043002907 -0.050735343 0.08052384

layers.1.bias f4 [50]
000000 19 9b b1 39 55 c8 4d 3e b1 75 29 3e a7 8e a9 3c
       0.00033875628 0.20095952 0.16548802 0.020697905
000010 20 69 48 3d 1e 81 57 3d 46 ef a4 3e fd cd 3f 3e
       0.04892838 0.05261337 0.322138 0.18730922
000020 df 60 d0 3d 3a a3 85 bb a1 17 bb 3c ce 8d 88 3c
       0.10174727 -0.004078296 0.022838416 0.01666918
000030 00 7a 87 3c fb 97 ec 3d ef 82 cd 3d 0a 74 26 3e
       0.016537666 0.115524255 0.10034739 0.16255203
000040 00 b1 d2 3d fb 83 0d 3e 12 77 b3 bc aa 60 13 3d
       0.10287666 0.13819878 -0.021907363 0.035980858
000050 8c b4 1d 3d 48 cd e6 bb ca f8 30 3e c2 bd 47 bd
       0.03850226 -0.0070435144 0.17282405 -0.04876495
000060 e2 b6 15 3e e5 c3 0f bd fb 3a 85 bc d0 b7 de 3c
       0.14620546 -0.03509893 -0.016263476 0.027187258
000070 16 6b 3b 3d 68 21 37 3e 20 61 36 3e 76 23 a7 3d
       0.045756422 0.17883837 0.17810488 0.081610605
000080 e2 89 e8 3d a7 d2 22 3e 57 e2 37 3e 89 db 46 3e
       0.11354424 0.1590067 0.17957436 0.19419684
000090 3f 1b 52 3d c4 92 41 3e f1 37 b3 3d 71 ad 47 3e
       0.051295515 0.18903643 0.08750904 0.19499756
0000a0 fe 91 83 3d a2 9c d4 ba 6c f6 48 3e be be 64 3e
       0.0642433 -0.0016220997 0.19625252 0.22338387
0000b0 86 49 09 3e 5a c8 d7 3d da d6 d0 bd e9 ac 0d 3e
       0.13406953 0.10536261 -0.1019723 0.13835491
0000c0 83 0c 02 3e e2 b5 80 3e
       0.12700085 0.25138766

emb_layer.weight f4 [2, 50]
000000 ae 54 98 3c 2b a1 96 3d 9c d6 fb 3c eb cc a8 3d
       0.018595066 0.07354959 0.030741982 0.0824221
000010 e5 a6 88 3c c0 3c 2a 3d 4b 31 30 3e d5 e3 a3 3d
       0.016681144 0.041561842 0.17206304 0.0800244
000020 58 6c fc 3d 08 d9 44 bd 5b 6c 04 bd 89 9d d5 3b
       0.123253524 -0.04805854 -0.0323299 0.006519024
000030 af c8 75 3d 7a 10 91 3d 07 41 e7 3b 20 8a 0e be
       0.06000584 0.07083221 0.0070573124 -0.13919878
000040 e9 8e bc bd fc f4 73 bd 55 1f 24 bd 27 86 55 3d
       -0.092069454 -0.059559807 -0.040068943 0.05212989
000050 ca 58 9b bd ac 29 72 3c 39 23 2b 3b 89 b8 4c bd
       -0.075852945 0.014780443 0.0026113524 -0.049980674
000060 38 38 8c 3d 47 8c 26 3d 4c 95 84 3d 0d e7 ff 3d
       0.068466604 0.040661123 0.064737886 0.12495241
000070 24 42 06 be 4b 47 11 bd dc 85 b0 bd 7e 8f 0d 3e
       -0.13111168 -0.03546838 -0.08619282 0.13824269
000080 dc c0 23 bd 12 4a d1 3d 42 9a 11 bc 8f 37 08 3e
       -0.039978847 0.10219206 -0.008886876 0.13302444
000090 59 b5 69 bc 2c e1 ac bc 3b 4e 5e 3d aa fa c5 3c
       -0.014264428 -0.021103464 0.054273825 0.024167378
0000a0 9b 50 fe bc ba de 8d bd 19 71 80 3c 52 32 d4 bd
       -0.031044295 -0.06927247 0.01567893 -0.1036116
0000b0 c9 13 5e bc 09 5e 86 bb aa d1 25 3c c5 4c 1e 3e
       -0.013554522 -0.0041005653 0.010120789 0.15458973
0000c0 0e c9 09 3e 71 a0 8a 3d 82 35 86 3d 8b 24 98 3d
       0.13455603 0.06768883 0.065531746 0.07428845
0000d0 60 5f 03 bd f3 1c a3 bd e1 eb d8 bc 14 67 ab 3d
       -0.03207338 -0.07964506 -0.026479663 0.0836927
0000e0 11 7b 36 be b8 d9 fd 3c 59 34 89 ba 6d d5 44 3d
       -0.17820384 0.030987605 -0.0010467871 0.0480551
0000f0 6f fc 23 bd 17 11 c8 3c 93 8d 0c bd 27 de 43 bd
       -0.04003566 0.024422212 -0.034314703 -0.047819283
000100 f7 2d a2 3c f3 e2 8c bd ce 2d 47 3d 39 04 95 3d
       0.019797308 -0.06879225 0.048627667 0.07276196
000110 bc 43 e5 3c f3 0f d8 bb b6 5e a4 bd b9 1f d7 3b
       0.0279864 -0.006593698 -0.08025877 0.006565061
000120 3d fa 9f bc 95 2c dd 3b ef ce a3 bd df f7 09 3e
       -0.019528503 0.0067496994 -0.07998454 0.13473462
000130 7d 23 a2 bb 2d 5f 84 bc 99 7b 26 3e 4c f7 88 bd
       -0.004948078 -0.016158665 0.16258086 -0.06687793
000140 f9 b8 81 3c 14 c6 7b bd 6d 9c c6 3c 98 86 f2 bd
       0.015835272 -0.0614682 0.024244512 -0.11842078
000150 54 e3 23 3e 75 66 e5 bd 7d d4 ad 3c 46 cf 2e be
       0.16004688 -0.11201183 0.021219486 -0.17071256
000160 08 f3 3a bd b7 ef c1 3d ca c4 04 bd 1a 34 e8 bc
       -0.04564193 0.0946955 -0.032414235 -0.028345156
000170 ae d3 46 3d 8f 88 a6 3d da 05 8f bc 8c db cd 3d
       0.048541717 0.08131515 -0.017458845 0.10051641
000180 e1 ac 69 3d 61 2d ec bd a0 fc 9c bd 6c 19 f3 bd
       0.057049636 -0.11532093 -0.07665372 -0.11870083

emb_layer.bias f4 [2]
000000 bf f5 50 bc 2f 4e 6a bd
       -0.012753903 -0.057203468

class_layer.weight f4 [10, 50]
000000 14 03 6d b7 42 8b ef bd 86 c1 86 3d 5a 2f 04 be
       -1.41270175e-05 -0.11696483 0.065798804 -0.12908688
000010 c5 02 28 3e 4e 07 35 be 82 58 8e be dd d9 66 3d
       0.16407306 -0.17678568 -0.278019 0.056360114
000020 35 e8 9f be bc 56 00 3e 80 3b c1 bc 30 7c b2 be
       -0.31231847 0.12533087 -0.023587942 -0.34860373
000030 89 d5 54 be e0 74 e2 be 3a db 86 3c 23 74 8c 3e
       -0.20784582 -0.44229794 0.016461957 0.27432355
000040 a5 52 01 3e b8 68 4f 3d 7c 28 7a be 5f 1f d1 3d
       0.12629183 0.050636977 -0.24429506 0.10211062
000050 cf c6 38 3e 8e f2 be 3e 95 5a 88 3d bb cc 87 bc
       0.1804459 0.3729443 0.06657902 -0.016577115
000060 b7 27 4c 3e 09 75 e5 3c f3 eb eb 3d 29 19 85 3e
       0.19937025 0.028009908 0.11519613 0.25995758
000070 bb 06 05 be 1c 44 a4 bd 69 42 d6 bd f0 63 39 3d
       -0.12990849 -0.08020803 -0.104618855 0.045261323
000080 e4 73 78 3e e1 c1 d8 3d b8 db 3f be ad c2 eb bd
       0.24262959 0.105838545 -0.1873616 -0.11511741
000090 b0 64 b6 3d ed f3 8a bd cd 76 84 3d a7 33 9d be
       0.08905923 -0.067848064 0.06467972 -0.3070347
0000a0 04 19 a0 bd 52 cd 5e 3d f1 c5 99 be 73 b1 e0 3e
       -0.07817271 0.054395027 -0.3003383 0.43885383
0000b0 99 8e 63 be 90 b2 3c be aa cf 33 be 33 9b b8 3d
       -0.22222365 -0.18427491 -0.17559686 0.09013977
0000c0 c7 0d d6 3d 71 f9 ad be ae 68 ae 3c 93 8d 7d 3e
       0.104518466 -0.3397937 0.02129015 0.24761038
0000d0 67 f7 90 3c f5 53 b6 3d ce 36 aa be c6 cd d4 bc
       0.017696096 0.08902732 -0.33244938 -0.025977027
0000e0 4c a6 3f 3d 09 4b 51 3e 8e 88 4a 3e 02 20 c6 bd
       0.046789452 0.2043878 0.19778654 -0.09674074
0000f0 93 84 d4 3b 0e 9c 69 be a2 97 8a 3e 87 b7 75 3e
       0.0064855306 -0.22813436 0.27068812 0.23995791
000100 61 82 77 be 5b 6b cc bd 70 2e 68 bd 25 80 27 be
       -0.2417083 -0.09981414 -0.05668491 -0.16357477
000110 72 7e 91 3e 17 a8 48 be 8e 2e 66 be 0b d5 68 be
       0.28416783 -0.19595371 -0.22478697 -0.2273752
000120 26 91 a1 bd 59 90 10 3d 02 44 94 bd 67 e6 c2 bc
       -0.07889013 0.03529391 -0.07239534 -0.023791505
000130 d0 24 b8 3c b4 5c b0 be cd 41 dd bd 5b ba d6 bb
       0.022478491 -0.34445727 -0.10803566 -0.006552977
000140 38 d5 c7 3d 66 40 16 bd 5d 78 57 be 55 f9 4d 3d
       0.09757465 -0.03668251 -0.21042009 0.05028661
000150 b5 d9 0c bd ae 9a f8 bc 0f 57 40 3d 26 8e 9d bd
       -0.03438731 -0.030347195 0.046958026 -0.07693128
000160 d1 91 4b be ea 95 2c 3e 89 61 b6 3d da 86 73 bd
       -0.19879843 0.16854063 0.08905322 -0.059454776
000170 9e 76 94 3e bc 75 00 be 98 f6 fa bd 7a 54 63 bd
       0.28996748 -0.12544912 -0.12254065 -0.055500485
000180 0a bd f4 3d e0 f2 4c be 2b 87 b1 bd 40 d4 f9 bc
       0.11950119 -0.20014524 -0.08668359 -0.030496716
000190 e0 fc f6 bd ce c2 1a 3e 57 4b 40 3e 25 46 84 3e
       -0.12059951 0.15113375 0.1877874 0.25834766
0001a0 04 f5 5e be aa 7c a4 3e fb 10 87 3d a0 be e4 be
       -0.21773154 0.3212636 0.06595036 -0.44676685
0001b0 6a dc 72 be cf 5d ac 3e 68 b5 b9 bd 74 eb 6c 3e
       -0.23716894 0.3366532 -0.090678036 0.23136693
0001c0 02 12 03 be fd 07 3c 3e b2 08 d5 be c9 6e a0 bd
       -0.12799838 0.18362422 -0.41608196 -0.078336306
0001d0 7b 2f 5c ba e9 2a 4e 3e de ce c1 be 91 31 4f 3e
       -0.0008399409 0.20133556 -0.3785314 0.20233752
0001e0 d9 77 af 3e 24 70 ad be 44 0e af 3c d5 96 07 3e
       0.34271124 -0.3387462 0.021369107 0.13241132
0001f0 28 e0 28 3e 79 32 1e be fa bc 9f be b7 1d 61 3d
       0.16491759 -0.15448941 -0.31198865 0.05495998
000200 36 10 77 3d a7 d8 59 bc d8 ff 90 3d f1 93 e7 3d
       0.060318194 -0.013296283 0.07080048 0.113075145
000210 83 b9 42 3e 96 1f 22 3e 81 71 6c 3e a1 35 41 3e
       0.1901608 0.15832362 0.23090173 0.18868114
000220 c7 15 dc bd 75 ed 1d 3d 72 97 69 be 7a 17 46 be
       -0.10746341 0.038556535 -0.22811678 -0.19344893
000230 db 4a c6 be f8 56 9e 3e fa e3 c8 3d 5b a2 92 be
       -0.38728985 0.30925727 0.09809108 -0.28639492
000240 ed fa a3 be 5f 42 9a 3e 67 67 41 3c 7f c6 5b 3d
       -0.3202738 0.30128762 0.011804438 0.053656098
000250 af d9 e5 bd bc 9a 90 3d 2d 4b dd 3d c7 d4 ae be
       -0.112231605 0.07060763 0.10805354 -0.3414671
000260 03 dd af 3e fe e2 3b 3d 8d 1a 61 bb 10 bb 19 3e
       0.34348306 0.045870773 -0.00343481 0.15012765
000270 0b 19 11 be 6b 8e b1 be 60 c1 6c bd 48 7b 3c be
       -0.1416971 -0.3467897 -0.057801604 -0.18406403
000280 f5 45 5b 3e 90 b9 a7 3e f9 5c 4d be a1 99 02 3e
       0.21413405 0.3275876 -0.20054998 0.12753917
000290 2d c9 46 3e 6a 08 64 be 54 e9 78 39 f9 73 21 bd
       0.1941268 -0.22268835 0.00023738045 -0.03941724
0002a0 96 fb 50 3e 2c 08 fd be be 7a 9b 3e 2a a8 0a be
       0.20408472 -0.49420297 0.30367082 -0.13540712
0002b0 de b5 12 3e a4 19 1d be 2b 94 b1 be 47 fa 11 3e
       0.1432719 -0.15341812 -0.34683356 0.1425563
0002c0 e5 72 7d be f1 3b 66 be c7 7b 37 bd b3 a3 3a be
       -0.2475086 -0.22483803 -0.044795778 -0.18226509
0002d0 32 83 52 bd 66 9d 80 bd 38 8b 81 3e 73 ee c3 bd
       -0.05139465 -0.06280021 0.25301528 -0.09566965
0002e0 97 a6 6c be 7d de 63 3e 71 1e 95 3e 2c e9 85 3d
       -0.23110424 0.22252841 0.29124787 0.06538615
0002f0 8a d9 2a be 07 4d af bd 76 36 01 be bc 2f 17 be
       -0.16684547 -0.08559614 -0.12618431 -0.14764303
000300 11 00 74 3e f7 19 72 be 30 28 5d 3e 23 67 ce bd
       0.2382815 -0.23642717 0.21597362 -0.100782655
000310 c4 e3 2d 3a 51 b8 86 bc a2 3b 12 3e 8f 12 a4 3e
       0.0006633366 -0.01644531 0.1428056 0.3204541
000320 44 7a 85 be 20 60 a6 3d 8f dc 97 be e5 28 ae be
       -0.26069844 0.08123803 -0.2966046 -0.34015575
000330 4d cb 03 be 05 72 31 be 59 89 b5 3e 4d ee 53 3e
       -0.12870522 -0.17328651 0.3545635 0.20696373
000340 df b4 18 be da 96 1b bd 5f c0 61 be 04 54 7d be
       -0.14912747 -0.03798566 -0.2204604 -0.2473908
000350 6a 91 2b be 0f c6 28 be e8 20 05 be 06 18 ab be
       -0.1675469 -0.16481803 -0.13000834 -0.33416766
000360 15 93 98 be a2 87 fe bd 0c 1a 26 3e 3a 05 5a 3d
       -0.29799715 -0.12428214 0.16220874 0.05322764
000370 d0 17 a6 3c 22 d3 01 3e 67 64 d2 3d 5d 9e a3 3e
       0.020275027 0.12678197 0.102730565 0.3195676
000380 3e f8 9d 3e c5 2f 8b ba fd 3f 78 be e3 11 38 3e
       0.30853456 -0.0010619095 -0.2424316 0.17975573
000390 32 ea 5d be 4e cd 90 bd 2a 2e 3f 3e b2 a6 c1 3d
       -0.2167137 -0.07070409 0.18669954 0.09455623
0003a0 85 90 62 be 34 82 4a 3e 42 b7 39 be 97 00 03 be
       -0.22125442 0.19776231 -0.18136314 -0.12793194
0003b0 35 6a 10 be 91 d5 dc 3d fc 2e 0b 3f 43 7d b6 3e
       -0.14103015 0.10782922 0.5436857 0.35642442
0003c0 5f 45 81 bd 75 d3 b1 bc c9 2a 3e bd 08 e7 ea 3d
       -0.063120596 -0.021707276 -0.04642752 0.11469847
0003d0 65 a1 f9 3c 44 09 b6 3e 2b 4b 18 3d 6b 1b 01 3e
       0.030472467 0.35553944 0.03718106 0.12608115
0003e0 db 81 ab 3e c9 ae e6 3c f8 30 5d 3e e6 98 56 be
       0.3349751 0.028159516 0.21600711 -0.20956764
0003f0 1c 61 8f 3d 0e 5d af 3b 54 30 2a 3e fa c6 d4 bd
       0.07000944 0.005351669 0.16619998 -0.10389514

class_layer.bias f4 [10]
000000 03 1c 65 be c5 60 d3 3d bc eb 67 3d 18 3e 25 3e
       -0.22373967 0.10321192 0.0566213 0.16136968
000010 f8 40 ff bd 45 39 89 3d a7 db f4 3d 15 01 f9 bc
       -0.12463564 0.067003764 0.11955958 -0.030396024
000020 bc 83 75 3d 50 8f ae bd
       0.059940085 -0.085234284
