notebooks/paper-plots/models/w0.99.pt (torch, 339531 bytes, 8 tensors)

layers.0.weight f4 [100, 784]
000000 dc 79 0e bd ac c5 ea bc a0 5d 52 3c 12 9f e6 3c
       -0.034784183 -0.02865871 0.012839705 0.028152023
000010 e8 6e 18 3c 6c eb ae 3c cf 54 04 bd 50 62 81 bb
       0.009303786 0.021352492 -0.032307442 -0.0039484873
000020 b5 54 f6 bc e0 2d ad ba dc 7d 16 3c 48 cc c4 3c
       -0.030069688 -0.0013212524 0.009185281 0.02402319
000030 ea 17 2e bc e7 78 a1 bc 80 e2 d8 39 c3 d8 10 3d
       -0.010625819 -0.019710971 0.00041367486 0.03536297
000040 e0 03 cc 3c 6a 70 e9 bc 40 3e e9 3b 32 a4 63 bc
       0.024904191 -0.028495986 0.0071180165 -0.013894128
000050 6c 44 90 3c 60 9a 27 bb 43 83 d2 bc 2a 49 e3 bc
       0.017610751 -0.0025574192 -0.025697356 -0.027744848
000060 62 26 da 3c dc 9d f1 bc 34 0a 17 3c 70 84 f2 3b
       0.02662963 -0.029494219 0.009218741 0.0074010417
000070 0a 93 99 3c fa 43 ca 3c 7a b6 c2 3c 38 8f 8e bb
       0.018746872 0.024690617 0.023768652 -0.004350569
000080 00 90 55 bc 68 95 47 3c 83 1f 81 bc 66 56 b4 3c
       -0.013034821 0.012181617 -0.015762096 0.022013854
000090 35 b4 8a bc 8e 74 7e 3c 7a cb 94 3d e3 3c 4e 3b
       -0.016931633 0.0155307185 0.072653726 0.0031469397
0000a0 68 8d 2d bd 7c 0f 76 bc 91 27 70 3c 8f 90 09 bd
       -0.042371184 -0.01501834 0.014657871 -0.033585127
0000b0 a0 08 29 bd d8 a7 5b bd c2 e0 d6 bd 83 ba 78 3c
       -0.04126799 -0.053626865 -0.10492088 0.015181187
0000c0 49 a1 85 3d 31 26 fe bb cb 96 5d 3a a8 f8 ee bc
       0.06524903 -0.0077560176 0.0008452951 -0.029171303
0000d0 0e 48 3e bc 0c 81 a3 3c 6c 55 e1 bc ea ae ae bc
       -0.011613859 0.019958995 -0.027506553 -0.02132364
0000e0 b8 c6 e5 bb f8 c9 77 3c 00 7c ec bb e0 84 4e bb
       -0.0070122145 0.015123837 -0.0072169304 -0.0031512305
0000f0 15 2e 00 be 70 a6 91 bd e0 bc 12 3e 00 c5 62 bd
       -0.12517579 -0.071118236 0.14329863 -0.055363655
000100 34 d5 2f bd 4f 67 b2 3c ee 5a 00 3d 3c 20 18 3d
       -0.042927936 0.021777777 0.031336717 0.037140116
000110 77 83 62 3d 54 1f ff 3c 98 9b 14 3c 73 be fe bd
       0.055301156 0.031142868 0.0090703 -0.12438669
000120 c6 9f 62 bc 3e d9 ea 3c 93 19 a3 bd 39 d6 22 bd
       -0.013832038 0.028668042 -0.07963862 -0.03975508
000130 8b eb 45 bc f9 a1 9c 3c 8a bf 6e 3d 1f 47 f1 bc
       -0.012080084 0.019120203 0.058288135 -0.029452858
000140 34 76 76 bc 12 bc b4 3c 9c ee 8a 3c 4c 4d d4 bc
       -0.01504283 0.022062335 0.016959481 -0.025915764
000150 f0 84 e3 bc c0 3a 1b 3a b2 17 e8 3c 9c a5 22 bc
       -0.02777335 0.0005921535 0.028331611 -0.00992718
000160 3b 47 d1 bd f2 38 20 bd 48 fa 83 bd 4a 20 24 bd
       -0.10218664 -0.039116807 -0.06444222 -0.040069856
000170 17 30 80 3d 36 0c 63 3a 7d de 3a bd 1f 65 9b bc
       0.062591724 0.00086611824 -0.045622338 -0.018969117
000180 56 3a cf bd f5 f1 88 3c 95 a2 fa 3d af 0b d8 3c
       -0.101185486 0.016716937 0.12238041 0.026372759
000190 ab f7 8c 3d b2 5f a8 bc 16 91 89 bc 0a 0a 85 3c
       0.068831764 -0.020553444 -0.016792815 0.016240139
0001a0 30 2c a9 3c 93 67 27 3c 6a bd 29 3e b8 32 80 3d
       0.020650953 0.010217565 0.16576162 0.06259674
0001b0 27 e4 81 bd 6a 99 db bc 5c 0d b9 bb 84 bd 51 3c
       -0.06342345 -0.026806552 -0.0056473445 0.012801532
0001c0 cc 12 82 bc c8 e9 9c 3c 2a 77 93 bc 4f 9b 00 bd
       -0.015878104 0.019154444 -0.018001158 -0.031398114
0001d0 e0 8a fd bc cd 66 b6 bc 57 fe 74 bd 63 92 66 bd
       -0.03095001 -0.022265816 -0.05981287 -0.05629195
0001e0 82 7c 64 bd 60 30 69 bc 5e a0 3d bd 0f c1 41 3c
       -0.055782802 -0.014232725 -0.046295516 0.011825814
0001f0 a9 b9 85 3d 8c 3e 9f bd 8a 3e 27 3c ac 5f 7e 3c
       0.065295525 -0.07775602 0.010207782 0.01552574
000200 10 0f 0a be 32 89 9a bd 71 e1 34 bc b2 bd 75 bd
       -0.13482308 -0.07545699 -0.011040078 -0.05999536
000210 97 fa 16 bd fe 20 44 bc 69 c7 72 3c dd ef ca 3b
       -0.036860075 -0.011970757 0.014818051 0.0061931447
000220 ba 05 b1 bc 38 a6 a9 bb 64 09 b0 bb dc 7d 8b 3c
       -0.021609176 -0.0051772855 -0.005372213 0.017027788
000230 38 f8 f1 3b 88 b6 21 3c 7f cb 5a 3c da 59 29 3e
       0.0073843263 0.009870179 0.013354181 0.16538182
000240 e2 4b 7e 3d 7f ab b7 bc e4 39 8d bd 9c a8 b5 bd
       0.062084086 -0.022420643 -0.068958074 -0.0887005
000250 fd 06 9c bd f5 bf 0f be 72 af 93 bd c1 4d e3 3c
       -0.076185204 -0.1403807 -0.07211198 0.027747037
000260 82 e1 bd 3d d2 d8 5c 3c 0f 0e e4 bb ec 58 e0 bd
       0.09271528 0.013479428 -0.0069596837 -0.109544605
000270 65 94 0d bd 1f 73 97 bd 99 d4 40 3c be a9 27 3d
       -0.03456535 -0.073950045 0.011769437 0.040933363
000280 9a a3 0b bc f6 e1 7a 3c 61 ac a4 3d 98 2f 41 bd
       -0.008522892 0.015312662 0.08040691 -0.04716453
000290 4e 19 3d bd 6c 17 08 bd 95 fb c1 3c a2 cb 8e 3d
       -0.04616671 -0.03322546 0.023679534 0.069724336
0002a0 b2 b7 0d bc b6 33 c7 3c 43 8e 85 3c 19 8c 31 3d
       -0.008649753 0.02431665 0.016303187 0.0433465
0002b0 c5 07 bc 3d a8 47 6e bc 75 a4 1f be 39 92 a7 bd
       0.091811694 -0.014543451 -0.15590079 -0.08182187
0002c0 50 53 5d bd 33 46 99 bd 73 a3 00 be 63 46 fb 3c
       -0.05403453 -0.074840926 -0.12562351 0.030673211
0002d0 59 60 d4 3d 1e 16 a5 3d 0e e0 e5 bb 15 f8 50 bd
       0.10369939 0.08060859 -0.007015235 -0.05101784
0002e0 5c be b1 bb fa 3a e0 bc fe 03 e2 3b 59 86 06 bd
       -0.005424304 -0.027371872 0.0068974486 -0.032842968
0002f0 02 da 1f bd 1f 62 35 bd f8 d9 af bd 98 4a 34 be
       -0.039026268 -0.04428303 -0.08586496 -0.1760658
000300 a8 95 8a be af 0e 5a be ec 3c 2b 3d ad d7 6a 3d
       -0.27067304 -0.21294664 0.041806147 0.05733459
000310 33 81 b8 bc c7 a5 d0 bc 5c da dd 3c 48 a6 f1 3c
       -0.022522544 -0.025469674 0.02708166 0.029498234
000320 6a 30 b8 ba 22 3f 11 bd c8 8b b8 bd 4a a4 15 bc
       -0.0014052514 -0.0354606 -0.09011036 -0.009133408
000330 92 19 4a bd 1e ec ba bd 30 b7 5e 3b 5a 17 35 3c
       -0.049340792 -0.09127067 0.00339837 0.011052931
000340 61 b1 ef 3d 28 4a ec 3b 30 42 91 bc 61 ed 72 3d
       0.11703754 0.0072109886 -0.017731756 0.059308413
000350 f3 a8 43 3d 1b 67 8a 3c f0 ce e1 bc 3a db 83 bc
       0.047768544 0.016894868 -0.027564496 -0.016095746
000360 96 47 02 bd 5d 00 8d bd bb 8b 0f be 38 0e 6e be
       -0.03180655 -0.06884835 -0.14018147 -0.23247612
000370 e8 e6 54 be 47 4e 14 be dc dd 04 be ae 82 07 bd
       -0.20791209 -0.14482985 -0.12975258 -0.03308361
000380 70 89 56 bd 7e 9a 51 bd 1e e0 b2 bc ec 6f 81 3d
       -0.052377164 -0.051172726 -0.021835383 0.063201755
000390 3d 72 d5 bb 54 9c 9f bb 0a b1 02 bc 7e e1 da ba
       -0.0065138624 -0.0048709307 -0.00797678 -0.0016699282
0003a0 60 b3 7e 3c d7 d8 06 bd d8 b2 05 bd a3 f5 71 3d
       0.015545696 -0.03292164 -0.03264126 0.059072148
0003b0 02 e7 5b 3d 0c 44 c8 3d 10 27 e9 bc a9 16 7d bc
       0.053687103 0.09778604 -0.02846101 -0.015447297
0003c0 9e be b4 bb e7 27 d5 3c c6 d8 dc bb b3 14 e3 bc
       -0.0055158874 0.026020003 -0.0067397086 -0.027719831
0003d0 b6 7e 74 bd 64 59 f1 bd dc 85 fb bd bc ab 0a be
       -0.059691153 -0.11784628 -0.12281391 -0.13542074
0003e0 d4 7f 1f be 15 30 bb bd 34 d7 54 3c 00 a3 2c 3d
       -0.15576106 -0.0914003 0.012990762 0.042147636
0003f0 1a b7 70 bb 35 51 17 be e4 9d 9e bd 97 a9 04 bd
       -0.003673023 -0.14777072 -0.07744959 -0.032388296

layers.0.bias f4 [100]
000000 03 7d 7e 3e c2 aa 5c bc 05 ff eb 3c 61 78 a3 3c
       0.24852376 -0.013468446 0.028808126 0.019954862
000010 16 92 26 3e 6a ea 09 3e 0f ec ab 3d 6a 19 82 3d
       0.16266665 0.13468328 0.08394634 0.063525036
000020 7f 03 83 3d 3a 5d 30 3d 6c b0 ee bb f5 38 29 3d
       0.06397151 0.043057658 -0.0072842147 0.041314084
000030 3e 10 14 3e f0 18 cc 3c da 23 3f 3d 2a 9a 4d 3d
       0.14459321 0.024914235 0.04666505 0.05019585
000040 b3 90 5c 3d 15 3b 83 3e c4 26 07 3e 9a de 98 3d
       0.053848933 0.25631014 0.13198382 0.07464333
000050 81 0b 83 3e 99 d8 92 bc ca f8 4a 3d 20 51 e8 3c
       0.25594714 -0.017925547 0.04955367 0.028358996
000060 03 2f 73 3d fc 45 1a 3d 68 c7 36 3d 43 8e 71 3d
       0.059371006 0.0376644 0.044623762 0.058973562
000070 fa c6 60 3d a0 97 23 3e e7 35 b7 3d 58 3c 50 3e
       0.05487726 0.15975809 0.08945828 0.2033552
000080 51 7f 0c 3d 6f 80 44 3d 72 a9 c6 3d 5d 5f e3 3d
       0.034301106 0.047974046 0.09700288 0.111021735
000090 5c 9c 4a 3d 12 3d cd 3c 69 3a 38 3d 0b 3e d7 3d
       0.049465522 0.025053535 0.04497758 0.10509881
0000a0 20 60 e7 3d b2 4d 25 3e 7f 96 ad 3d 99 de c0 3e
       0.11297631 0.1614292 0.084759705 0.3766983
0000b0 38 f9 db 3d b0 b4 54 3e ba 1f 84 3c 82 47 6a 3d
       0.10740894 0.20772052 0.01612841 0.0571971
0000c0 fa d4 19 3d 31 a4 11 3e 0f 8b 14 3e 8f 86 63 3d
       0.037556626 0.1422279 0.14506172 0.055548247
0000d0 bf 4d c9 3c 0c 48 23 3e 2d 16 67 3c ba 97 42 3e
       0.024573205 0.15945452 0.014104408 0.19003192
0000e0 65 1f aa 3d 48 9f 85 bc 17 c8 71 3d bf c1 06 3d
       0.08306769 -0.016311303 0.05902871 0.032899614
0000f0 28 61 da 3d 8b 9d 6a 3c 80 14 bf bb ed a7 50 3e
       0.10663062 0.014319788 -0.005831301 0.20376559
000100 13 58 36 3e 65 1a 48 3d c9 54 9e 3d 52 2d 8d 3c
       0.17807035 0.048853297 0.07731015 0.017233524
000110 9f eb db 3d ce 77 cd 3d 00 29 51 3d 38 b8 27 3e
       0.107383005 0.100326166 0.05106449 0.16378868
000120 b3 f3 18 3e a6 32 93 3b 00 14 7b 3c 37 90 91 3c
       0.14936714 0.0044921217 0.015324593 0.017768962
000130 dc 91 2e bd d7 26 68 3d 14 1c 0a 3e 37 9a 15 3e
       -0.04261957 0.056677666 0.13487273 0.1460961
000140 31 a5 c6 3d 9c 19 7f 3d 93 5d 1f 3e cd 7d 10 3e
       0.096994765 0.062280282 0.1556304 0.14110489
000150 0e f9 4a 3d 2e 90 82 3d c3 71 c9 3d f4 02 8f 3e
       0.049553923 0.06375156 0.098361515 0.2793194
000160 ab 8c 81 3e 15 ce 5a bd 65 f3 f7 3d 7f 71 6b bd
       0.25302634 -0.05341919 0.12106971 -0.057481285
000170 bf 4e 80 3d 3f 90 ae bd ab 45 6f 3d 6b f3 0a be
       0.062650196 -0.085236065 0.05841605 -0.13569419
000180 58 9c dd bc 7e 2b 23 3d d8 36 d0 3e 28 38 dd 3d
       -0.02705209 0.0398364 0.40666842 0.108017266

layers.1.weight f4 [50, 100]
000000 1e 2a b2 bd 6d b5 a7 bd bf 4f 44 bd 00 b8 61 3d
       -0.086994395 -0.08188901 -0.047927614 0.055107117
000010 d9 c4 71 ba 0f 29 a4 bc cd 59 a6 bc ad 37 ed bd
       -0.0009222753 -0.02003911 -0.020306492 -0.11582885
000020 c4 fd a6 bd bf 4c a9 bd ec d5 2a be e5 d3 01 bd
       -0.08153871 -0.08266591 -0.16683167 -0.03169622
000030 f4 68 8a 3d 61 26 19 3d de 5c dc 3d 68 f5 54 bd
       0.067582995 0.037390117 0.107599005 -0.05199185
000040 f3 88 02 bd 1d 01 e1 3d 10 e4 16 be c4 be 9b bd
       -0.031868886 0.109865405 -0.14735436 -0.07604745
000050 df c8 5f bd 6d d6 11 3c 2d 4e b0 bd 32 21 ab 3c
       -0.054634925 0.008901221 -0.08608661 0.020889852
000060 3f df 64 bc ce 7d fb 3b 3e 33 55 bd fa ed f6 bd
       -0.013969242 0.007674909 -0.05205082 -0.12057109
000070 30 74 0a 3d 12 43 ad bb ca e8 9f bd 02 6d 1c bd
       0.03380221 -0.0052875364 -0.07808073 -0.038189895
000080 46 77 1e bd b2 ad ca bd 9a 30 d9 bd 41 d0 ae bd
       -0.038687967 -0.09896411 -0.10604973 -0.08535815
000090 65 1a 09 3d 8f 0b ca bd e4 e9 99 3d 4d 0d a0 bd
       0.033472437 -0.09865486 0.07515314 -0.07815037
0000a0 85 cd 06 3e 32 eb 30 3e 3e d7 a5 bc 0f 23 38 bd
       0.13164337 0.1727722 -0.020244237 -0.04495531
0000b0 3d 01 8a bd b6 2d 25 3d 42 b7 9e 3d 87 f4 31 3d
       -0.067385174 0.040326796 0.077497974 0.04344609
0000c0 21 63 66 3d 1e 65 15 bd 92 d4 9c bd b8 da 38 bb
       0.05624688 -0.036473386 -0.07657732 -0.0028206538
0000d0 0a 91 07 be 36 dd be bd 1a 69 89 3d a9 d5 a3 bd
       -0.13238922 -0.093195364 0.067095 -0.07999737
0000e0 2b 76 c1 bd bb 7b 24 3d 50 48 48 bd c4 1d fa bc
       -0.09446367 0.04015706 -0.048897088 -0.030531771
0000f0 da 53 93 bd 8e 35 0f bd 46 d9 d9 bd d4 e6 5b 3d
       -0.07193728 -0.034963183 -0.10637145 0.05368693
000100 17 fb 9b bd a8 c3 80 bd 7b 82 83 bd a6 ee bc bd
       -0.07616251 -0.062873185 -0.064213715 -0.09225206
000110 ce 80 1e be 1f 03 a3 bc 97 ee 88 bd c0 50 82 3d
       -0.15478823 -0.01989895 -0.066861324 0.06363058
000120 b2 78 fe bc 83 45 4e bd 6f 20 e5 bd a8 c2 63 3c
       -0.031063411 -0.05035926 -0.11187827 0.01390139
000130 66 51 a3 3c 9b 6d 33 3d ed 10 93 bd e6 7a 98 3d
       0.019936275 0.0438057 -0.07180963 0.07445316
000140 c2 37 c7 bd 53 b3 2e bd fd f7 2b 3d 23 ea bf bb
       -0.09727432 -0.042651486 0.041984547 -0.0058567687
000150 61 b1 e0 3b 41 99 ce bd 9c ab 82 3d a0 74 17 3d
       0.0068570827 -0.100878246 0.06380388 0.036976457
000160 8a 1f aa bc ff df 87 3b 5b 0a 29 bc dd fe 8b bc
       -0.020766992 0.0041465755 -0.01031741 -0.017089302
000170 27 3a 83 bd 32 1b b4 bc 95 33 da bd ba 0b 01 be
       -0.06407576 -0.021985624 -0.1065437 -0.1260213
000180 66 d7 cc bd 7c 66 75 bd 4a 4c c0 3d 27 f6 c6 3d
       -0.100020215 -0.05991219 0.09389551 0.097149186
000190 9b 46 91 bd 3d cd 8d 3c 51 e6 6b bd d5 60 73 bd
       -0.07093545 0.01730978 -0.057592694 -0.059418518
0001a0 97 92 45 bd a0 4d 8e bd 8c 9e 8f bd 78 26 b9 bd
       -0.048235502 -0.069483995 -0.07012662 -0.090405405
0001b0 47 66 f5 3d 16 6a 94 bd 9b f2 c4 bc d6 7f 95 bd
       0.119823985 -0.07246797 -0.024041465 -0.072997734
0001c0 9d dd 78 bd 64 63 82 bd a9 c0 72 3d a9 fb 2d 3c
       -0.060758222 -0.063666135 0.059265766 0.0106190825
0001d0 11 60 a1 bc 84 17 dc bc 02 1a e5 bc 9c ee 1c 3d
       -0.019699128 -0.026866682 -0.027966503 0.038313493
0001e0 0a 88 1d be a6 9d 2a 3d 0f c2 c9 bc b7 8d 92 3c
       -0.15383926 0.04165425 -0.024628667 0.01788984
0001f0 3a 10 f7 bc 35 60 ff bd 5a 5f 8d bc a1 47 63 3d
       -0.030159105 -0.12469522 -0.017257381 0.055488233
000200 d6 4f 3b bd 34 12 54 bd 88 5c 6c 3d 02 85 51 3d
       -0.045730434 -0.051775172 0.057705432 0.051152237
000210 70 14 4a 3d 5b 5a 25 3c 51 9d bc bd ae 8a 22 bd
       0.049335897 0.010092343 -0.09209693 -0.039683037
000220 ca c9 ce 3c 48 a4 a2 3d f2 d4 c6 bd 0c 6a 0b be
       0.025242705 0.079414904 -0.09708585 -0.13614672
000230 76 d6 57 bd 26 cd 9a 3d 27 8e 08 bc 9c 8b 9a 3b
       -0.05269476 0.0755866 -0.008334673 0.0047163498
000240 cd 57 87 3d 14 91 e6 bb 6e dc c1 bd 95 f6 94 bd
       0.066085435 -0.0070363376 -0.09465872 -0.07273594
000250 79 af 07 be fc 19 27 3d 2d 5b 43 3d 8b a1 10 bc
       -0.13250531 0.040796265 0.047694374 -0.008827577
000260 1e 12 d0 bd 80 51 56 bc 76 17 ff bc 28 94 90 3c
       -0.101597056 -0.013080955 -0.031139117 0.017648771
000270 d5 e0 86 bd 73 01 e1 bd ab cf ab bd 82 1b 81 bd
       -0.06585852 -0.109866045 -0.08389219 -0.06304075
000280 0f 5d 08 be 0b c6 b1 bd 10 fb 12 3d 79 f4 a2 bd
       -0.13316749 -0.08680352 0.035883963 -0.07956786
000290 c7 45 93 b8 10 a9 75 bd 51 7c 69 bd 0f 54 e0 3d
       -7.022503e-05 -0.059975684 -0.057003323 0.10953533
0002a0 d7 c3 ae bd c2 a3 a8 bd b1 16 c0 bd 58 ed df 3d
       -0.08533447 -0.08234359 -0.09379328 0.109339416
0002b0 f8 13 25 3d 1a 0a 32 3d 1b d8 91 bd d5 b0 a2 bd
       0.040302247 0.043466665 -0.07121297 -0.07943884
0002c0 2b ab 2d bd 90 26 8f bd 0c f6 9c bd bf 01 23 bd
       -0.042399567 -0.06989777 -0.07664117 -0.039796587
0002d0 fa e6 a6 3d cc e0 9d bc 4b 23 47 3d 8b 6b df 3c
       0.08149524 -0.01927223 0.048617642 0.02727296
0002e0 a9 2c 02 be 6a 71 90 3b a4 dd 4c bd 24 84 fd 3c
       -0.12712349 0.0044080513 -0.05001606 0.030946799
0002f0 2b 84 aa bc d6 9d a3 3d be 7d a5 bc ad f5 78 3c
       -0.020814976 0.07989089 -0.02020156 0.015195292
000300 70 f5 02 be da 3c 78 bd 85 b7 77 bc 47 b1 40 bc
       -0.1278894 -0.060604908 -0.015119438 -0.011761016
000310 3d 70 28 3c a9 49 51 bd bb 57 c1 3b 92 52 05 bd
       0.010280666 -0.05109564 0.005900351 -0.03254945
000320 08 34 28 3d e1 3d 5e 3d 4d fd ca 3c 65 d2 ef bd
       0.041065246 0.05425823 0.024778986 -0.117100514
000330 fe 33 92 bd e6 5c c4 3d 94 a7 91 bd e3 23 42 3d
       -0.07138823 0.095880315 -0.07112041 0.047397505
000340 5c fc 91 bd a9 d8 0a bd f1 98 6e 3d 31 78 87 3d
       -0.07128212 -0.03389803 0.058251325 0.066147216
000350 6a 84 dd 3d bb 36 b4 3d 04 97 98 bb a2 29 ae bd
       0.108162716 0.087995015 -0.0046566743 -0.085040346
000360 b8 7b 6b bd 72 c0 39 3c 1f e1 ea bd f8 39 b8 3d
       -0.057491034 0.011337386 -0.1146872 0.08995432
000370 cc 6d 7b 3c a1 18 37 bd d2 2f 8c 3d 28 be 4d 3d
       0.015346002 -0.044701222 0.068450585 0.050230175
000380 6e 22 bd bd 63 d8 e2 bd 5c b7 77 3d b9 49 19 bd
       -0.092350826 -0.11076429 0.0604776 -0.037423823
000390 96 7d d2 bd 46 d2 b4 3d 27 7a a7 3c 53 a0 0e bc
       -0.1027786 0.08829169 0.020443989 -0.008705216
0003a0 82 25 d0 bd 56 f1 89 3d 36 e4 ef bc e7 75 c4 bd
       -0.10163404 0.06735484 -0.029283624 -0.095928006
0003b0 b5 91 4a 3d d6 2d b9 bd 49 60 9f 3d a2 db 9c 3d
       0.049455363 -0.09041946 0.07782037 0.07659079
0003c0 7a 62 38 bb c6 c8 1f 3c 3c 67 a4 bd 67 4c fc bc
       -0.0028134868 0.009752458 -0.08027503 -0.03079815
0003d0 90 66 1a 3d bb 9e 28 bc a0 64 cd bc d6 23 96 bd
       0.037695467 -0.010291751 -0.025072396 -0.07331054
0003e0 ca 58 ac bd e9 28 af 3d f6 3a c6 3b 9c 47 32 3d
       -0.08415373 0.08552725 0.006049509 0.043525323
0003f0 47 a7 e8 bd 9d 23 90 3d 77 77 65 3d 61 db 97 bd
       -0.113600306 0.07038043 0.056022134 -0.0741489

layers.1.bias f4 [50]
000000 6d c9 de 3d a5 c5 56 bd c4 83 95 3d 95 0b 09 3e
       0.10878263 -0.052434582 0.07300523 0.13383324
000010 cc b8 ba 3e 22 78 37 3d 64 0e f6 3d 97 fc e4 3d
       0.36469114 0.044792302 0.120144635 0.1118099
000020 bc e5 8d bd 5f 9e 00 3d 8b 5f 82 3e dc 38 8e 3c
       -0.06928584 0.031401034 0.25463519 0.017361097
000030 78 be d3 3d 9c c0 15 3e d6 15 9e 3d cb 7d 25 3e
       0.103390634 0.14624256 0.077190086 0.16161267
000040 9a 4a 02 3e af 4b 2e 3e 81 25 47 3e 1b 70 40 3e
       0.1272377 0.17021058 0.194479 0.18792765
000050 e8 a6 ac 3e c8 66 53 3d f5 14 92 3e 35 09 f4 3d
       0.3372109 0.05161169 0.28531614 0.119158186
000060 42 1e de 3d 09 37 c3 bc b3 61 80 bc c7 54 4d 3e
       0.10845615 -0.023829954 -0.015671587 0.20051871
000070 5f 53 9a 3d 8c 58 8b 3c d8 cf 2a 3e d5 2a 83 3e
       0.07535433 0.017009996 0.16680849 0.25618616
000080 6c a2 be 3c e6 84 c6 3d eb a8 67 3c 50 2c 68 3e
       0.023270808 0.09693317 0.014139394 0.22673154
000090 c6 0a 99 3d 00 01 18 3d 34 5d 18 3f 02 71 08 3e
       0.07472758 0.03711033 0.59517217 0.13324359
0000a0 f8 f4 24 3e d1 99 be bb 71 ca 8b 3d f7 d9 bf 3d
       0.16109073 -0.005816676 0.06825722 0.09367745
0000b0 82 97 f2 3d ff 6f c1 3d ca 06 a6 3d 65 76 ae 3d
       0.11845304 0.0944519 0.08106764 0.08518676
0000c0 c7 63 f1 3c 56 38 4c 3d
       0.029466523 0.049858414

emb_layer.weight f4 [2, 50]
000000 cb 6d c0 bd a8 c2 76 3b 7b ea 00 be 62 34 59 3c
       -0.09395941 0.0037652645 -0.12589447 0.013257118
000010 da 4d 2b 3d ad aa e0 3d 4f 4b a1 bc 29 1d 01 3e
       0.041822292 0.10970054 -0.01968923 0.1260878
000020 80 ab d4 bd 49 b4 53 3b 3e ef 0d 3e fe 67 c2 bc
       -0.103842735 0.0032303503 0.13860795 -0.023731228
000030 59 09 e7 3d b6 58 99 3d 5e c2 02 3e a0 16 e2 bd
       0.1128108 0.074876234 0.12769458 -0.110394716
000040 31 dd 03 bd 98 51 0b be 10 04 09 be cc 65 96 3d
       -0.032193366 -0.13605344 -0.13380456 0.07343635
000050 7c 26 03 3e 59 67 94 bd fb 3e 17 3e ec e1 81 3d
       0.1280765 -0.072462745 0.14770119 0.06341919
000060 13 f4 2a bd 9e 8a 55 bd 72 b7 08 be 56 34 35 3e
       -0.041736674 -0.05213415 -0.13351229 0.17695746
000070 5f 9b 32 ba a4 19 b6 3c 9e 40 80 bd 14 5c 5f 3e
       -0.0006813313 0.022229023 -0.06262325 0.21812469
000080 cf d2 39 3d 81 3b 53 3d 53 f8 dd bd bf 7f 5a 3e
       0.04536706 0.05157042 -0.1083838 0.21337794
000090 1d 9f 04 3d d1 15 83 3d 7e 7e 82 3e c7 10 cc bc
       0.032378305 0.064006455 0.2548713 -0.024910344
0000a0 6a 90 b2 3c d2 18 0a bc 4f 78 93 bd 4c 6f 90 bd
       0.021797378 -0.008428769 -0.072006814 -0.07052478
0000b0 29 f9 0b 3e 1c 78 e6 bd db 35 c3 bc 79 c1 f4 3d
       0.13669266 -0.11253378 -0.023829391 0.119509645
0000c0 65 19 cd 3d 19 db 4c bd 69 8a a1 3d db 80 b6 bd
       0.10014609 -0.050013635 0.07887728 -0.08911296
0000d0 20 63 0f 3d 16 d8 27 be ec de 64 be 3d dc aa 3c
       0.035006642 -0.16391024 -0.22350663 0.02085697
0000e0 da c9 a6 3c 0d 02 4e bd 77 83 87 3d 8b 79 0d 3e
       0.020359922 -0.050294925 0.06616872 0.13815896
0000f0 ce a0 29 be 0d 9b 50 bd b2 98 20 3e 28 ec c8 3d
       -0.16565248 -0.050929118 0.15683249 0.09810668
000100 2d fa 0a 3e e7 d2 d2 bd 66 26 bd bd 46 0d 24 3e
       0.13571997 -0.10294133 -0.092358395 0.16020688
000110 63 ed 48 bc 55 65 18 bc e4 49 d5 bd dc 77 5a bd
       -0.012263629 -0.009301503 -0.10414484 -0.053336963
000120 e5 26 84 bd 2e 13 86 3d 14 4c e2 3d 2b 71 b5 3d
       -0.06452731 0.06546627 0.11049667 0.08859476
000130 a2 8a a5 bd 55 9f 9e bd 27 e5 8b bc 2a c0 8f 3d
       -0.08083083 -0.07745234 -0.017077042 0.07019074
000140 b6 22 4d be 7a 8e 2c be 64 12 08 bd 3c fb 07 be
       -0.20032772 -0.16851225 -0.033220664 -0.13279432
000150 74 cf bf 3d a9 18 a6 3c 6a 49 9c 3d e4 73 7d 3d
       0.093657404 0.02027543 0.0763119 0.0618781
000160 d6 45 0d be 07 03 0c 3e e9 9e 27 3d f8 b4 04 be
       -0.13796172 0.1367303 0.040923033 -0.12959659
000170 9e 5b 0f be 45 81 bb 3d 27 b3 34 be 3a e7 a8 bd
       -0.13999793 0.091555156 -0.17646466 -0.08247228
000180 b8 8c c2 bd 42 5b c3 3d 25 be 2a 3d 16 1e c9 3d
       -0.09499496 0.095388904 0.041685242 0.098201916

emb_layer.bias f4 [2]
000000 96 82 ae 3d 97 1a 14 3c
       0.08521001 0.009039543

class_layer.weight f4 [10, 50]
000000 1d 23 76 be 22 9d bd be 3c f7 b8 3d 58 e7 c8 3e
       -0.24036832 -0.37033945 0.09031531 0.39239
000010 f0 5e 09 3f b9 17 40 be 03 7f 18 3d f2 82 48 be
       0.5366049 -0.1875905 0.037230503 -0.19581202
000020 99 cd 75 3e ee 2c 94 be 21 19 fd 3d 4c d3 3c 3e
       0.2400421 -0.2894053 0.123583086 0.18439978
000030 3e 75 36 be 43 cc 8d be 55 2f 2f be 96 31 0a 3f
       -0.17818162 -0.27694902 -0.171079 0.5398191
000040 9f d7 87 3e 81 ee 9a 3e 15 40 27 bf 55 12 b4 be
       0.26531693 0.3026009 -0.65332156 -0.35170236
000050 7d 9a 37 bf f7 e9 69 be 92 0b b3 be 18 9e d1 bd
       -0.71720105 -0.22843157 -0.34969765 -0.10235232
000060 4d 7f c3 be d5 32 9d be bb bb 5f 3d db 0a 06 bf
       -0.3818306 -0.30702844 0.054622393 -0.52360314
000070 e8 f6 79 3e 29 4c ad bd b8 5f 1b 3f 9f 2d e6 be
       0.24410594 -0.08461792 0.6069293 -0.4495668
000080 4f 03 bb be c1 70 36 bf 40 57 6a 3d 73 f0 d5 bd
       -0.36525962 -0.712658 0.057212114 -0.10446253
000090 4b 3c 82 bd 01 ae fe bd db 7b c7 be a7 00 01 bd
       -0.06359156 -0.12435532 -0.38961682 -0.031494763
0000a0 72 54 84 be e9 8c 76 be e9 e3 18 3f 2b ec 63 3e
       -0.25845677 -0.2407719 0.59722763 0.2225806
0000b0 c9 32 52 be ab c9 99 3e 87 38 3e bf 3a cf 06 bc
       -0.20527185 0.30036673 -0.74305004 -0.008228118
0000c0 0c 23 81 bd 3a 97 d2 be b9 55 15 bf 48 07 d8 bd
       -0.06305513 -0.41131002 -0.5833393 -0.10548264
0000d0 38 3f c3 be ed 30 44 bf d2 c8 23 bf 8b 0b b7 3e
       -0.3813417 -0.76637155 -0.639783 0.35750994
0000e0 1b d0 28 bf fb 1f 4d 3e 59 e6 0d bf 0d a2 3b bc
       -0.65942544 0.20031731 -0.5542961 -0.01145221
0000f0 57 e3 0f bf f3 e5 a4 be a1 d0 f4 3e 41 32 5e 3e
       -0.5620627 -0.32206687 0.4781542 0.21698858
000100 24 0b c2 3e f8 e4 21 bf 49 68 21 bf b0 33 16 be
       0.37899125 -0.63240004 -0.6304975 -0.14668155
000110 45 da e0 bd a2 8e 47 3f 46 3d ed 3d 90 4f 8b be
       -0.109791316 0.77952015 0.115839526 -0.2720914
000120 39 81 b4 3e 5a f2 48 3d da 19 c2 3c 36 24 f2 bd
       0.3525484 0.04905925 0.023693968 -0.11823313
000130 8d 2f d8 be 23 44 d0 3e 1a 59 0d be a6 ed b6 3e
       -0.42223778 0.40676984 -0.13803521 0.35728186
000140 3d f0 0d bf 68 cf 90 3e d3 08 a1 3e 71 fb aa 3e
       -0.554447 0.28283238 0.31452045 0.3339496
000150 96 61 06 bf e4 3b 12 3f 0f 2d 36 3e fe 58 22 3e
       -0.52492654 0.57122636 0.17790626 0.1585426
000160 ac 5a ae 3e f9 52 91 be 41 c4 9d 3e f6 4d b4 be
       0.34053552 -0.28383616 0.30813792 -0.3521573
000170 2a 05 05 bf f2 28 06 bf 18 44 86 3e 0b 33 d6 be
       -0.51961005 -0.5240623 0.26223826 -0.41835818
000180 5f 5c cb 3d ae 67 e5 3d bc 31 2f bc 2e 1f 9f 3b
       0.09929728 0.11201416 -0.01069301 0.004856012
000190 1a ee 84 be c9 2d 13 bf a8 6e c4 b9 84 7a 58 be
       -0.25962907 -0.5749174 -0.00037466479 -0.21140486
0001a0 92 6b fe bd 5b 76 1d bf bf 38 36 3e 0d df 20 be
       -0.12422861 -0.6150872 0.17795084 -0.15710087
0001b0 5b 43 0d bd bc 35 46 3e b9 4f 81 be 73 61 86 3e
       -0.034488063 0.19356436 -0.25256136 0.26246223
0001c0 98 38 36 3e 59 6a 84 3e 09 03 82 bf 3d 09 a2 3e
       0.17795026 0.25862387 -1.0157176 0.31647673
0001d0 2c 04 2f be ce 65 ca be 0d 69 10 bf 0f 93 38 bf
       -0.17091435 -0.39530796 -0.56410295 -0.72099394
0001e0 e0 7c 78 3f f3 ad bf be 20 10 eb 3d d0 bf 69 be
       0.97065544 -0.374374 0.11477685 -0.22827077
0001f0 32 07 76 3d ec 25 76 bd 36 0a 15 bf d1 61 ae be
       0.060065456 -0.06009476 -0.58218706 -0.34059003
000200 15 33 51 be 55 6c ce be 2d ae 7c bc e2 9d 0d bf
       -0.20429642 -0.40317026 -0.015422386 -0.55319035
000210 c0 19 3f bf 64 6f 36 bf b8 24 15 bd a1 45 98 be
       -0.74648666 -0.7126372 -0.03641197 -0.29740623
000220 96 e6 12 3f b8 40 39 3f cf db 17 3f 8f aa 45 3e
       0.57383096 0.7236438 0.59319776 0.19303344
000230 53 09 bf 3c 96 62 87 be 35 bb bb 3e ae 15 b1 3d
       0.023319876 -0.26442403 0.36666265 0.08646713
000240 4d ff 52 bf be 92 a5 be a7 32 5f 3e db 41 9d 3d
       -0.8242081 -0.32338518 0.21796666 0.076785766
000250 1f e0 05 3f 9a f9 90 be 55 94 13 3f 46 60 e1 3e
       0.52295107 -0.2831543 0.5764821 0.44018763
000260 cc 1e 59 be 54 50 15 3f e7 63 d6 3e bb 4d 67 3d
       -0.21203154 0.58325696 0.41873094 0.056470614
000270 0a 13 c2 be dc 42 af bd 39 0d ea 3e ac cc 39 be
       -0.3790515 -0.08557674 0.45713213 -0.18144482
000280 e8 90 ba 3e 20 ba 00 be 09 4a cc bd 1f fd 93 3e
       0.3643868 -0.12571001 -0.099750586 0.28904054
000290 5b 07 44 3e 85 0e 47 be 72 3d 4e be 5b 15 15 3e
       0.19143431 -0.19439133 -0.20140627 0.14558928
0002a0 32 e0 21 be 43 c0 48 bf a6 28 17 3f 39 be f0 3a
       -0.1580818 -0.7841837 0.590464 0.0018367238
0002b0 ca f0 d9 3e 5a 7b 9b be 2e 32 be 3e f3 56 1d 3d
       0.4256652 -0.30367547 0.3714766 0.038413
0002c0 51 49 17 3d a6 5e bf be 2b cc e8 3d 82 bd 84 be
       0.036935154 -0.373769 0.11367067 -0.25925833
0002d0 16 0e 86 3e 32 1f e2 bd af ee 1c be e0 37 ca be
       0.26182622 -0.11041106 -0.15325426 -0.39495754
0002e0 e2 3c 2b be f4 8f 1d 3e b8 04 47 3f 20 e1 09 bc
       -0.16722444 0.15386945 0.77741575 -0.00841549
0002f0 d9 41 06 3e d0 7e d7 be 0b 52 9d be 97 ed 58 3e
       0.13111056 -0.42088938 -0.30726656 0.21184383
000300 9b 15 06 3e 37 31 05 bf 30 b7 ad 3d 21 f1 a1 3e
       0.1309418 -0.5202822 0.08482206 0.3162928
000310 72 bb 20 be 9c 24 20 be 9e 60 04 bf ff 64 43 3f
       -0.15696505 -0.15638965 -0.51709926 0.7632598
000320 cb e5 a5 be e4 7e b0 3c b2 19 3a 3e cb 78 09 bf
       -0.3240188 0.021544881 0.18173864 -0.5369994
000330 b1 09 69 be fb a1 48 3e ff e8 85 3f c3 f9 1d be
       -0.22757603 0.1959304 1.046173 -0.15427308
000340 98 05 08 be 09 ae 21 3d e6 f3 34 bf 1f a2 45 3e
       -0.13283384 0.039472613 -0.7068466 0.19300126
000350 05 65 9f be 93 b4 1c bf ae 76 b2 be 05 28 46 3d
       -0.3113176 -0.61213034 -0.3485617 0.04837801
000360 34 06 30 be 5c 85 a1 be 24 f4 28 3e a3 ad d6 3e
       -0.17189866 -0.31547058 0.16499382 0.4192935
000370 23 37 08 bf 09 57 72 3e 7a 50 f6 be 41 bc 03 3d
       -0.5320913 0.23666014 -0.48108274 0.032161955
000380 c3 9c 70 be 25 29 81 bd be ab 72 3d 9a 4d 4a be
       -0.234973 -0.06306676 0.059245817 -0.19756165
000390 56 8c 2e be 56 f3 d5 3e d3 c6 8b be f6 cd 83 be
       -0.17045721 0.41787213 -0.27300128 -0.25743073
0003a0 4c 6d 01 3f ed bd 0b 3e 10 b6 11 3e 5f b7 8c be
       0.505574 0.1364667 0.14229608 -0.2748365
0003b0 e7 8e 44 bf 32 c6 ad bd bf a3 3a bf d5 c4 a9 3e
       -0.7678055 -0.084850684 -0.72906107 0.33157983
0003c0 90 0d a5 be 59 32 cb 3d be d5 a9 be b1 d2 eb 3e
       -0.3223691 0.099217124 -0.33170885 0.46059182
0003d0 45 63 7c bd 4f 73 3b bd 8b fc 7e 3f e6 77 2d be
       -0.06161811 -0.045764264 0.996041 -0.16940269
0003e0 d9 fb 61 be 97 d5 5e be 7c d8 3f 3e a9 0a 87 3e
       -0.22068729 -0.21761166 0.18734926 0.2637532
0003f0 73 67 53 bc 40 8b f3 3e 6d 35 fc 3e 61 6a 14 be
       -0.012903082 0.47567177 0.4925951 -0.14493705

class_layer.bias f4 [10]
000000 64 e0 8d be fb 02 e7 bc 65 40 85 be 4c 9d de 3e
       -0.2771026 -0.028199663 -0.26025692 0.43479383
000010 1b bd 81 bd 7c f9 64 3c 84 fd 18 be 46 1f b7 bd
       -0.06334897 0.013975497 -0.14940459 -0.08941512
000020 9d 52 d4 3d 3e de a2 bc
       0.1036732 -0.019881364
