notebooks/paper-plots/models/w0.9.pt (torch, 339531 bytes, 8 tensors)

layers.0.weight f4 [100, 784]
0	0x3c1ad554	0.009450275
1	0x3d048683	0.032354843
2	0xbcb30f8c	-0.021858
3	0x3cd80516	0.026369613
4	0xbc322386	-0.010872727
5	0xbd0cffef	-0.034423765
6	0x3c92f83a	0.01794063
7	0x3d11009d	0.035400975
8	0xbc138e6a	-0.009006122
9	0x3b8a6dc8	0.0042245127
10	0x3bd34030	0.0064468607
11	0xbb882308	-0.0041545667
12	0x3b933690	0.0044925883
13	0xbc918f1e	-0.017768439
14	0x3ce4653a	0.0278803
15	0x3bf17070	0.00736814
16	0x3ba75b88	0.005107347
17	0x3c2bd840	0.01048857
18	0x3c971d78	0.018446669
19	0x3c5b0770	0.013368472
20	0x3d04a4b3	0.032383632
21	0xbc9c5b23	-0.019086426
22	0xbbc1b6f8	-0.005911704
23	0x3b3e7410	0.0029060878
24	0x3cfb7b16	0.03069834
25	0xbcf3acb3	-0.029745435
26	0xbd082713	-0.03324039
27	0x3d11016f	0.035401758
28	0x38dca400	0.00010520965
29	0xbb1da810	-0.0024056472
30	0xbd085294	-0.033281878
31	0x3cf85c56	0.030317467
32	0x3d01ac99	0.031658743
33	0x3c19f6f8	0.009397261
34	0xbc43e54a	-0.011956522
35	0xbd786ea7	-0.0606524
36	0xbd7ca29f	-0.061678525
37	0xbd790f0a	-0.060805358
38	0xbd8d0997	-0.06886595
39	0xbcd44f55	-0.025916735
40	0xbd6d4995	-0.0579315
41	0xbde71e09	-0.112850256
42	0xbc829b58	-0.015943214
43	0x3d2de65e	0.042456023
44	0x3d02acfa	0.031903245
45	0xbc0730de	-0.008251397
46	0xbdbae1c8	-0.091250956
47	0xbd80e48d	-0.062935926
48	0xbcb72af1	-0.022359343
49	0xbdf279ec	-0.11839661
50	0xbe0e6ace	-0.1390793
51	0xbcb35b00	-0.021893978
52	0xbc11dfae	-0.008903427
53	0x3cc5ae78	0.024131045
54	0x3c786ed8	0.015163146
55	0xbb84dfc0	-0.0040549934
56	0x3cc70ec6	0.024299037
57	0x3cefc4e2	0.029268686
58	0x3c1d48b4	0.009599853
59	0x3bd5b2f8	0.006521579
60	0xbd920e0b	-0.07131585
61	0xbd9f8726	-0.077894494
62	0xbce5d7a1	-0.028056921
63	0x3c2d5ac0	0.0105807185
64	0xbd1b19a6	-0.037866257
65	0xbd4c9ebc	-0.04995607
66	0xbc423911	-0.011854426
67	0xbd477f5b	-0.04870544
68	0xbc94790e	-0.01812413
69	0xbda84014	-0.08215347
70	0xbe26c9d2	-0.16287926
71	0xbe29c4bf	-0.16578959
72	0xbda6db28	-0.081472695
73	0xbda0d49d	-0.07853053
74	0xbd680248	-0.0566428
75	0xbd462c22	-0.048381932
76	0xbc853692	-0.016261373
77	0x3d1cb5d7	0.038259353
78	0xbd251594	-0.04030378
79	0xbd7076d1	-0.058707062
80	0xbd957fc4	-0.0729976
81	0xbc8c9b80	-0.017163992
82	0xbcbbed0c	-0.022940181
83	0xbcbe231a	-0.023210097
84	0xbbb903b0	-0.0056461915
85	0x3d002839	0.03128836
86	0x3d064dfb	0.03278921
87	0x3d018a9b	0.031626325
88	0xbdd441e7	-0.103641324
89	0xbd77a783	-0.060462486
90	0xbc840480	-0.016115427
91	0x3da08788	0.078383505
92	0x3d7cf76b	0.061759394
93	0x3cfbf497	0.030756278
94	0xbc1bb0c6	-0.009502595
95	0xbd2158aa	-0.039391197
96	0xbc24ac53	-0.010050851
97	0x3c879a81	0.016553165
98	0xbd912ca9	-0.070885964
99	0xbd3694e3	-0.044575583
100	0xbd564178	-0.05230853
101	0xbc954960	-0.018223464
102	0xbe09267c	-0.13393587
103	0xbd518d93	-0.051160406
104	0x3c70e426	0.014702832
105	0x3bb21a92	0.0054352963
106	0xbcba4fe5	-0.022743175
107	0x3b304867	0.0026898624
108	0x3d767cfa	0.06017778
109	0xbc70e592	-0.014703171
110	0x3c1ef454	0.009701807
111	0x3d05a1eb	0.03262512
112	0x3c7da0c4	0.015480224
113	0xbc9b083c	-0.018924825
114	0xb9be7280	-0.00036324933
115	0x3db8cd90	0.09023583
116	0x3e675d9f	0.22594307
117	0xbd6e6f00	-0.058211327
118	0x3d05c190	0.0326553
119	0x3d4f3d1d	0.05059539
120	0x3c636410	0.013878837
121	0xbbf0a385	-0.007343712
122	0xbca05f72	-0.019576762
123	0x396023c3	0.00021375627
124	0x3d0dbb1f	0.03460228
125	0x3ca16e17	0.019705815
126	0xbc865b33	-0.016400909
127	0x3c884239	0.01663314
128	0x3d222d64	0.03959407
129	0x3d186875	0.037208993
130	0x3cdbe749	0.026843684
131	0xbcd1acf2	-0.025595162
132	0xbc3a89c0	-0.011385381
133	0xbd11c85e	-0.035591476
134	0x3d938342	0.0720277
135	0x3cf72fa8	0.030174091
136	0x3c7ca86c	0.015421014
137	0x3d94a476	0.07257931
138	0xbc15224e	-0.009102417
139	0x3ce80862	0.02832431
140	0x3ba59988	0.0050537027
141	0xbbdee2f0	-0.0068019554
142	0x3d62d1ca	0.05537585
143	0x3d711556	0.05885824
144	0x3a98ad51	0.0011648332
145	0xbb82b7a6	-0.0039891778
146	0xbaec7416	-0.0018039967
147	0xbc93a471	-0.018022748
148	0xbda7e16c	-0.08197293
149	0xbd6f0292	-0.05835206
150	0xbdb88f2e	-0.09011684
151	0xbce05967	-0.02738638
152	0xbcf82ac7	-0.030293835
153	0xbd3eec92	-0.04661233
154	0xbbb98204	-0.005661251
155	0x3d0864a7	0.033299115
156	0xbc1cf7c3	-0.009580555
157	0x3b8531a1	0.004064754
158	0x3bfa60aa	0.007640918
159	0x3be7a8c5	0.0070696794
160	0xbd027c5a	-0.031856872
161	0x3ad5dc37	0.001631624
162	0x3c2a2ad2	0.010386186
163	0x3caf67d5	0.021411816
164	0xbd48a334	-0.048983768
165	0x3d42a56c	0.04752104
166	0xbd975d22	-0.073908105
167	0x3dda8ad3	0.1067101
168	0x3cbcda32	0.023053262
169	0xbb8d3e38	-0.0043103956
170	0xbc62be97	-0.0138393855
171	0x3ba1c4ed	0.0049368055
172	0xbcc3ba7d	-0.023892635
173	0xbb708b45	-0.0036704105
174	0xbd836219	-0.06415195
175	0xbd1366ad	-0.03598659
176	0xbdc9751d	-0.09836791
177	0xbd65b602	-0.05608178
178	0xbd2dfac0	-0.042475462
179	0xbd5deb6a	-0.054179586
180	0xbd520e1f	-0.051283
181	0x3c204bc8	0.009783693
182	0xba3b78b8	-0.00071514724
183	0xba7dfa38	-0.00096884696
184	0x3bd27d4a	0.006423627
185	0xbd9e8b85	-0.07741455
186	0xbb700bab	-0.0036628048
187	0xbc75d693	-0.015004772
188	0xbc3c6f21	-0.011501105
189	0xbc3c6772	-0.011499273
190	0xbd918462	-0.07105328
191	0xbd0315b2	-0.032003112
192	0xbd13e24f	-0.036104497
193	0xbd4b426a	-0.049623884
194	0x3d9f933f	0.07791757
195	0x3d12575a	0.035727836
196	0xbd1e8878	-0.038704365
197	0xbd4d708c	-0.05015616
198	0xbd97f6d4	-0.074201256
199	0xbbc3e5ab	-0.0059783063
200	0x3a962567	0.0011455239
201	0xbd0e4fce	-0.034744076
202	0xbdcebc65	-0.10094527
203	0xbd245b15	-0.040125925
204	0xbd586893	-0.052834105
205	0xbd9cce7e	-0.07656573
206	0xbd76bd05	-0.060238857
207	0xbdcc7e63	-0.09985044
208	0xbd81ed40	-0.0634408
209	0xbc5e6c5c	-0.01357564
210	0xbc83e181	-0.01609874
211	0xbc869b14	-0.016431369
212	0xbd237063	-0.039902102
213	0xbda1e2b2	-0.07904567
214	0xbb1ad90b	-0.0023627903
215	0xbd1eed80	-0.038800716
216	0x3ceba7dc	0.028766565
217	0xba8a738a	-0.0010562998
218	0x3b030bd0	0.0019996054
219	0xbce3a669	-0.027789311
220	0xbd67bd4a	-0.056577004
221	0xbd28b938	-0.041192263
222	0xbbdda2c8	-0.00676379
223	0xbcd7b681	-0.026332142
224	0xbcec8ce9	-0.028875785
225	0xbc0e1297	-0.008671424
226	0x3cd15741	0.025554301
227	0x3d226d5e	0.039655082
228	0x399414dc	0.000282443
229	0x3d0ba45e	0.0340923
230	0x3c55526a	0.013020137
231	0xbd8937cb	-0.06700095
232	0xbca0024a	-0.019532342
233	0xbd8814be	-0.06644581
234	0xbd371465	-0.044697184
235	0xbd95ebc5	-0.0732036
236	0xbd957956	-0.072985336
237	0x3c1b380d	0.009473813
238	0xbc7ab265	-0.015301322
239	0xbcddc5d0	-0.027071863
240	0xbcc8255d	-0.024431879
241	0xbd1a8934	-0.037728503
242	0xbd35d6ad	-0.044394184
243	0xbd21735c	-0.039416656
244	0xbc98edcc	-0.018668078
245	0x3bd422f9	0.0064738956
246	0xbd2e1885	-0.042503852
247	0xbcd6f533	-0.026239967
248	0xbd0fe52a	-0.035130657
249	0xbd720d1a	-0.059094526
250	0x3d680671	0.056646768
251	0x3dbf0ab6	0.09328215
252	0x3c9d18e5	0.01917691
253	0x3c9023b0	0.017595142
254	0x3c99b737	0.018764121
255	0x3dbca944	0.09211972

layers.0.bias f4 [100]
0	0x3d66a246	0.0563071
1	0x3d2be58d	0.041966964
2	0x3e1a50fb	0.15069954
3	0xbcca9f89	-0.024734275
4	0x3c47768b	0.012174259
5	0x3d7a40be	0.0610969
6	0x3e121b25	0.14268167
7	0x3e0dd287	0.13849841
8	0x3db38b96	0.08766858
9	0x3cc853f7	0.0244541
10	0x3e266197	0.16248165
11	0x3e210fa4	0.15728623
12	0x3df94039	0.121704526
13	0xbdbf4234	-0.09338799
14	0x3d6cc406	0.05780413
15	0x3c947131	0.01812038
16	0x3dc23235	0.094822325
17	0x3e596d47	0.21233092
18	0x3db5ff4e	0.08886586
19	0x3d8947b4	0.067031294
20	0x3d5091fb	0.050920468
21	0x3e37844a	0.17921558
22	0x3cbfeb6a	0.023427684
23	0x3e000a77	0.12503992
24	0x3e45a3bd	0.19300742
25	0x3d62115e	0.055192344
26	0x3db0aa91	0.08626283
27	0x3d9642c8	0.07336956
28	0x3dae8a8c	0.085225195
29	0x3d9abf96	0.07556073
30	0x3d98adf1	0.07455052
31	0x3e5acc5e	0.21367022
32	0x3e84053a	0.25785238
33	0x3e041b5a	0.12901059
34	0x3e0d5be2	0.13804582
35	0x3d09bee3	0.03362931
36	0x3dcced5b	0.100062095
37	0x3ddaa936	0.10676806
38	0x3dc74be5	0.097312726
39	0x3e470bfa	0.19438162
40	0x3e0c96a3	0.13729338
41	0x3ce7d90d	0.02830174
42	0x3d97e526	0.074167535
43	0x3d1a066b	0.037603777
44	0x3d76f3a1	0.060290936
45	0x3d32ddf5	0.043668706
46	0x3e953b3f	0.29146764
47	0x3df8b1e5	0.12143306
48	0x3e6c3cd4	0.23070079
49	0x3e47ad20	0.19499636
50	0x3d8fc6ff	0.07020377
51	0x3da79a33	0.08183708
52	0x3c195a74	0.009359945
53	0x3e2815ce	0.16414568
54	0x3e49d10d	0.19708653
55	0xbbb92627	-0.0056503
56	0xbd17c106	-0.037049316
57	0x3ddf9609	0.10917289
58	0x3d18631e	0.0372039
59	0x3da4d220	0.08047891
60	0x3e9aa530	0.30204153
61	0x3d72b689	0.05925611
62	0xbc006341	-0.007836164
63	0x3ef2a95c	0.47394836
64	0x3de178b5	0.11009351
65	0x3cdd196c	0.026989661
66	0x3ce3f72b	0.02782782
67	0x3e1326cb	0.14370267
68	0x3e357fce	0.17724535
69	0x3d9add08	0.075616896
70	0x3d98349c	0.074319094
71	0x3e9f22ce	0.3108124
72	0x3e938011	0.28808644
73	0x3ddb95bf	0.10721921
74	0x3d9b48b9	0.0758223
75	0x3cde976d	0.027171815
76	0x3e313d7f	0.17308615
77	0x3ea8b3d6	0.32949704
78	0x3cc54e54	0.024085201
79	0x3d289f9e	0.041167848
80	0xb9b989a4	-0.000353885
81	0x3cb9f695	0.022700587
82	0x3e344b27	0.17606793
83	0x3c8f1dd7	0.017470283
84	0x3e020fa1	0.12701274
85	0x3e1287a8	0.14309561
86	0x3ccc22e8	0.024918988
87	0x3ddc1215	0.107456364
88	0xbce6c503	-0.028170114
89	0x3cb03c30	0.021513075
90	0x3e1cb37d	0.15302844
91	0x3d7b2a26	0.061319493
92	0x3d89060e	0.06690608
93	0x3dc5f1e4	0.096652776
94	0x3d80ec23	0.062950395
95	0x3de6c6ee	0.112684116
96	0x3d0ff2c7	0.03514364
97	0x3d7f56e0	0.06233871
98	0x3d85fe68	0.06542665
99	0xba8c0274	-0.0010681883

layers.1.weight f4 [50, 100]
0	0xbc54afb2	-0.012981342
1	0x3e2021ac	0.15637845
2	0xbde52a99	-0.111897655
3	0xbe0ca058	-0.13733041
4	0x3e8176eb	0.2528604
5	0xb929d73d	-0.00016197278
6	0xbd39f0ed	-0.04539578
7	0xbbb6bacd	-0.0055764676
8	0x3d006cd6	0.031353794
9	0x3dbd92ba	0.092565015
10	0x3d879c9f	0.0662167
11	0xbda2e463	-0.079537176
12	0x3e50143b	0.20320217
13	0x3d5b4579	0.05353305
14	0xbd45d047	-0.048294332
15	0x3e978f70	0.29601622
16	0x3cce33f6	0.025171261
17	0x3cf7187c	0.030163042
18	0xbd0b5e99	-0.034025762
19	0x3bac0508	0.005249623
20	0xbd960ac5	-0.07326273
21	0x3e80a039	0.2512224
22	0xbc9be107	-0.0190282
23	0x3e12c921	0.14334537
24	0xbcc2ec33	-0.02379427
25	0x3e88273a	0.26592427
26	0x3ddb0ce4	0.10695818
27	0x3d2ae139	0.041718695
28	0x3df148d1	0.11781467
29	0x3e4e0719	0.20119895
30	0xbc2933a1	-0.010327251
31	0x3d1c0e99	0.03809986
32	0xbdc2dc35	-0.095146574
33	0x3cb702fe	0.022340294
34	0x3e0e98d1	0.13925482
35	0x3e2954e5	0.16536291
36	0x3d9e608c	0.077332586
37	0xbdd81fa1	-0.10552908
38	0x3d917719	0.07102794
39	0x3d5319e7	0.051538374
40	0x3e05c028	0.13061583
41	0xbbb67542	-0.0055681774
42	0x3e035c2f	0.12828134
43	0xbe3ceec7	-0.18450461
44	0x3d6e0c73	0.05811734
45	0xbde52ffb	-0.11190792
46	0x3d2f7065	0.042831797
47	0xbdf6c1cf	-0.12048685
48	0xbddd6bcc	-0.10811576
49	0x3e341000	0.17584229
50	0xbdff0605	-0.1245232
51	0x3d937798	0.07200545
52	0xbe6ae0c3	-0.22937302
53	0x3e70f06a	0.2352921
54	0xbda044ef	-0.07825648
55	0x3dbdb7e1	0.09263588
56	0x3e9be455	0.3044764
57	0xbdedae25	-0.11605481
58	0xbccae657	-0.024768038
59	0x3e08d155	0.13361104
60	0x3d88d164	0.06680563
61	0x3e9703f6	0.2949521
62	0x3e034e55	0.1282285
63	0xbe2eac0a	-0.17057815
64	0x3d24df90	0.04025227
65	0x3da4ba38	0.08043331
66	0xbda2f8a8	-0.07957584
67	0xbc17a017	-0.009254477
68	0x3e202889	0.15640463
69	0xbe9acefe	-0.30236048
70	0xbd014a82	-0.031565197
71	0x3d32aa23	0.043619286
72	0x3e89ec7b	0.26938233
73	0x3ebad1d0	0.364882
74	0x3e2fcadb	0.17167227
75	0x3e135c74	0.14390737
76	0x3e1ca323	0.15296607
77	0x3cf5c504	0.030001171
78	0xbd1d6d6c	-0.03843443
79	0xbbb86418	-0.0056271665
80	0x3c5fec23	0.013667139
81	0xbe26ae63	-0.16277461
82	0xbc22d7b4	-0.009939123
83	0x3ddfb9b5	0.10924093
84	0xbdee5f0a	-0.11639221
85	0x3dd8cc54	0.105858475
86	0x3d89a135	0.06720201
87	0x3e90225c	0.28151214
88	0xbd843a71	-0.06456459
89	0xbd281fd0	-0.041045964
90	0x3da94563	0.082651876
91	0x3d948052	0.07251038
92	0x3e62e2d2	0.22156838
93	0x3db77397	0.08957594
94	0x3e0b713b	0.13617413
95	0x3d6d1b39	0.05788729
96	0xbdbab6e9	-0.091169186
97	0x3d8b17d1	0.06791652
98	0x3ec38161	0.38184646
99	0x3df486af	0.11939751
100	0x3dbed3d3	0.09317746
101	0x380632d5	3.199543e-05
102	0xbd806a62	-0.06270291
103	0xbdcd0d60	-0.10012317
104	0xbd8e316b	-0.069430195
105	0x3d656463	0.05600394
106	0x3ddfba81	0.10924245
107	0xbd97315f	-0.07382464
108	0x3dab2470	0.08356559
109	0xbd9670c2	-0.073457256
110	0xbea195f5	-0.3155972
111	0xbcd13713	-0.025538957
112	0xbdf5e86c	-0.120072216
113	0xbd112bec	-0.035442278
114	0xbe071a23	-0.13193564
115	0xbde46794	-0.111525685
116	0xbdbb6692	-0.09150423
117	0xbddea7a6	-0.1087182
118	0xbdd905fe	-0.10596846
119	0x3d173106	0.036911987
120	0x3d2a5b99	0.04159126
121	0x3d8cd6ea	0.06876929
122	0xbd8a1d10	-0.067438245
123	0x3db62b01	0.08894921
124	0x3bf2751e	0.0073992154
125	0xbd0e9fec	-0.034820482
126	0x3dcdea5a	0.10054465
127	0x3d13a41a	0.03604517
128	0x3b93a3bb	0.004505602
129	0xbd987fc3	-0.074462436
130	0xbd9a327f	-0.075291626
131	0xbdc586f6	-0.096448824
132	0xbc699f4d	-0.014259172
133	0x3d63b7e1	0.055595282
134	0x3d872a6d	0.06599889
135	0xbdb79569	-0.089640446
136	0xbd8b0f9e	-0.06790088
137	0x3b7299a5	0.0037017849
138	0x3aa3c902	0.0012495818
139	0x3cc9a36e	0.024614062
140	0x3d14b729	0.036307488
141	0x3dd5349e	0.104104266
142	0x3c15b3b7	0.009137086
143	0xbce624ba	-0.028093684
144	0xbd729588	-0.059224635
145	0x3d9a1764	0.07523993
146	0xbd8d1ff0	-0.06890857
147	0x3d600ba5	0.054698605
148	0x3c14e5d3	0.0090879975
149	0xbcf99ce9	-0.030470328
150	0xbd4384a6	-0.047733925
151	0x3d0ea506	0.034825347
152	0xbcaea169	-0.0213172
153	0xbd02a0aa	-0.031891502
154	0xbc82da5d	-0.015973264
155	0xbe520a7d	-0.20511813
156	0x3ca51b62	0.020154659
157	0x3d9af814	0.075668484
158	0xbd4778f3	-0.04869933
159	0x3d9da6e6	0.07697849
160	0xbd5bf361	-0.0536989
161	0xbd042e38	-0.03227064
162	0x3cf085bb	0.029360643
163	0xbbd1d5b1	-0.006403648
164	0xbc37a2c1	-0.011208237
165	0x3da3a2f9	0.07990069
166	0xbcabfce6	-0.020994615
167	0xbc930f63	-0.017951673
168	0x3d11bc0b	0.035579722
169	0x3d9ca782	0.07649137
170	0xbd92a05e	-0.07159494
171	0x3ba1c848	0.0049372055
172	0xbc14c960	-0.009081215
173	0x3d29271c	0.041297063
174	0x3dbf112e	0.09329449
175	0x3da2f22a	0.079563454
176	0x3dc3dbff	0.09563445
177	0xbd23c839	-0.03998587
178	0x3cb21e87	0.021743072
179	0x3c32e317	0.0109184
180	0xbd168764	-0.036750212
181	0xbd83cb0d	-0.06435213
182	0xbd16fb26	-0.036860608
183	0x3dbdc7cf	0.09266626
184	0x3d5718de	0.05251395
185	0x3c640a04	0.013918404
186	0xbdf7d823	-0.12101772
187	0xbda099b6	-0.07841818
188	0x3d2af88a	0.04174093
189	0xbcf31e21	-0.029677453
190	0xbd17576a	-0.0369486
191	0x3dc14e00	0.094387054
192	0xbd1e2c0d	-0.03861623
193	0x3dd4107b	0.10354706
194	0xbd1ed95e	-0.038781516
195	0xbcd7b01b	-0.02632909
196	0x3d7325e0	0.059362292
197	0xbd0477ab	-0.032340687
198	0xbc8b40d5	-0.016998688
199	0xbdabef88	-0.08395296
200	0x3d2a9be7	0.041652586
201	0xbdd68b9a	-0.10475846
202	0xbdc3739f	-0.09543537
203	0xbda049d5	-0.07826582
204	0xbcbfb291	-0.023400577
205	0xbb99b535	-0.004690791
206	0x3e17421e	0.14771315
207	0x3c279fc8	0.010230966
208	0x3d199ab0	0.037501037
209	0xbd1d1962	-0.038354285
210	0xbdd972c5	-0.10617594
211	0xbd6d8b7e	-0.05799436
212	0xbc7506be	-0.014955221
213	0xbcd467e5	-0.025928447
214	0xbe7776b4	-0.24166375
215	0x3d9a226f	0.07526099
216	0x3cb389c5	0.02191628
217	0xbdf3cb88	-0.11904055
218	0xbd5a16fb	-0.053244572
219	0xbd52b1d7	-0.051439133
220	0xbccb8e33	-0.02484808
221	0x3cb0a8ab	0.021564802
222	0x3d488e1b	0.048963647
223	0xbcd77976	-0.026303034
224	0xbd90138b	-0.070349775
225	0xbdd750d6	-0.10513465
226	0x3c1fbe6a	0.009749988
227	0xbdbd8874	-0.09254542
228	0x3ce01395	0.027353087
229	0xbd55ed1a	-0.05222807
230	0xbd93511a	-0.07193203
231	0xbdacff58	-0.084471405
232	0xbce87728	-0.02837713
233	0x3e9193ad	0.2843298
234	0x3db1fecc	0.08691177
235	0x3c26ec95	0.0101882415
236	0x3e058ff9	0.13043202
237	0x3da9b368	0.08286172
238	0x3da87340	0.08225107
239	0xbcf47de3	-0.029845184
240	0x3d3adada	0.04561887
241	0x3e768075	0.2407244
242	0x3d2628aa	0.040566124
243	0xbe205397	-0.15656887
244	0x3b563281	0.0032683911
245	0xbd8e15ce	-0.06937753
246	0x3d463bed	0.048396993
247	0x3d9a13c8	0.07523304
248	0x3e2170e8	0.15765727
249	0x3cef896e	0.029240336
250	0xbca346d6	-0.019931238
251	0x3cc1f781	0.02367759
252	0xbd082785	-0.033240814
253	0x3e1badee	0.15203068
254	0x3da3e088	0.0800181
255	0xbd5089f7	-0.050912824

layers.1.bias f4 [50]
0	0x3d0a35c2	0.033742674
1	0xbcd16160	-0.025559127
2	0x3dd21eae	0.10259758
3	0x3ecd5298	0.40102077
4	0x3dc1f591	0.09470666
5	0xbb1c22e0	-0.0023824498
6	0x3cd156f8	0.025554165
7	0x3e466fd5	0.19378598
8	0xbc2f5662	-0.010701748
9	0x398044ae	0.00024465233
10	0x3d15a1d6	0.036531292
11	0x3d232c29	0.039837036
12	0x3e4fa4fe	0.20277783
13	0x3e1d0bff	0.15336607
14	0x3c93e420	0.018053114
15	0xbd1b0414	-0.037845686
16	0x3d395378	0.045245618
17	0x3d19f864	0.0375904
18	0x3dd20a6c	0.10255894
19	0x3da910b4	0.08255139
20	0xb959f6fe	-0.00020786744
21	0x3e068d12	0.13139752
22	0x3ed7e813	0.42169246
23	0x3dcea7b1	0.10090578
24	0x3e2ed68c	0.1707403
25	0xbd18c37f	-0.037295815
26	0x3d117a9c	0.03551732
27	0x3da1734a	0.07883318
28	0x3e45acdf	0.19304226
29	0x3d9ef99e	0.077624545
30	0x3da8f643	0.08250096
31	0x3dec2b5e	0.11531709
32	0xbcee34e3	-0.029077953
33	0x3df90a09	0.12160117
34	0x3e2431c4	0.16034609
35	0x3e9ae543	0.30253038
36	0x3d1c2fb7	0.038131442
37	0x3e02b797	0.12765346
38	0x3ddd006a	0.107910946
39	0x3e4ae677	0.19814478
40	0x3e2053ff	0.15657042
41	0x3dd5a383	0.10431578
42	0x3e1cf5e5	0.15328176
43	0x3d927f07	0.07153135
44	0x3db039c8	0.08604771
45	0x3bddcee7	0.0067690494
46	0xbd1e73b6	-0.03868457
47	0x3e25ce5a	0.16191998
48	0x3dca06b3	0.09864559
49	0x3e213456	0.15742621

emb_layer.weight f4 [2, 50]
0	0xbd3668d9	-0.044533584
1	0x3d80cf11	0.06289495
2	0x3d0eed06	0.034894012
3	0xbe5555f4	-0.2083357
4	0xbdb0dd32	-0.0863594
5	0x3dd5234f	0.10407125
6	0x3bbf3347	0.00583497
7	0x3d770539	0.060307715
8	0x3d939948	0.072069705
9	0x3c1ec71f	0.009691029
10	0xbdec1d32	-0.11529006
11	0xbe0ee540	-0.1395464
12	0xbde9f125	-0.11422948
13	0x3d61616a	0.055024542
14	0xbe1ccf5f	-0.15313481
15	0x3dcf214a	0.10113771
16	0x3c30e344	0.010796372
17	0xbd5d9e9d	-0.054106344
18	0xbd2e89cd	-0.042611886
19	0x3d210be8	0.039317995
20	0x3d93ada2	0.07210852
21	0xbbc1126f	-0.00589209
22	0xbe301038	-0.17193687
23	0xbe210fb8	-0.15728652
24	0x3cd855bd	0.02640807
25	0xbd874dd5	-0.06606642
26	0x3db25bd6	0.087089226
27	0xbd38b90a	-0.045098342
28	0xbd8116f9	-0.0630321
29	0x3d0b8d42	0.03407026
30	0xbd9ab12e	-0.075533256
31	0x3de8f369	0.11374552
32	0xbdcf20ec	-0.10113701
33	0xbde225ad	-0.11042342
34	0xbc06257a	-0.008187646
35	0xbdb74bd8	-0.08950013
36	0x3d5bdb9b	0.05367623
37	0xbc2afe5b	-0.01043662
38	0x3c88f3d3	0.016717827
39	0xbd834fdc	-0.06411716
40	0xbc285840	-0.010274947
41	0x3d04fd30	0.03246802
42	0xbd36bc90	-0.04461342
43	0x3ddb1ab6	0.10698454
44	0x3dcb8306	0.099371
45	0x3d9df239	0.07712216
46	0xbdb2c4d1	-0.08728946
47	0x3c38788a	0.0112592075
48	0x3d89dbb9	0.06731362
49	0x3def302a	0.116791084
50	0x3c7d5a2f	0.015463396
51	0x3ddb10f4	0.10696593
52	0x3da93ca3	0.08263519
53	0x3e0a6d71	0.13518311
54	0xbd833058	-0.06405705
55	0x3dfdb484	0.12387946
56	0xbd8bda1f	-0.06828713
57	0x3e29774d	0.16549416
58	0xbbfab7d2	-0.0076513076
59	0xbd8a0f83	-0.0674124
60	0x3e28ba96	0.16477427
61	0x3e2ce54b	0.16884343
62	0x3e154d89	0.14580359
63	0x3c16073f	0.009157001
64	0x3df75222	0.120762125
65	0x3da82b8b	0.0821143
66	0xbe515844	-0.20443827
67	0xbd7392ef	-0.0594663
68	0x3c7a6a5a	0.015284145
69	0xbda6b7af	-0.081405036
70	0xbdcaa11c	-0.098940104
71	0x3c2acea1	0.010425241
72	0xbd8beee2	-0.06832673
73	0xbcc83e32	-0.02444372
74	0xbda0169a	-0.07816811
75	0xbd76c218	-0.060243696
76	0xbdaddf92	-0.08489908
77	0x3e11dd18	0.14244497
78	0x3c4b8e9f	0.01242414
79	0x3cdee30d	0.027207876
80	0xbdea5d97	-0.11443632
81	0x3bec2d19	0.0072075245
82	0xbd0e0c9f	-0.034680005
83	0xbbfa3a28	-0.0076363273
84	0xbd12868e	-0.035772853
85	0x3db2c3d3	0.08728757
86	0x3d75e827	0.06003585
87	0x3e1071f8	0.14105976
88	0x3d2d9dab	0.042386692
89	0x3db5596a	0.08854945
90	0x3c85bb2e	0.016324606
91	0xbd587d3d	-0.05285381
92	0x3e2eb734	0.17062074
93	0xbd179b16	-0.037013136
94	0x3d67898d	0.056527663
95	0x3d9a5a5b	0.07536765
96	0xbc2b96b5	-0.010472943
97	0x3db523d4	0.08844724
98	0x3d7dc96c	0.06195967
99	0x3dc4daef	0.09612071

emb_layer.bias f4 [2]
0	0xbddd85ec	-0.10816559
1	0xbdaf8b58	-0.085714996

class_layer.weight f4 [10, 50]
0	0x3dbe4810	0.092910886
1	0xbe20b47e	-0.15693852
2	0xbd4ce3e4	-0.05002202
3	0xbebda73a	-0.37041646
4	0xbe78352b	-0.24239032
5	0xbeb2518c	-0.3482784
6	0x3e3a6479	0.1820239
7	0x3ca22eb1	0.019797655
8	0x3d13b965	0.036065478
9	0xbd9582d1	-0.07300342
10	0x3c91681f	0.017749844
11	0xbd3b4454	-0.04571946
12	0x3e5cb157	0.21552025
13	0xbdcae968	-0.099078
14	0x3d83f93a	0.064440206
15	0xbe6e0371	-0.232435
16	0x3f03a872	0.514289
17	0xbcdedcf6	-0.027204972
18	0x3db789ba	0.08961816
19	0x3eb466f0	0.35234785
20	0xbdd8a4be	-0.10578297
21	0x3f088b9a	0.53338015
22	0xbefb012d	-0.49024335
23	0xbe37f09a	-0.17962876
24	0xbd94f3fe	-0.072731
25	0x3dec9301	0.11551476
26	0x3e11c792	0.14236286
27	0xbdaef940	-0.085436344
28	0x3e8086bd	0.25102797
29	0xbe181ad2	-0.14853981
30	0x3e19f5c1	0.15035154
31	0x3e7378db	0.23776571
32	0x3e632f7a	0.2218608
33	0xbe4bdbc6	-0.19908056
34	0x3e60e6f1	0.21963097
35	0xbeb2de69	-0.3493531
36	0xbcdac9d8	-0.026707575
37	0xbde4ce69	-0.11172182
38	0x3d9f3b86	0.07775025
39	0xbe57e8b0	-0.21084857
40	0xbea40027	-0.32031366
41	0x3d1010e0	0.035172343
42	0xbda2c0c7	-0.079469256
43	0xbe11c6cd	-0.14235993
44	0xbe3ab998	-0.18234861
45	0x3d70a6b2	0.058752723
46	0xbec29995	-0.380078
47	0x3ce21ead	0.027602518
48	0xbd1842b8	-0.037173003
49	0xbe289882	-0.16464427
50	0xbe603df1	-0.21898629
51	0x3dc665a3	0.096873544
52	0x3ea87257	0.32899734
53	0xbe29f386	-0.16596803
54	0xbdc7ee8e	-0.097622976
55	0xbd9b5558	-0.075846374
56	0xbdd9bc74	-0.10631648
57	0x3dfc363d	0.12315033
58	0xbe49ebec	-0.19718903
59	0xbdbb1127	-0.09134131
60	0x3e0b64f5	0.13612731
61	0x3ed713ab	0.42007193
62	0x3d4eb12b	0.05046193
63	0xbd45f5b4	-0.048330024
64	0x3dbb3abd	0.09142063
65	0xbc5e9158	-0.013584457
66	0xbe5eaa3b	-0.21744625
67	0xbdaddee4	-0.08489779
68	0xbe9d4b82	-0.3072167
69	0xbe1f8de3	-0.15581469
70	0xbe5dbb3a	-0.21653453
71	0xbf29b835	-0.662967
72	0x3d6a0219	0.057130907
73	0xbc819a8f	-0.01582077
74	0xbdce4446	-0.10071616
75	0x3d2d74f7	0.042347874
76	0xbe797aaa	-0.24363199
77	0x3db6de97	0.089291744
78	0xbe3f09ef	-0.18656133
79	0x3e9afb82	0.3027001
80	0x3d64c15a	0.055848457
81	0x3bc5ac66	0.0060325144
82	0xbec1a5a3	-0.37821683
83	0x3e917fac	0.28417718
84	0xbe4c7aba	-0.19968691
85	0x3ea265f2	0.31718403
86	0x3ced318f	0.028954295
87	0x3d9fa17a	0.07794471
88	0x3dcc55b8	0.09977287
89	0x3d93e59f	0.07221531
90	0x3ea9c54f	0.33158347
91	0xbda10b0d	-0.07863436
92	0x3eb6d397	0.35708305
93	0x3dc295b6	0.09501211
94	0xbce9c764	-0.02853746
95	0xbc2994eb	-0.010350446
96	0x3dc9a43d	0.09845779
97	0x3e2f4369	0.17115559
98	0x3e087201	0.13324739
99	0x3df016f0	0.11723125
100	0xbeef511b	-0.46741566
101	0xbdf538b9	-0.119737096
102	0xbd4c0975	-0.049813706
103	0xbea5fef1	-0.32421067
104	0x3e008739	0.12551583
105	0x3cc3d034	0.02390299
106	0x3dc1c1b9	0.09460778
107	0xbe54bbf4	-0.20774823
108	0x3e087203	0.13324742
109	0xbf24fccc	-0.6444824
110	0xbe2004f8	-0.15626895
111	0xbe5279c0	-0.20554256
112	0xbe8c1801	-0.27362064
113	0x3de8f2c8	0.11374432
114	0xbe0e9250	-0.13923001
115	0xbe9cb357	-0.30605575
116	0xbdf5e05d	-0.120056845
117	0x3edcd5c0	0.43131828
118	0x3f067dac	0.5253551
119	0xbdb53819	-0.088485904
120	0x3ddcdef6	0.10784714
121	0xbdde6e5e	-0.108608946
122	0xbdfafb4c	-0.12254962
123	0xbd3da9ca	-0.0463045
124	0x3ebea803	0.37237558
125	0x3e87068d	0.26372185
126	0x3d8d2d74	0.06893435
127	0x3c107823	0.008817705
128	0x3ea5f58e	0.32413906
129	0xbe6b0b61	-0.2295356
130	0xbd5fb0f0	-0.0546121
131	0x3e7e4be5	0.24833639
132	0xbea5d017	-0.32385322
133	0xbe54af29	-0.20769943
134	0x3e68c1c7	0.2273017
135	0x3ec0e5cd	0.37675324
136	0xbf0e5fab	-0.5561473
137	0xbe8351eb	-0.25648436
138	0x3d021928	0.031762272
139	0x3ea9423c	0.33058345
140	0x3e79dcee	0.24400684
141	0x3e9809f9	0.2969511
142	0xbc81158e	-0.015757348
143	0xbd22f0ed	-0.039780546
144	0xbe21b7fd	-0.15792842
145	0x3da3064d	0.07960186
146	0x3eed105c	0.46301544
147	0x3e3d35d8	0.18477571
148	0xbeb43c92	-0.3520246
149	0xbe00c2ff	-0.12574385
150	0xbf2e72a7	-0.68143696
151	0x3da07f1d	0.07836745
152	0x3d492ede	0.04911696
153	0x3ebf98b7	0.374212
154	0x3e98b62e	0.29826492
155	0x3ebe5f05	0.3718187
156	0x3e615470	0.22004867
157	0xbe89ac55	-0.2688929
158	0xbea72662	-0.3264647
159	0xbef1727e	-0.47157663
160	0xbdd0f860	-0.10203624
161	0xbeb32f12	-0.3499685
162	0xbed88873	-0.42291602
163	0x3e257e71	0.16161515
164	0xbc17877e	-0.009248612
165	0x3eaa14e9	0.33219078
166	0xbea906ed	-0.33013096
167	0xbdc770ce	-0.09738313
168	0x3d22a4fc	0.039708123
169	0xbe80c1e3	-0.25147924
170	0xbe72f8c7	-0.23727714
171	0x3ea15480	0.3150978
172	0x3e028cf9	0.1274909
173	0xbe564f05	-0.20928581
174	0xbd7d234f	-0.06180125
175	0xbde6aaa4	-0.11263016
176	0x3e642c15	0.22282441
177	0xbdac9eda	-0.08428736
178	0xbe606f84	-0.2191754
179	0xbe0f1cc4	-0.13975817
180	0xbe0a3f46	-0.135007
181	0xbd912aa9	-0.07088215
182	0x3d7ace42	0.06123186
183	0xbe732e29	-0.23748077
184	0xbdfdecba	-0.12398668
185	0x3e211f70	0.15734649
186	0x3e05d0a3	0.1306787
187	0xbcd89053	-0.026436007
188	0x3d786536	0.060643397
189	0xbe50065c	-0.20314926
190	0x3ea61987	0.3244135
191	0xbeb44a15	-0.3521277
192	0xbd53db8d	-0.05172305
193	0x3d4db5c9	0.050222192
194	0x3e8de8ce	0.27716678
195	0x3d911e3e	0.07085846
196	0xbd5e3192	-0.054246493
197	0xbd61636f	-0.055026468
198	0xbcee25db	-0.029070785
199	0x3e626365	0.22108229
200	0xbdddf25d	-0.10837243
201	0x3df29278	0.11844343
202	0xbcd8850c	-0.02643063
203	0x3e422ff0	0.18963599
204	0x3f1a5f84	0.60301995
205	0x3c586f15	0.013210078
206	0x3c0d3bab	0.008620183
207	0x3d950a93	0.072774075
208	0x3eb5fa9c	0.35542762
209	0x3ee5f0c6	0.44910258
210	0x3e99cd80	0.30039597
211	0x3e6a8cff	0.22905348
212	0x3d8494f4	0.06473723
213	0xbe7e6f38	-0.24847114
214	0x3e0d1ccb	0.13780515
215	0xbe90117b	-0.28138337
216	0x3ccf1597	0.02527885
217	0xbdc5a005	-0.09649662
218	0x3e3c3b6a	0.1838204
219	0xbde74d21	-0.11294008
220	0xbe223245	-0.15839489
221	0xbf0e91c9	-0.556912
222	0x3ec9d69b	0.39421543
223	0x3d2fc237	0.042909827
224	0x3e2f827b	0.17139618
225	0xbbbb4a78	-0.0057156645
226	0xbe318461	-0.17335655
227	0xbdb65956	-0.08903758
228	0x3ec7697a	0.3894766
229	0x3ea043cc	0.31301725
230	0x3e98771d	0.29778376
231	0xbdc45d17	-0.09588068
232	0x3e36d54a	0.17854801
233	0x3d887928	0.06663734
234	0x3de2fa79	0.1108293
235	0xbed855f5	-0.4225308
236	0x3b37fb64	0.0028073424
237	0x3e19d40e	0.15022299
238	0x3d87b813	0.06626906
239	0xbee61094	-0.44934523
240	0xbd5ddc88	-0.054165393
241	0x3ef7729f	0.48329636
242	0x3e4d5200	0.20050812
243	0x3bd56dc6	0.00651333
244	0x3d185e4f	0.037199315
245	0xbe888f3b	-0.26671776
246	0xbe6250e6	-0.22101173
247	0xbe796d3a	-0.24358073
248	0x3c830669	0.015994268
249	0xbc2bdc71	-0.010489569
250	0xbe313b56	-0.17307791
251	0xbe83089a	-0.255925
252	0xbe0c0322	-0.1367307
253	0x3dd95106	0.10611157
254	0xbecf00de	-0.4043035
255	0xbc662d05	-0.014048819

class_layer.bias f4 [10]
0	0x3d4562ba	0.048189856
1	0xbc529d46	-0.01285488
2	0xbc1d422c	-0.009598296
3	0x3d0bcee7	0.034132864
4	0x3d0aa792	0.033851214
5	0x3d8bf920	0.06834626
6	0xbb7eba20	-0.0038868263
7	0x3dc0ee69	0.09420473
8	0x3deeffc9	0.11669881
9	0xbe117e27	-0.1420828
