notebooks/paper-plots/models/w0.95.pt (torch, 339531 bytes, 8 tensors)

layers.0.weight f4 [100, 784]
0	0xbc42c6f8	-0.011888258
1	0x3cb8172a	0.022471983
2	0xbc0cf572	-0.008603441
3	0x3ca50b90	0.020147115
4	0xba685cc0	-0.00088639185
5	0xbab58820	-0.0013849773
6	0xbc90c283	-0.017670875
7	0x3ca00d4c	0.01953759
8	0xbc35bc0a	-0.011092195
9	0x3bfbd230	0.0076849684
10	0x3c2bfff4	0.010498036
11	0x3c542348	0.012947865
12	0x3d07a6d3	0.03311808
13	0xbbb16d1c	-0.005414618
14	0xbcc66e88	-0.024222627
15	0x3a8d2560	0.0010768585
16	0x3c537114	0.012905378
17	0xbcd75de3	-0.026289886
18	0x3ca8f276	0.020623427
19	0x3c1f4444	0.009720866
20	0xbbe59040	-0.0070057213
21	0x3c788fd8	0.015171014
22	0x3b8ad730	0.004237078
23	0xbabf8140	-0.0014610663
24	0x3b15dc90	0.0022867061
25	0x3cbd756c	0.02312728
26	0xbcdfa1f5	-0.027298907
27	0xbce6f60c	-0.028193496
28	0x3cf5cd22	0.030005042
29	0x3c62d574	0.0138448365
30	0x3c318d50	0.010836914
31	0xbc07983c	-0.008276042
32	0xbc9128f3	-0.017719721
33	0xbc133ace	-0.008986188
34	0x3cca51c0	0.024697185
35	0x3c768593	0.015046495
36	0xbd77e6c0	-0.060522795
37	0xbceeebd2	-0.029165182
38	0xbd2a83d7	-0.04162964
39	0xbdcfd0bd	-0.101472355
40	0xbd427736	-0.04747697
41	0xbd3aa4f2	-0.04556746
42	0xbc4fd63d	-0.012685356
43	0x3e6a7c0f	0.22898887
44	0x3e44ea53	0.19230013
45	0xbd23a612	-0.0399533
46	0xbd17c89c	-0.03705655
47	0xbd8fc17a	-0.070193246
48	0x3c36c235	0.011154701
49	0x3d02756b	0.03185026
50	0xbcad6114	-0.021164455
51	0x3a0e3e80	0.00054261833
52	0xbbcb8324	-0.0062107015
53	0xbcf79b41	-0.030225398
54	0xbb75bb90	-0.003749583
55	0xbc8db580	-0.01729846
56	0x3c269a08	0.01016856
57	0xbd077826	-0.033073567
58	0x3c7350e4	0.014850829
59	0x3a91d540	0.0011126176
60	0xbd29a7db	-0.041419845
61	0xbe1b957b	-0.15193741
62	0xbe0a79aa	-0.13522974
63	0xbd3bcaa3	-0.045847546
64	0xbcd55858	-0.026043102
65	0xbd4d4d55	-0.050122578
66	0xbbdac6b1	-0.006676518
67	0xbccbf5a8	-0.024897411
68	0x3d0fe01d	0.03512584
69	0xbce19eac	-0.027541481
70	0x3c440939	0.0119650895
71	0xbc0edfe7	-0.008720375
72	0xbc896b2b	-0.016774734
73	0xbd717e04	-0.05895807
74	0xbd879284	-0.066197425
75	0x3d945ede	0.07244657
76	0x3e29b101	0.16571428
77	0xbc52b66f	-0.012860878
78	0xbde285ee	-0.11060701
79	0x3e25d56d	0.16194697
80	0x3e2ba8f8	0.16763675
81	0xbc5f6f9c	-0.01363745
82	0x3b48cc50	0.0030639358
83	0xbaafd0a0	-0.0013413616
84	0x3cfe9f86	0.031081926
85	0xbd05ba2c	-0.03264825
86	0x3cbe67f2	0.023242924
87	0x3cc4c46e	0.024019446
88	0xbd207d0c	-0.039181754
89	0xbdbfe0be	-0.09369038
90	0xbd76e4bc	-0.06027673
91	0xbd1b1d96	-0.037870012
92	0xbdb018c3	-0.08598473
93	0xbda2659d	-0.079295374
94	0xbdf2ff57	-0.118651085
95	0xbd1ef2e0	-0.038805842
96	0xbd060ec4	-0.032728925
97	0x3c5b53b5	0.0133866565
98	0xbd337797	-0.04381522
99	0xbd38157b	-0.04494236
100	0xbc94d342	-0.018167142
101	0xbd046506	-0.032322906
102	0xbd8c6b49	-0.068564005
103	0x3d22b4b6	0.03972312
104	0x3ae557fc	0.0017497535
105	0xbd91ff17	-0.07128733
106	0xbdbefff3	-0.09326162
107	0x3defc0d6	0.117067024
108	0x3e7178bd	0.23581214
109	0xbc42fc32	-0.011900948
110	0xbc2953ee	-0.010334952
111	0xbc05d3e0	-0.008168191
112	0xba635040	-0.0008671321
113	0x3b3624e0	0.0027792975
114	0x3a371fc0	0.0006985627
115	0xbbe151ef	-0.0068762223
116	0x3e299564	0.16560894
117	0xbd0171d3	-0.03160269
118	0xbcfc076a	-0.030765254
119	0xbd25e697	-0.04050311
120	0xbe39e50e	-0.18153784
121	0xbde7f842	-0.11326648
122	0xbd937e94	-0.07201877
123	0xbd4ce90e	-0.050026946
124	0xbc453052	-0.012035446
125	0xbd67c93b	-0.056588393
126	0xbe129fb6	-0.14318737
127	0xbd843d69	-0.064570256
128	0xbcb5ec05	-0.02220727
129	0xbcf8377f	-0.0302999
130	0xbd5c328c	-0.053759143
131	0x3cc3e54d	0.02391305
132	0x3da120cc	0.07867584
133	0x3d8c5008	0.06851202
134	0x3da7e931	0.081987746
135	0x3d51e94f	0.05124789
136	0x3ba072ff	0.004896521
137	0x3e57027a	0.20997038
138	0xbcb02475	-0.021501759
139	0x3ca3093c	0.019901864
140	0xba0a36c0	-0.00052724406
141	0xbbe29170	-0.00691431
142	0x3d34e633	0.044164848
143	0xbbee8ea5	-0.007280188
144	0xbb7da03e	-0.0038700248
145	0x3dd49851	0.103806145
146	0xbd58a322	-0.05288995
147	0xbe267f7b	-0.16259567
148	0xbde970fd	-0.11398504
149	0xbd0f6a2b	-0.03501336
150	0xbe1dfac4	-0.1542769
151	0xbdaaaf23	-0.08334186
152	0xbd69052c	-0.056889698
153	0xbe528734	-0.20559388
154	0xbe233dc9	-0.15941538
155	0xbdb9ab73	-0.090659045
156	0x3c0b9a7f	0.008520721
157	0x3c6c22bd	0.014412579
158	0x3d9548fe	0.07289313
159	0x3dc21160	0.0947597
160	0x3d41d8ed	0.047326017
161	0x3aefb2f8	0.001828759
162	0x3bba1fe1	0.00568007
163	0x3df43a05	0.11925129
164	0x3dc6f5e0	0.09714866
165	0x3e034da6	0.1282259
166	0xbdc5ce9e	-0.0965855
167	0x3d4b0195	0.049562056
168	0x3b86d150	0.0041143075
169	0xbc30cff8	-0.010791771
170	0x3b09e639	0.0021041764
171	0xbd2a0e9a	-0.04151783
172	0x3c2f8500	0.010712862
173	0xbb8abb35	-0.0042337426
174	0xbe1abf73	-0.15112095
175	0xbdb2ae20	-0.08724618
176	0xbde01329	-0.109411545
177	0xbda35ce3	-0.07976701
178	0xbda9858b	-0.082774244
179	0xbe2f201a	-0.1710209
180	0xbe40bf9a	-0.1882309
181	0xbe65191a	-0.22372857
182	0xbe0d0530	-0.1377151
183	0xbe075d17	-0.13219105
184	0xbd94bf52	-0.07263054
185	0xbd110da4	-0.0354134
186	0x3d2f5b8f	0.042811926
187	0x3e1f5843	0.15561013
188	0x3c860fb2	0.016364906
189	0x3d21db9b	0.039516073
190	0x3d0d5f3b	0.034514647
191	0x3dc72643	0.09724095
192	0x3dfe48dd	0.12416241
193	0x3e3272e9	0.17426647
194	0x3e5cc992	0.21561268
195	0xbd300a92	-0.04297883
196	0xbd2ba6fe	-0.041907303
197	0x3d7f1c5e	0.062282912
198	0xbb19d07d	-0.0023470216
199	0x3cac0d88	0.021002546
200	0x3c9c9496	0.01911382
201	0x3c8d8615	0.01727585
202	0xbd74e508	-0.059788734
203	0xbb8df1d2	-0.0043318057
204	0xbdcc4368	-0.09973794
205	0xbdab8dc7	-0.08376651
206	0xbde7f8b7	-0.113267355
207	0xbd9c9352	-0.076452866
208	0xbe091ea1	-0.1339059
209	0xbdc9fea8	-0.09863025
210	0xbd94371d	-0.072370745
211	0xbd8b4724	-0.06800678
212	0xbdc09ab9	-0.09404511
213	0x3d6a3ebe	0.057188742
214	0x3ddebfe5	0.10876445
215	0x3dd44c05	0.10366062
216	0x3c211feb	0.00983427
217	0x3d989596	0.07450406
218	0x3de139e4	0.1099737
219	0x3df113d8	0.11771363
220	0x3d23f036	0.040024005
221	0x3dfbbed7	0.12292259
222	0x3d5ecc12	0.054393835
223	0xbcb487a7	-0.02203734
224	0xbd853038	-0.065033376
225	0xbd633c2d	-0.05547731
226	0x3c12fde3	0.008971664
227	0x3d2f0fd5	0.042739708
228	0x3ccc7086	0.024956
229	0xbd811e8e	-0.06304656
230	0xbda7b47c	-0.081887215
231	0xbda2bfdc	-0.079467505
232	0xbdc7bea0	-0.09753156
233	0xbd9ddebf	-0.07708501
234	0xbe106bfc	-0.14103693
235	0xbe01e943	-0.12686639
236	0xbe1d1e65	-0.15343626
237	0xbc95a9ce	-0.018269446
238	0xbca8f6c4	-0.02062548
239	0x3c832d92	0.01601294
240	0x3d23579b	0.03987847
241	0x3dd95174	0.10611239
242	0x3dfafcd2	0.12255253
243	0x3d11a07d	0.035553444
244	0xbab5d41e	-0.001387242
245	0x3d29ae1d	0.041425813
246	0x3e027786	0.12740907
247	0x3d310c8c	0.043224856
248	0x3d27eced	0.040997434
249	0x3e06214f	0.13098644
250	0x3db79578	0.08964056
251	0x3e06182a	0.13095155
252	0xbcf22d46	-0.029562604
253	0x3e0d0f16	0.13775286
254	0xbcaef4ab	-0.021356901
255	0xbd94e616	-0.07270448

layers.0.bias f4 [100]
0	0x3e3c14e6	0.18367347
1	0x3e553a5a	0.2082304
2	0x3c99bcf2	0.018766854
3	0x3e288530	0.16457057
4	0xbde3a72c	-0.1111587
5	0x3aeb70dd	0.0017962713
6	0x3d9f1bd5	0.077689804
7	0x3d39d221	0.04536641
8	0x3dfc8ac8	0.12331158
9	0xbd48aa15	-0.048990328
10	0x3edac9f1	0.42732194
11	0x3eec6526	0.4617092
12	0x3d3aa7a4	0.04557003
13	0x3e466e39	0.19377984
14	0x3e3a999b	0.18222658
15	0x3c63595d	0.013876286
16	0x3c87d928	0.01658304
17	0x3e3de93e	0.18546006
18	0x3da28078	0.0793466
19	0x3dc35f19	0.09539623
20	0x3c227b7a	0.009917134
21	0x3d419a52	0.047266312
22	0x3e5f7b4c	0.21824378
23	0x3d70893f	0.058724638
24	0xbd898f5d	-0.067167975
25	0x3d4e0582	0.05029822
26	0x3dfd4220	0.12366128
27	0x3dd2d120	0.10293794
28	0x3db2cdd7	0.08730667
29	0x3e0ede19	0.13951911
30	0x3eaf26fd	0.34209433
31	0x3e17f6e5	0.14840277
32	0x3d03c1ea	0.032167353
33	0x3da63298	0.08115119
34	0x3ded8bf3	0.11598959
35	0x3db6b65d	0.08921502
36	0xbb76ead8	-0.00376766
37	0x3da703b0	0.08155
38	0x3d1685f8	0.036748856
39	0x3d4a9f75	0.049468476
40	0x3db018bc	0.08598468
41	0x3d8d98a9	0.06913883
42	0xbdb29715	-0.08720223
43	0xbd343702	-0.043997772
44	0xbd7701c2	-0.06030441
45	0x3e2f12e0	0.17097044
46	0x3df2c309	0.11853606
47	0x3ca079fc	0.019589417
48	0x3c82318a	0.015892763
49	0x3dd62894	0.104569584
50	0x3d574d2d	0.052563835
51	0x3d596ef4	0.05308433
52	0x3eaa3bd5	0.33248773
53	0x3e11620a	0.14197555
54	0xbe32ce6b	-0.17461555
55	0x3d9898e1	0.07451034
56	0x3d4d9f04	0.050200477
57	0xbc8811ea	-0.016610105
58	0x3d59626a	0.05307237
59	0x3d53ecf4	0.051739648
60	0x3bfeb8de	0.0077735027
61	0xbcf289fc	-0.029606812
62	0x3df90b8a	0.12160404
63	0x3e43e5b4	0.19130594
64	0x3d17297e	0.036904804
65	0x3e2b3371	0.16718842
66	0x3e1e469e	0.15456626
67	0x3b9922c6	0.004673335
68	0x3ea3088a	0.31842452
69	0x3e3d8e30	0.18511271
70	0x3dbeb750	0.09312308
71	0x3de432d1	0.11142505
72	0x3e52a1ae	0.20569488
73	0x3e3e6e99	0.18596877
74	0x3d97e26d	0.07416234
75	0x3e1d16bd	0.15340705
76	0x3d82956d	0.06376157
77	0x3e06649e	0.1312432
78	0x3e1dcf9d	0.1541123
79	0x3d8cac10	0.06868756
80	0x3d8a91d6	0.06766097
81	0x3c8e7c3c	0.017393224
82	0x3eab431f	0.33449647
83	0x3b735c56	0.0037133894
84	0x3db5ee18	0.088833034
85	0xbd063072	-0.032761045
86	0x3e6d1cf4	0.23155576
87	0x3c4a1eea	0.012336472
88	0x3d6708ca	0.056404866
89	0xbd87d265	-0.066319264
90	0x3e8dea08	0.27717614
91	0x3e33a248	0.17542374
92	0x3cfc854a	0.030825276
93	0x3e03096c	0.12796563
94	0x3c5cca3a	0.013475949
95	0x3d338260	0.043825507
96	0x3dc1de03	0.094661735
97	0x3cf5b72d	0.029994572
98	0x3de5a0fc	0.11212346
99	0x3dab9bc7	0.083793215

layers.1.weight f4 [50, 100]
0	0x3d64b376	0.05583521
1	0xbdb76373	-0.08954515
2	0x3db8c961	0.09022785
3	0x3c808212	0.015687022
4	0xbc09a187	-0.0084003275
5	0x3d2337ba	0.039848067
6	0x3dc4f649	0.09617288
7	0xbd671fad	-0.056426693
8	0x3dd28bcb	0.1028057
9	0x3cf9f3a1	0.03051168
10	0xbe1bd199	-0.15216674
11	0x3c1ef86f	0.009702786
12	0x3d921738	0.07133335
13	0x3c5fdbae	0.013663216
14	0x3dab6023	0.08367946
15	0xbcffeb28	-0.03124006
16	0x3de5458f	0.11194908
17	0x3e44a7d4	0.19204646
18	0xbda9a18e	-0.08282767
19	0xbe0c87e5	-0.13723715
20	0xbe0ed71e	-0.13949248
21	0x3bceed14	0.006314883
22	0x3e0354d9	0.12825336
23	0xbce0d607	-0.027445806
24	0x3e0a9e04	0.1353684
25	0x3c960c6a	0.018316466
26	0xbd5d884b	-0.054085057
27	0xbd8274bf	-0.06369924
28	0x3db68a12	0.089130536
29	0xbd66fa2e	-0.056390934
30	0xbd880a82	-0.06642629
31	0x3dc3d992	0.095629826
32	0xbd43d60f	-0.047811564
33	0x3e2c5d5a	0.16832486
34	0xbe05ed05	-0.13078697
35	0xbcecea55	-0.028920332
36	0x3d30d876	0.043175183
37	0xbd0b9781	-0.034080032
38	0xbd458f9c	-0.04823266
39	0x3dabac8f	0.08382522
40	0x3d194205	0.037416477
41	0x3b06add9	0.0020550399
42	0xbd9f1c4e	-0.077690706
43	0x3db94bc2	0.09047653
44	0xbc217136	-0.009853652
45	0x3c506e54	0.012721617
46	0x3df8bc96	0.12145345
47	0xbd044da8	-0.03230062
48	0x3e0859c2	0.1331549
49	0x3d3fe10e	0.04684549
50	0xbe1480fe	-0.14502332
51	0xbde0968c	-0.109662145
52	0x3e0c705e	0.1371474
53	0x3e1661c4	0.14685732
54	0xbd1ba944	-0.03800322
55	0xbd30fd62	-0.043210395
56	0x3d9f1935	0.0776848
57	0xbd9a6dda	-0.07540484
58	0xbbb0241f	-0.0053753997
59	0xbc56d0d2	-0.01311131
60	0x3de16fd3	0.11007657
61	0x3cf60120	0.030029833
62	0x3d4006a3	0.04688133
63	0x3e4d917a	0.20075026
64	0x3d76dbda	0.06026826
65	0xbc12185e	-0.008916942
66	0xbe010d74	-0.12602788
67	0x3da2bda6	0.07946329
68	0x3e39ceda	0.18145314
69	0xbc410c0b	-0.011782656
70	0xbd2176b0	-0.03941983
71	0x3e4b25e1	0.19838668
72	0x3e0c9a09	0.13730635
73	0xbd8e0bf8	-0.069358766
74	0xbd2cd569	-0.04219571
75	0x3e14f092	0.14544895
76	0x3e027fe6	0.12744102
77	0x3dce61fa	0.10077281
78	0xbec69968	-0.38788915
79	0x3d0e285f	0.03470647
80	0x3cf855c8	0.030314341
81	0x3c006a98	0.007837914
82	0x3e2a4b1d	0.16630216
83	0x3d075027	0.033035424
84	0xbd9d42de	-0.076787695
85	0xbd3a2405	-0.045444507
86	0x3d06f072	0.03294415
87	0x3bafd0e5	0.0053654783
88	0x3d07b8a6	0.03313508
89	0xbd8afab4	-0.06786099
90	0x3d7e99a2	0.062158234
91	0xbe6997df	-0.2281184
92	0xbc66e134	-0.014091779
93	0xbe310a2d	-0.17289038
94	0xbe4b8c55	-0.19877751
95	0x3e02baaa	0.12766519
96	0xbcb63146	-0.022240292
97	0x3d68f4fe	0.056874268
98	0xbc95ea91	-0.018300327
99	0x3ca538c9	0.020168679
100	0x3e013c48	0.12620652
101	0x3cb4f168	0.022087768
102	0xbd3432a2	-0.0439936
103	0xbd8d71f0	-0.069064975
104	0xbd9e4618	-0.07728213
105	0xbd3fc9f1	-0.046823446
106	0x3e047bfd	0.12937923
107	0xbca9c324	-0.020722933
108	0x3d19264b	0.037390035
109	0xbe03426c	-0.12818307
110	0x3df765d8	0.12079972
111	0x3ec3cdff	0.382431
112	0x3dbb3b2d	0.09142146
113	0x3e0968dd	0.13418908
114	0x3d953700	0.07285881
115	0xbd74ca25	-0.059763093
116	0x3c6e6a35	0.014551689
117	0x3d0e5515	0.03474911
118	0xbdfa7b06	-0.12230496
119	0xbca151ab	-0.019692263
120	0xbd81846f	-0.06324088
121	0x3d51fe7e	0.051268093
122	0x3d2da2b9	0.042391513
123	0x3db311a4	0.08743599
124	0xbd46e0e5	-0.04855432
125	0x3d6eb7ce	0.05828076
126	0xbd4a9fd8	-0.049468845
127	0xbd164161	-0.036683444
128	0xbdd27b4e	-0.10277425
129	0xba30119a	-0.000671649
130	0xbc423064	-0.011852358
131	0x3c998d2f	0.01874408
132	0x3c2a3ffc	0.010391232
133	0x3d3b325b	0.04570232
134	0xbead1a06	-0.33808917
135	0x3cfa8291	0.030579837
136	0xbe0b78c2	-0.13620284
137	0xbd607b0b	-0.054804843
138	0x3de85297	0.11343878
139	0x3cc8cfd7	0.024513168
140	0x3cada1b7	0.021195276
141	0x3d46c102	0.04852391
142	0x3d076149	0.033051763
143	0x3d63eec8	0.05564764
144	0x3dc6e86f	0.09712302
145	0xbd87bc4d	-0.066277124
146	0xbdb01eb0	-0.08599603
147	0xbd596652	-0.053076096
148	0x3d4976f8	0.049185723
149	0x3e030b9c	0.12797397
150	0xbbf00842	-0.007325203
151	0xbdb647f0	-0.0890044
152	0x3dd2b1f7	0.1028785
153	0xbab6cd1e	-0.0013946628
154	0x3da7b682	0.081891075
155	0xba073d0b	-0.00051589374
156	0x3dd724e1	0.10505081
157	0xbddb9c5f	-0.10723185
158	0xbd3bb722	-0.045828946
159	0xbd0f9439	-0.035053466
160	0xbe4a7f6c	-0.1977517
161	0xbd13e2f2	-0.036105104
162	0x3d79263b	0.060827475
163	0xbc624805	-0.013811116
164	0x3d98ca61	0.07460476
165	0xbe4bd72c	-0.199063
166	0xbc45df23	-0.012077126
167	0xbc866fd1	-0.01641074
168	0xbdb5a91c	-0.08870146
169	0xbcf3de56	-0.029769104
170	0xbe05adbb	-0.13054554
171	0xbdbdbd88	-0.09264666
172	0x3d80d679	0.062909074
173	0x3d7e4ffa	0.06208799
174	0x3d86bfc0	0.06579542
175	0x3ca1fd3d	0.019774074
176	0x3d77a442	0.060459383
177	0x3dd5c7e8	0.1043852
178	0x3e40383f	0.18771456
179	0x3df7e069	0.1210335
180	0xbdda8929	-0.106706925
181	0xbd6351b2	-0.055497833
182	0x3e3ebda9	0.18627037
183	0xbd26172b	-0.04054944
184	0xbdf0ad9b	-0.117518626
185	0xbb7b58d9	-0.0038352518
186	0x3dc87a69	0.09788973
187	0xbcf8c9ef	-0.030369727
188	0x3d89891c	0.06715605
189	0x3a128e01	0.0005590618
190	0xbdc27c52	-0.094963685
191	0xbdfea17f	-0.12433147
192	0xba83986c	-0.0010039932
193	0xbd88d54e	-0.0668131
194	0x3b57227e	0.0032826955
195	0x3dd2b578	0.10288519
196	0xbdc29af0	-0.09502208
197	0xbcc0553b	-0.023478141
198	0x3d664ce5	0.056225676
199	0x3e4f6dfc	0.202568
200	0x3dde8ed1	0.10867084
201	0x3ccd96bc	0.02509629
202	0x3d784140	0.060609102
203	0x3d2ce3c8	0.042209417
204	0x3c59598d	0.0132659795
205	0xbbfc0f91	-0.0076922853
206	0x3d0e6eba	0.034773566
207	0xbd807826	-0.062729165
208	0x3d6f64f4	0.058445886
209	0x3c571066	0.013126468
210	0xbd8f2a94	-0.06990543
211	0x3dc2db82	0.09514524
212	0x3d3fb06e	0.046799116
213	0x3c7f690d	0.015589011
214	0x3de38072	0.111084834
215	0xbb60f006	-0.0034322753
216	0xbc2fcfd5	-0.010730703
217	0x3d99e724	0.0751479
218	0x3da2dd52	0.0795237
219	0xbde50f9d	-0.111846186
220	0xbdd9116d	-0.10599027
221	0x3d9968f1	0.07490719
222	0xbd8a4ada	-0.06752558
223	0x3d831d2b	0.06402048
224	0xbd54953a	-0.051900126
225	0xbd0e022f	-0.03467005
226	0x3d8bb5f1	0.06821812
227	0x3cf1b1ec	0.029503785
228	0x3cdfcc61	0.027319135
229	0x3a44dd2a	0.00075097627
230	0xbd3e79be	-0.04650282
231	0x3c2886f3	0.010286081
232	0x3d5b8c63	0.05360068
233	0x3d3223bd	0.043491114
234	0xbcf25038	-0.029579267
235	0x3c8c9da0	0.017165005
236	0x3a875c93	0.0010327272
237	0xbc8a2713	-0.016864335
238	0x3d90630e	0.07050143
239	0xbdb4957d	-0.08817575
240	0xbd9a2d3a	-0.075281575
241	0xbc003bf6	-0.007826796
242	0xbcc24cec	-0.02371832
243	0xbd0edf94	-0.03488119
244	0xbd15196d	-0.0364012
245	0xbc47d105	-0.01219583
246	0xbd7324b0	-0.05936116
247	0x3d6b4d5a	0.057446815
248	0xbd83c176	-0.06433384
249	0xbca1c96e	-0.01974937
250	0xbdf42f6c	-0.119231075
251	0xbcdaa137	-0.026688201
252	0x3d968fca	0.07351644
253	0x3d898166	0.06714134
254	0xbda2a63e	-0.079418644
255	0x3d1beca5	0.03806748

layers.1.bias f4 [50]
0	0x3e176dcc	0.14787978
1	0x3d3628ca	0.044472493
2	0x3b7db059	0.0038709848
3	0xbc970076	-0.018432837
4	0x3e02e182	0.12781337
5	0x3daed980	0.085375786
6	0x3de1ca0a	0.11024864
7	0x3d928503	0.07154276
8	0x3e345d3a	0.17613688
9	0xbd7d4fd3	-0.061843704
10	0x3e1dc82d	0.15408392
11	0x3e0008ca	0.12503353
12	0x3dc87112	0.097871915
13	0x3c813351	0.01577154
14	0x3e498829	0.19680847
15	0x3c68280d	0.014169705
16	0x3e540a47	0.20707045
17	0x3ddcbf46	0.1077867
18	0x3dfa4f4a	0.122221544
19	0x3db36bb9	0.08760781
20	0x3e29c2dc	0.16578239
21	0x3d8ac777	0.06776326
22	0x3d569ae1	0.052393798
23	0x3e8b4314	0.27199614
24	0x3c933f37	0.01797448
25	0x3c9d17e7	0.019176437
26	0x3dd1b533	0.10239639
27	0x3de9abcf	0.11409723
28	0x3e517ff6	0.2045897
29	0x3e0c7e8d	0.1372015
30	0x3e8f6f07	0.28014395
31	0x3d81b571	0.06333435
32	0x3e250e61	0.16118766
33	0x3b312fa9	0.0027036464
34	0x3e1e7da2	0.15477613
35	0x3d4680c2	0.048462637
36	0x3e9e8ee3	0.3096839
37	0x3cc00be5	0.023443172
38	0xbb6345a9	-0.0034678972
39	0x3dfc8349	0.12329728
40	0x3d48993e	0.04897427
41	0x3e9e0d11	0.30869344
42	0x3e2a06ac	0.16604108
43	0x3d1fe182	0.03903342
44	0x3ba3608d	0.004985875
45	0x3d9b6570	0.07587707
46	0x3e3d4c81	0.18486215
47	0x3dba1198	0.09085387
48	0x3d9d70b5	0.07687513
49	0x3d293e22	0.04131902

emb_layer.weight f4 [2, 50]
0	0xbd8be942	-0.068316
1	0xba84bde0	-0.0010127388
2	0xbcea1147	-0.028572692
3	0x3d757dc1	0.05993438
4	0x3de7cb58	0.113180816
5	0xbcc66152	-0.024216328
6	0x3d6dd0dd	0.058060516
7	0xbdda4812	-0.106582776
8	0xbda75604	-0.08170703
9	0xbd877ab3	-0.066152
10	0xbd978736	-0.07398836
11	0xbe01085e	-0.12600848
12	0x3d67d8c2	0.0566032
13	0x3d6a2771	0.05716652
14	0x3dff5f31	0.12469328
15	0x3b0aec8b	0.002119812
16	0x3e00082f	0.12503122
17	0x3d700e6d	0.058607507
18	0x3d35d318	0.044390768
19	0xbdc9d8b1	-0.09855784
20	0x3de69ade	0.11260007
21	0xbd129f44	-0.03579642
22	0xbdffdcbf	-0.12493276
23	0x3bc1e17c	0.0059167724
24	0x3dbbc2de	0.09168027
25	0x3c290f43	0.01031858
26	0x3dae6b78	0.08516592
27	0x3ddaa271	0.106755145
28	0x3e157f94	0.14599448
29	0xbd59159e	-0.05299913
30	0x3e05a772	0.13052157
31	0x3de3e481	0.11127568
32	0x3c197950	0.009367302
33	0x3e2e68bc	0.1703214
34	0x3c209247	0.0098005
35	0x3db76095	0.089539684
36	0xbd83de8c	-0.06438932
37	0xbd8e7960	-0.06956744
38	0xbd7e9e12	-0.062162466
39	0x3d688d01	0.056775097
40	0x3d0f1aed	0.034937788
41	0x3e229ffa	0.15881339
42	0x3c1a31b6	0.009411266
43	0xbd1642bc	-0.036684737
44	0x3ce0f13f	0.027458785
45	0xbd4354b6	-0.04768821
46	0x3d404e42	0.046949632
47	0xbdb8f42d	-0.09030948
48	0xbdf8dd71	-0.121516116
49	0xbdc6efb1	-0.09713686
50	0x3da26003	0.07928469
51	0x3ce649f0	0.028111428
52	0x3dad8df8	0.08474344
53	0x3dbb73a5	0.09152917
54	0xbe118964	-0.14212567
55	0xbd7cb846	-0.061699174
56	0x3d5082eb	0.050906103
57	0xbd563045	-0.052292127
58	0xbe11834f	-0.14210247
59	0xbc243e26	-0.010024583
60	0xbd70f60e	-0.058828406
61	0xbdb978c5	-0.09056238
62	0xbca04e1c	-0.019568495
63	0x3e1bb3a7	0.1520525
64	0x3d9e5a57	0.07732075
65	0x3e14f58c	0.14546794
66	0xbc209e36	-0.009803345
67	0xbd749cbb	-0.059719782
68	0xbc43f76b	-0.0119608445
69	0xbdc30191	-0.09521783
70	0x3d5083d7	0.050906982
71	0xbc16c293	-0.009201664
72	0x3cb13116	0.021629851
73	0x3b4aa330	0.0030920021
74	0x3dce2984	0.10066512
75	0xbd288da1	-0.041150693
76	0xbcd8a133	-0.026444053
77	0x3d5ce1ec	0.053926393
78	0xbe1e0633	-0.15432052
79	0x3c9a7c7f	0.018858192
80	0xbe044fb2	-0.12921026
81	0xbdca8de1	-0.098903425
82	0xbdf04713	-0.11732306
83	0x3dc1188f	0.09428512
84	0x3d373778	0.044730633
85	0xbdf2f24b	-0.1186262
86	0x3c275d84	0.010215167
87	0x3b5ce1a1	0.0033703821
88	0xbd3870aa	-0.04502932
89	0xbdaf9dae	-0.08574997
90	0x3d6c2823	0.057655465
91	0x3dda0ae2	0.10646607
92	0x3d89435f	0.06702303
93	0x3d97428d	0.073857404
94	0xbd7020a1	-0.058624867
95	0xbdcbd1e7	-0.09952145
96	0xbe2bf314	-0.16791946
97	0xbc8ad18e	-0.016945627
98	0x3c494410	0.012284294
99	0x3d08eea4	0.03343071

emb_layer.bias f4 [2]
0	0xbd900312	-0.070318356
1	0xbbebb296	-0.00719292

class_layer.weight f4 [10, 50]
0	0x3e21901e	0.15777633
1	0xbf0a7c33	-0.5409576
2	0xbd940072	-0.072266474
3	0xbe8d634f	-0.2761483
4	0xbdc1347d	-0.094338395
5	0x3f489d1f	0.7836475
6	0xbe5d71b5	-0.21625407
7	0xbe649381	-0.22321893
8	0xbe285f0e	-0.1644251
9	0xbe036b2a	-0.12833849
10	0xbcd2742c	-0.02569016
11	0x3d504d83	0.05085517
12	0xbdb2c41f	-0.087288134
13	0xbe049ae3	-0.1294971
14	0x3d1fb87f	0.03899431
15	0xbe4fd38d	-0.20295544
16	0xbd33ea3e	-0.043924563
17	0xbc1fd0a5	-0.009754335
18	0xbe889aeb	-0.26680693
19	0x3e6cfc03	0.2314301
20	0xbe6be28e	-0.23035643
21	0x3cd05b37	0.02543412
22	0x3dbd0263	0.09228971
23	0x3eadf034	0.33972323
24	0xbe82bb94	-0.25533736
25	0xbe5f2994	-0.21793205
26	0xbdd9ec7b	-0.10640808
27	0xbe91a578	-0.28446555
28	0xbe4b085f	-0.19827412
29	0x3f157569	0.5838228
30	0xbe090cb7	-0.13383757
31	0xbdfbdd7d	-0.12298105
32	0x3f3359bd	0.70058805
33	0xbefc64f7	-0.4929578
34	0xbe3b5744	-0.18295008
35	0xbd6e8cd2	-0.058239765
36	0xbe224acb	-0.15848844
37	0x3dd4e552	0.10395302
38	0x3e867176	0.2625844
39	0xbcc638f2	-0.024197076
40	0xbe399a01	-0.18125154
41	0x3de57bbd	0.11205242
42	0xbeeafcc0	-0.45895958
43	0xbdb29f5a	-0.087218
44	0x3e8cd8dd	0.27509204
45	0x3f01ddbd	0.5072897
46	0xbe7dd77e	-0.24789235
47	0x3f061e14	0.52389646
48	0x3df5198b	0.119677626
49	0x3eea769c	0.45793617
50	0x3d956a57	0.07295673
51	0x3f262439	0.6489902
52	0x3e872fe2	0.2640372
53	0x3e38fc92	0.18065098
54	0xbe4d77fe	-0.20065305
55	0xbf007c51	-0.5018969
56	0xbe333d3c	-0.17503828
57	0x3d57200b	0.052520793
58	0x3d90a1e2	0.07062127
59	0xbd8c42e5	-0.068486966
60	0x3dc42d9e	0.09579013
61	0xbe03454b	-0.12819402
62	0xbe65bc7e	-0.22435185
63	0x3bb49a4d	0.005511558
64	0x3cab80fc	0.020935528
65	0x3ebe1138	0.37122512
66	0xbe5009e1	-0.20316269
67	0x3d89c793	0.06727519
68	0xbdcf8018	-0.10131854
69	0xbdcf2b2a	-0.10115655
70	0x3e8c8255	0.27443185
71	0x3c3a746f	0.011380299
72	0xbe466b23	-0.19376807
73	0xbc43a1ab	-0.0119404
74	0x3e089a47	0.13340102
75	0xbdf4d496	-0.1195461
76	0x3d0eb993	0.034844946
77	0x3f158f88	0.58422136
78	0xbe8cf2d8	-0.27529025
79	0xbed2ad50	-0.41147852
80	0x3e152ef0	0.14568686
81	0xbda7000c	-0.08154306
82	0xbe9f6480	-0.31131363
83	0x3e07063d	0.13185973
84	0x3e1c96c5	0.15291889
85	0xbd79b5da	-0.060964443
86	0xbf12fb60	-0.5741482
87	0xbe8fc0d2	-0.28076798
88	0xbb92b62f	-0.0044772844
89	0xbe5890a1	-0.21148922
90	0x3df8490f	0.1212331
91	0xbe1f6d65	-0.15569074
92	0x3ee6cf6a	0.4508012
93	0x3e66b3fe	0.22529599
94	0xbbd36ae2	-0.0064519504
95	0xbe9ec738	-0.31011367
96	0xbe43bd02	-0.1911507
97	0xbedd90ee	-0.43274635
98	0xbdbe8bf9	-0.093040414
99	0xbd4298e9	-0.047509108
100	0x3e832ca1	0.25619987
101	0x3e98b5af	0.29826114
102	0x3e839e83	0.25706872
103	0xbdce8541	-0.1008401
104	0x3aefe373	0.0018302038
105	0xbe6a1b32	-0.22861937
106	0x3ca5b449	0.020227568
107	0x3eadfee3	0.33983526
108	0x3e2b36af	0.16720079
109	0x3e958d64	0.29209435
110	0x3e0e160d	0.13875599
111	0xbf150980	-0.5821762
112	0xbec5767f	-0.38566968
113	0xbdc97eee	-0.09838663
114	0xbf14337e	-0.5789107
115	0xbd7094d0	-0.05873567
116	0xbe2f47b6	-0.171172
117	0xbe9bf456	-0.3045985
118	0x3f449d3d	0.76802427
119	0xbe3403ea	-0.17579618
120	0xbe9ddf1d	-0.30834284
121	0xbefa24a8	-0.48856091
122	0x3d34218b	0.0439773
123	0xbecacfc7	-0.39611647
124	0x3e103b84	0.14085203
125	0x3e1a58b5	0.15072902
126	0x3ef490d4	0.47766745
127	0x3dd8e27f	0.10590076
128	0x3da549a9	0.0807069
129	0xbeacb04d	-0.33728257
130	0xbca0b436	-0.019617181
131	0xbb82f524	-0.003996508
132	0x3d482c6a	0.04887048
133	0x3ed6fd19	0.41989973
134	0xbc8ca619	-0.017169045
135	0xbe261c5d	-0.16221757
136	0x3ecac055	0.39599863
137	0x3e4df8c2	0.20114425
138	0xbd7189b9	-0.058969233
139	0xbf00bedf	-0.50291246
140	0x3d87d2be	0.06631993
141	0x3e05f8f4	0.1308325
142	0xbf0301fd	-0.5117491
143	0x3df927bf	0.12165784
144	0xbe08a344	-0.13343531
145	0x3e65d3ce	0.22444078
146	0xbeace228	-0.33766294
147	0x3d53f370	0.051745832
148	0x3ca375e8	0.019953683
149	0xbf12f41e	-0.57403743
150	0x3dfc3ee6	0.123166844
151	0x3d37f90d	0.044915248
152	0x3d09776a	0.033561148
153	0x3c6aa835	0.01432233
154	0xbd25dcf4	-0.04049392
155	0xbce32fa6	-0.027732681
156	0xbe28953f	-0.16463183
157	0xbeb4e5c1	-0.35331538
158	0x3d865018	0.065582454
159	0xbe77f08a	-0.24212852
160	0xbe388d4b	-0.18022649
161	0xbeaaa9da	-0.3333271
162	0xbe60b7f5	-0.21945174
163	0xbd513b71	-0.05108208
164	0xbf0174bc	-0.5056875
165	0xbe696e55	-0.22795995
166	0xbdd718d7	-0.10502785
167	0xbe3455bb	-0.17610829
168	0xbf550a75	-0.8321908
169	0xbe76bf0e	-0.24096319
170	0xbe10863c	-0.14113706
171	0xbe9f0924	-0.3106166
172	0x3e56d571	0.20979859
173	0xbd2c2d14	-0.042035177
174	0x3dbf3992	0.093371525
175	0xbd7ddadd	-0.061976302
176	0x3e2977f6	0.16549668
177	0xbe168814	-0.14700347
178	0x3df334ce	0.11875306
179	0xbe1b0926	-0.15140209
180	0x3eb0e72e	0.34551376
181	0xbde008ad	-0.10939155
182	0xbeb2b143	-0.34900865
183	0xbe65edc6	-0.22453985
184	0x3de49b3c	0.11162421
185	0x3e30933d	0.17243667
186	0x3f4f9f22	0.8110219
187	0x3e671ab4	0.2256878
188	0xbe7c61c2	-0.24646667
189	0xbea07e78	-0.31346488
190	0x3e8c1180	0.273571
191	0x3e361bc2	0.17784026
192	0xbd04d503	-0.032429706
193	0x3e84b0b7	0.25916073
194	0xbe8fc15f	-0.28077218
195	0xbe19ccef	-0.15019582
196	0x3c8ecf75	0.017432908
197	0x3e90c57f	0.28275678
198	0xbab3591c	-0.0013683173
199	0x3d56d678	0.052450627
200	0xbe87db59	-0.26534536
201	0xbee8e293	-0.45485362
202	0xbd5d4d78	-0.054028958
203	0xbdd9eb62	-0.10640599
204	0x3ee17ad3	0.4403902
205	0xbe92bf19	-0.2866142
206	0x3ecdc1e2	0.40186983
207	0xbe248972	-0.16068056
208	0x3dcf9f5b	0.101378165
209	0x3d4a3362	0.04936541
210	0x3ec1f248	0.37880158
211	0x3ef812a3	0.4845172
212	0x3eead699	0.4586685
213	0xbea076d9	-0.31340674
214	0x3eb23772	0.34807926
215	0xbd262aad	-0.040568043
216	0x3f0406ec	0.5157306
217	0x3eefea4f	0.4685845
218	0x3eae43bc	0.34036052
219	0x3d8b8d9e	0.06814121
220	0x3e841c7f	0.2580299
221	0x3eb947bb	0.36187539
222	0x3c2636ef	0.010144933
223	0x3d6f0c5f	0.058361407
224	0xbe927784	-0.28606808
225	0x3db22d0c	0.08699998
226	0xbed86383	-0.4226342
227	0xbeb2477a	-0.34820157
228	0x3ec6c42e	0.38821548
229	0xbe8807aa	-0.26568347
230	0xbf2062f4	-0.6265099
231	0x3e2218c2	0.15829757
232	0x3d2fc713	0.04291446
233	0xbeddf998	-0.43354487
234	0xbe6b2ef1	-0.22967125
235	0x3e774e4c	0.24150962
236	0xbf3cc6d7	-0.73740906
237	0xbea0f303	-0.31435403
238	0xbe02d18e	-0.12775251
239	0x3f09c0dd	0.5380991
240	0x3cbae821	0.022815766
241	0xbe620d2d	-0.22075339
242	0x3eef6021	0.46753028
243	0xbdead5d8	-0.11466569
244	0xbb73b3c2	-0.0037186001
245	0xbcb29dd3	-0.021803772
246	0x3e6a1f70	0.22863555
247	0xbe5041d8	-0.20337617
248	0xbe949999	-0.29023436
249	0xbe9277b8	-0.28606963
250	0x3e54456d	0.20729609
251	0xbe5d43ec	-0.21607941
252	0x3bc9993b	0.0061522997
253	0xbcdd5968	-0.027020171
254	0xbd58fcb4	-0.05297537
255	0x3f06b41c	0.52618575

class_layer.bias f4 [10]
0	0x3cd03342	0.025415067
1	0xbd09fc98	-0.033688158
2	0x3e39b45a	0.18135205
3	0x3e1a7682	0.1508427
4	0x3da0cd72	0.078516856
5	0x3c1b68c5	0.009485428
6	0x3d9a6ca9	0.075402565
7	0xbe3a97c7	-0.18221961
8	0x3e637da3	0.22215895
9	0x3d7a0662	0.061041243
