notebooks/paper-plots/models/w1.0.pt (torch, 339531 bytes, 8 tensors)

layers.0.weight f4 [100, 784]
00000000: ca52 c4bc 76fd d93c 9c0d acbc a05a 283b
00000010: cc9e 83bc c0c4 693a 82e9 f53c ee05 13bc
00000020: 48ba e9bb 0024 51ba 70b8 d33b c4dc 863c
00000030: f2ed 6dbc f2df ea3c 380b 9e3b e8d3 b43c
00000040: 6439 b9bb 48fe ee3b 284b c23b 718b e9bc
00000050: 575a 90bc 936a 033d 7035 36bb 7c3d 9abc
00000060: 20bf 873c f813 fdbb 0e3b 87bc b2ae d53c
00000070: f8df 69bc 1202 ee3c 1804 9a3c 082d afbc
00000080: 30ac 7d3b 5feb 113d 251e e8bc 1e25 ddbc
00000090: ddd9 40bd eb42 66bd ce9c fd3b a997 843d
000000a0: 6228 923d 048e 1e3d d5ff 1f3d a49b a93d
000000b0: 80ba 273d 3da1 8b3d 345d f33c ca01 43bc
000000c0: 55f5 87b9 44b2 f53d 8c9c 063e 37a5 103d
000000d0: 902d 863c b61e d83c 95b9 80bc 75ce f7bc
000000e0: 528b 6fbc 5465 273c 3c59 203c 08fc b03c
000000f0: fe30 c63c 6ee8 84bc d272 08be a72d 72be
00000100: 9ff9 0dbe 0409 2ebb 3f99 9b3c f9d9 7d3d
00000110: a798 2b3c b63f c83c ea35 d8bb f8db debc
00000120: 795e 613d db3f c23d 9ed0 e13d ddd9 f03c
00000130: bdb9 763d 798a 7a3d 4f25 b8bb 8a7d 9b3d
00000140: 0404 3b3e 900b 88bc 68ea 863c e8ac cc3b
00000150: 66b5 32bc c1c0 053d 3cd3 e7bc bec1 ff3c
00000160: 914d 46bb 6521 87bd 3d58 053d 75bc 09bd
00000170: 5d7b 64bd b73c 24bd 5c73 713c 365b a83b
00000180: 617a 923d 510b 2a3d a01d 4b3d 1635 913d
00000190: a203 8c3d c573 003e be1a 063e 2e39 113e
000001a0: f55a 343d 28f8 653d f8d9 173c e8dd c13d
000001b0: b653 913d 53ea eebc b010 b6bc 8020 3fba
000001c0: 2ebc 16bc 2e4c 7dbc 0022 903a 674b 953b
000001d0: f337 bc3c 25ff 543d 3142 d93d 91c9 173d
000001e0: 5cac 28bd 735b 9c3b ac14 353d 36bb f63c
000001f0: 36b1 b93c d0f4 273d f836 dc3c ea21 1a3d
00000200: e833 aa3a dece 973d 523f 4c3d d20a 3c3d
00000210: 6dca 433d bb2a ebbb ec69 c2bd 0200 0bbd
00000220: a997 6f3c 4111 0e3d 7885 953c 24c0 6b3c
00000230: de40 df3c 2afd 24bc 86c8 c2bd 52f4 043c
00000240: 01f0 283c e9cf 213d 4d19 d03c 4f6f 353b
00000250: 622f c73b 0a9c c83c 140b 043d fa16 4a3c
00000260: ffed 353c 666e 583c c46b cc3d 64ba c73d
00000270: 8298 003d a61a ba3c fb08 0b3d 65c6 933d
00000280: 2a42 1a3d 0a33 9f3d 0098 cabc 5ed7 81bd
00000290: 1817 2bbc f454 063c 0d56 873d fdc8 4f3d
000002a0: 1f83 103d a0d7 21bb 65c4 d2bd 3fd3 a43a
000002b0: 85e4 1a3d ce01 16bd 640b 8abc ec73 e8bb
000002c0: 419d 02bb 7739 553d 4bea 6b3d 69f1 cb3c
000002d0: ac68 f13c fe45 8fbb e9e4 453d 13ca 8b3d
000002e0: 73d1 8c3d a5a2 e93c 7882 3b3d b671 293d
000002f0: b053 903d 63ba 583c abfe 3ebd 4e49 27bd
00000300: f09e 89bd faf8 37bd 66b0 ae3d 2818 28bd
00000310: 59bb 2b3d da83 09bc 45cc ebbc 4c46 62ba
00000320: 567c eabc 0897 8f3b 518e c4bc 8583 55bc
00000330: 580b b6bc 5822 41bc 155c b5bc ac64 ebbc
00000340: 888e 783c 571a 6b3d adc1 583c 5140 1c3c
00000350: 2ed3 8ebc f175 2fbd 943f 29bc f4f3 2abd
00000360: fe15 bebb e687 03bd 474d 273d aa8b ffbb
00000370: 254a d8bc 7eb1 0abd 689e 133d 7052 f83c
00000380: 46a3 853c 79ac 703b 7d29 2cbd aa56 3abb
00000390: 31a8 dbbb 84d0 153c f966 b0bd 7623 cebd
000003a0: 028b e3bd 5484 20bd de53 bfbc e5f3 1ebc
000003b0: 2b94 983c b7e3 7a3c 0d6e e6bb 35af 1e3a
000003c0: 67ac 14bd c392 eabc 6453 41bc f9fc c7bd
000003d0: 2ad5 45bd 1beb 80bd 90ae 9dbc a6fc 95bc
000003e0: f250 2bbd b128 523a 6212 28b8 f303 843c
000003f0: 9266 283d e6bc 4abd a720 a83d cb24 233c
-0.023965258 0.026610117 -0.021002583 0.0025688782 -0.016066931 0.00089175627 0.030018572 -0.008973582
-0.007132802 -0.00079780817 0.0064611956 0.016462691 -0.014522063 0.028671239 0.0048231147 0.022073701
-0.0056525934 0.0072934963 0.0059293695 -0.028508874 -0.017621202 0.03208406 -0.0027802847 -0.018828146
0.016570628 -0.0077233277 -0.016507652 0.026084278 -0.01427459 0.029053722 0.01880078 -0.021383777
0.0038707368 0.035624858 -0.028334687 -0.026995238 -0.04708277 -0.05621616 0.00773964 0.064742394
0.07136609 0.038709655 0.03906234 0.08281639 0.040949345 0.06817863 0.029707529 -0.011902282
-0.00025931993 0.11996892 0.13145655 0.03531381 0.016379148 0.026381832 -0.015713492 -0.030249814
-0.014620619 0.01021703 0.0097869 0.021604553 0.024193283 -0.016224112 -0.1332505 -0.23650227
-0.13864754 -0.0026555667 0.018993972 0.061975453 0.010473407 0.024444442 -0.006598224 -0.027204499
0.055021737 0.09484836 0.11026119 0.02940076 0.060235728 0.061167214 -0.005619682 0.07592304
0.1826325 -0.016607076 0.016469195 0.006246198 -0.010907507 0.032654528 -0.028298967 0.031220313
-0.0030258636 -0.065981664 0.032554854 -0.033626992 -0.05578171 -0.040096965 0.0147369765 0.0051378263
0.07152248 0.0415147 0.0495888 0.070902035 0.068366304 0.12544163 0.13096139 0.14181969
0.044032056 0.056144863 0.009268276 0.094661534 0.07096045 -0.029164469 -0.022224754 -0.00072909147
-0.009200139 -0.015460057 0.0010996461 0.004556108 0.022975897 0.052001137 0.10608328 0.037057463
-0.04118 0.004771644 0.044209167 0.030118566 0.022667509 0.041004956 0.02688168 0.03763
0.001298544 0.07412504 0.049865074 0.045908757 0.04780047 -0.0071767247 -0.09492859 -0.033935554
0.014623561 0.034684423 0.01825212 0.014389072 0.02725261 -0.010070125 -0.09510903 0.008114891
0.010311128 0.03950492 0.02540269 0.0027684753 0.0060786465 0.024488468 0.032237127 0.01233458
0.011104106 0.013209915 0.09981492 0.09752348 0.031395443 0.022717785 0.03394411 0.07215575
0.037660755 0.07773407 -0.024730682 -0.06339906 -0.010442518 0.008198965 0.0660821 0.050728787
0.035281297 -0.0024695173 -0.102913655 0.0012575163 0.03781559 -0.036622815 -0.016851135 -0.007093897
-0.0019930156 0.052056756 0.057596486 0.024895387 0.029468857 -0.0043723574 0.04831401 0.06825652
0.06875887 0.028519938 0.04577872 0.04136821 0.07047212 0.013228032 -0.04662959 -0.040841393
-0.06719768 -0.044915177 0.08529739 -0.041038662 0.041926716 -0.008393252 -0.028783927 -0.0008631691
-0.028623741 0.004382018 -0.023993643 -0.013031845 -0.022222206 -0.011787973 -0.022138635 -0.028734528
0.015170701 0.057398167 0.01322977 0.009536819 -0.017434683 -0.042837087 -0.0103301 -0.041736558
-0.0058009615 -0.032112025 0.04084518 -0.0077986317 -0.026402542 -0.033860676 0.03603974 0.030312747
0.016313206 0.0036723895 -0.042031754 -0.0028433003 -0.0067033996 0.009143952 -0.086133905 -0.100653574
-0.11110498 -0.039188698 -0.02335542 -0.009701704 0.01862534 0.0153130805 -0.007032162 0.00060533296
-0.03629723 -0.028634435 -0.011799667 -0.097650476 -0.048298992 -0.06294843 -0.019248277 -0.018308949
-0.041825242 0.0008016928 -4.007144e-05 0.016115164 0.041113444 -0.049496554 0.08209353 0.009957503

layers.0.bias f4 [100]
00000000: 10c6 1cbd 5103 273a 33ad 4a3e 427b 193d
00000010: 2720 9b3d 2ba9 933d ad5d 10be aca7 6a3d
00000020: 24a4 dc3d 2c6f d23d c98c c83d da19 f53b
00000030: 93ac 2e3d 0fab 1bbd deba ddbc a4c7 493d
00000040: 0fdf 033e a28b 9f3d 25f4 bb3d 879e e13d
00000050: 2a4c a33d 90d1 1f3d 7a72 da3b 0803 33bb
00000060: abc0 873c c693 593d 8801 b1bd f588 d4bd
00000070: 66b4 033e 75f6 633b bf44 503d 51a9 573d
00000080: 14c4 e13d 884a 123d 1944 90bd 8603 e83b
00000090: 898e d23d b03d f53b 3ea9 953c 0de6 f13d
000000a0: 7bbd a43c bcfa 323d 5099 b33c 4914 63bd
000000b0: b67d 843d ee36 163e 9996 0b3d 8d63 f03c
000000c0: 16d7 16bd 9df2 9bbc 4e50 f93c 02db a63c
000000d0: 8c52 213e 0a9a 58bd 75e5 913d 9428 83bd
000000e0: 7c1d 973b 9b52 6c3e ebfe 0dbd dcd3 fd3d
000000f0: 0fdd d23d fd8d 083e 9d0a a83d f1f7 5d3d
00000100: 03d1 f43d 92d4 bf3d cdbe c4bd cc41 b53b
00000110: 1b52 a93d a0b7 f83d d265 7b3b dd95 723c
00000120: 038c 613d 21f1 6a3d 9606 843e c455 143d
00000130: 909c 1cbe 2090 d4bd 28bd bb3c ba65 a93c
00000140: f2b8 0cba 7e38 d63d 66a3 b23c ead3 7b3d
00000150: 341b 21bd 1f4c 21bd 5944 e23d 8cf0 d23c
00000160: 6a92 11be 0f70 4cbd 7b7e 1abd 1951 2bbe
00000170: aff7 29bc 9b48 2f3e b3f2 a53d 9a0a e4bc
00000180: c61f 093d 7406 303d 0e78 363d 43eb c43d
-0.038274825 0.00063710386 0.19792633 0.037471063 0.07574492 0.072100006 -0.14098234 0.05728881
0.10773495 0.102751106 0.09792478 0.0074798884 0.04264505 -0.03800493 -0.027066644 0.049262658
0.12878059 0.07790305 0.09177426 0.11016565 0.079735115 0.039018214 0.0066664787 -0.002731504
0.016571363 0.053119443 -0.0864287 -0.10377685 0.12861785 0.003478435 0.05084681 0.052651707
0.11023727 0.03571561 -0.070442386 0.007080498 0.10281093 0.0074841604 0.018269178 0.11811457
0.020109883 0.04369615 0.021923691 -0.055439267 0.0646929 0.14669392 0.034079168 0.029344345
-0.036826216 -0.019036585 0.0304338 0.020368103 0.15754145 -0.052881278 0.071238436 -0.06404224
0.004611669 0.23078386 -0.034666937 0.123939246 0.1029607 0.13335414 0.08205149 0.054191533
0.11953928 0.093667164 -0.09606705 0.0055315252 0.082676135 0.12144399 0.003836025 0.014806238
0.055065166 0.057358865 0.25786275 0.036214605 -0.15294099 -0.10379052 0.022917345 0.02067839
-0.0005368135 0.10459994 0.02180643 0.061481394 -0.039332584 -0.039379235 0.110481925 0.025749467
-0.14216009 -0.049911555 -0.037718277 -0.16730155 -0.010373994 0.1711754 0.08102932 -0.027837086
0.033477567 0.042974904 0.044548087 0.09615185

layers.1.weight f4 [50, 100]
00000000: 4c2d ef3c f93e 96bd 3655 cf3d d058 86bd
00000010: 81ef fabd fc87 d9bd 1eed 10bd 1d36 013e
00000020: fd52 fb3d 218a d03b 898b 003d 47fc 89bd
00000030: 36e4 893c a5d4 18bd 0b99 16bc 38c5 c2bc
00000040: 75c9 613d 31b5 89bd 8a78 d9bd e005 2c3e
00000050: 9818 cb3d 6559 26bd 762f c0bd e835 b93c
00000060: d5be 223d 568b 58bd f235 b33d 879e 68bd
00000070: 87dd 383d 5f26 14be c2be d9bd 9c59 b33c
00000080: 6716 d93c 14a9 bd3d 6ca7 93be c179 4f3d
00000090: 7478 d53c 1145 043d 47d2 c1bd e947 22bd
000000a0: 9c55 683d e2dd c4bc fe4f e9bc 9c54 13bd
000000b0: 26a4 c83d 264a 273d 9f8b 893d 9e6a bd3d
000000c0: 0785 833d d5ae 47bc 11ad d63d 6415 1a3e
000000d0: d78a 993d adf8 41bd 6d5c f6bc 7e5f 75bd
000000e0: 73c5 cabc d240 8e3d 423c adbd b462 fa3c
000000f0: b01f d0bd 9e3d 67bd b588 09be fe15 1dbe
00000100: e159 86bd 7f1f 0d3e f74c 86bd 851a d0bd
00000110: 157d 353b 4a46 bdbb 84a2 6abd c671 b0bc
00000120: bca3 203c d231 903d 6902 613e c9a4 b63c
00000130: 7430 89bd d3f4 16be c6d5 333c c297 8a3d
00000140: f8ea 173d 5291 43bd f7d0 c9bd 86ab 133d
00000150: 13d2 22be 3365 6dbd 7eac 9dbb 48f2 103d
00000160: eef4 4dbd 2758 debc b992 a4bd e103 9abc
00000170: f10a 453d 5c7f fe3c 1b78 ff3d fed8 223d
00000180: 2731 10be 0e92 703d 3cf4 393d caa6 1abe
00000190: 9346 56bd a433 f2bd 75f7 aabd f1b0 e7bb
000001a0: a52d cebc adb1 ec3d 504d 433c b9c5 debd
000001b0: d3f9 74bc 5ec3 38bc 44d4 e53d 69b7 b0bd
000001c0: 6c6d 81bc 6103 2cbd a9b4 473d b2b9 24bd
000001d0: 9221 ed3c 7a53 f8bc 0ff1 383c 39ac 7d3d
000001e0: 74a1 683d 7508 8bbd 9bde 54bd dbcb 813d
000001f0: 23a1 563d 5a26 c73c ed0c 0cbd 533f edbd
00000200: ad87 373d 0925 e7bc d823 543d 8b8d c53d
00000210: e6ad 06be b5ac cdbc 7f93 41bd e1eb 023e
00000220: 5373 b03c dfda bebc 7644 84bd a9e1 fe3c
00000230: bc34 0dbd df1e 7d3d 5224 b93c 2d6f afbc
00000240: de8f 27bd 4861 e83c 01f2 34bd c8b2 0cbe
00000250: 83dc 39bc b806 3f3d c856 6e3d 8239 3e3d
00000260: 4d7b ddbd cc4e 89bd 0777 58bd 7085 6cbc
00000270: 1a55 2abe 3972 203d e93a dcbd e381 77bc
00000280: 5348 26bd 07ac 0c3d b9e1 0cbe 42cf 1bbc
00000290: 089b 78bd 1b66 b3bd ac9c a6bd 31e3 8fbd
000002a0: 5db6 e6bc 029c fcbd 8a5b bf3d 3226 cabd
000002b0: 7cf0 8abd 84d0 7bbd 9b06 bebd 2ed9 783c
000002c0: cae4 98bd 627a c73d a66a fdbc db8b 70bb
000002d0: 0a95 133c c61b 413d 7479 4cbb 4c42 963d
000002e0: 654c babc adb5 c0bd 8cc1 f93c d890 413d
000002f0: 23b6 c1bd ae8a a43b 937a 0abd 6c6d fcbc
00000300: bd14 463c 02e5 5fbd 1879 0cbe 6042 9f3d
00000310: 87c3 89bd 4288 233d d30f 4e3d a760 b2bc
00000320: 4a42 5e3c 4630 99ba 61a9 3cbd 565d 3cbe
00000330: 0463 943c 4e6d 2d3c ac27 8c3d 9ab0 6cbc
00000340: f73e ae3c fe9d d2bc eb10 2abd 277e 00be
00000350: fe89 063d f6d8 a4bc c6c1 9a3d dc16 9fbd
00000360: c229 ab3b 575e 633c f883 cabd 58a9 a03d
00000370: 2e50 50bb 764e b03b b717 843d 8c87 e3bb
00000380: 173d b53d b81e 03bd 5415 23bd b45f c0bd
00000390: 2003 4cbb 3f86 423c 6207 61bb 4b04 ce3c
000003a0: e2fb b7bc 6389 9d3d 96ac dd3c 41fa 1a3d
000003b0: 838d 08be bbcb 11be 9cc0 3dbd 8a61 4bbe
000003c0: c5f4 07be 04a0 a7bc 3621 1bbe e184 263c
000003d0: 764e c0bd 6a33 d5bc 292f e3bc 9281 313c
000003e0: bb0e 9abd e0b2 1fbc 2e31 863d 5986 3bbd
000003f0: 5577 a33c f558 03be 78c9 01bd 358d 03be
0.029196404 -0.0733623 0.101236746 -0.065599084 -0.12252713 -0.1062164 -0.035382383 0.12618299
0.12271688 0.0063641225 0.03138307 -0.06737571 0.016832452 -0.03731217 -0.009191762 -0.023775682
0.055123765 -0.06724013 -0.10618694 0.16799116 0.099168 -0.040612597 -0.093840525 0.022608712
0.039732773 -0.052867256 0.087505236 -0.05679181 0.04513314 -0.14467762 -0.10632087 0.021893315
0.02649994 0.09260765 -0.2883867 0.050653223 0.026058413 0.03229243 -0.09463935 -0.03961936
0.05672227 -0.024031583 -0.028480526 -0.03596936 0.09796934 0.040842198 0.06716084 0.09248851
0.06421857 -0.012187679 0.104822285 0.15047222 0.07497185 -0.047356296 -0.030073369 -0.05990552
-0.024752354 0.06945957 -0.08458759 0.030564643 -0.10162294 -0.056455247 -0.13431056 -0.1534042
-0.06560112 0.13781546 -0.06557649 -0.10161308 0.0027692963 -0.0057762014 -0.057283893 -0.021538626
0.009804662 0.070407525 0.21973576 0.022295373 -0.06698695 -0.1474183 0.0109762605 0.06767227
0.037089318 -0.04774601 -0.0985431 0.03605225 -0.1590045 -0.05795784 -0.0048118224 0.035387307
-0.05028241 -0.027141644 -0.080357976 -0.018800678 0.048106138 0.031066589 0.1247408 0.03975772
-0.1408125 0.05873304 0.045398936 -0.15102687 -0.0523134 -0.11826256 -0.0834798 -0.0070706536
-0.02516825 0.115573265 0.011920288 -0.10877556 -0.014952141 -0.011277048 0.11222127 -0.08628733
-0.015799247 -0.04199541 0.048756275 -0.040216155 0.028946672 -0.030313242 0.011287942 0.061931822
0.0567946 -0.067887224 -0.051970106 0.063377105 0.052399766 0.02431028 -0.034192014 -0.11584344
0.044807125 -0.028215902 0.051791996 0.09646138 -0.13152274 -0.025106767 -0.047259804 0.12785293
0.021539366 -0.023297725 -0.064583704 0.031113463 -0.03447412 0.06179702 0.022600327 -0.021415317
-0.040908687 0.0283667 -0.044176105 -0.13740075 -0.011344078 0.046637267 0.05818823 0.046441562
-0.108145334 -0.067044824 -0.05284789 -0.014436111 -0.16634026 0.03917143 -0.10753424 -0.015106651
-0.040596317 0.034343746 -0.13757981 -0.009509863 -0.060694724 -0.087597094 -0.081353515 -0.07025755
-0.02816313 -0.12334444 0.093436316 -0.098705664 -0.0678415 -0.061478153 -0.09278604 0.015188498
-0.07465513 0.097401395 -0.030934643 -0.0036704454 0.009007702 0.047145627 -0.0031200321 0.07336864
-0.022741506 -0.09409652 0.030487798 0.047257274 -0.09458568 0.0050214147 -0.033808302 -0.030813895
0.012089905 -0.05466176 -0.13718069 0.07776332 -0.06726747 0.039924867 0.05030806 -0.021774603
0.013565609 -0.001168736 -0.04605997 -0.1839498 0.01811362 0.010585142 0.06843504 -0.014446402
0.021270258 -0.025710102 -0.04152004 -0.12548123 0.032846443 -0.020122986 0.075564906 -0.07768032
0.005223484 0.013877473 -0.09888452 0.078448 -0.0031786072 0.005380447 0.06449836 -0.0069436487
0.088495426 -0.032011718 -0.039815262 -0.09393254 -0.0031129792 0.011872827 -0.0034336676 0.025148531
-0.022458974 0.0769222 0.027059834 0.037836317 -0.13335232 -0.14237873 -0.046326265 -0.19861427
-0.13276966 -0.020462044 -0.15149388 0.010163517 -0.09389965 -0.026025493 -0.027732449 0.010834115
-0.07522341 -0.009747237 0.06552349 -0.04578242 0.019954363 -0.12826903 -0.031686276 -0.12846835

layers.1.bias f4 [50]
00000000: 3330 483e 96dd 593d 684b d53d 82d6 983b
00000010: c5bf e13d 064b d73d 4298 823e 014c 153e
00000020: c50d 20bd a4bc 243e 73f2 3d3e a251 083e
00000030: fdb8 983d 32be 103e c505 99bc 8475 333e
00000040: 3086 843e 269a 4c3e cd6a 1bbb 73d5 e73d
00000050: 7f3a fcbc 089e 513d 0ee9 2e3e 5085 8e3e
00000060: 29d3 47bd 4756 6d3d eea9 793e 0952 ab3d
00000070: ff3b 373e fd83 233d 150e d53d 75e5 943d
00000080: 9272 ec3d 9ede 8d3d 3c39 c93e 7081 023e
00000090: 5e54 1e3e 0e38 bbbb b247 0f3e fa40 ea3d
000000a0: 4ed1 1a3e 63ec fcbd d788 acbc 9280 d63d
000000b0: 6405 2fbe 793d 293e 5b41 e13c 80e7 70bd
000000c0: 178c db3c 5458 393d
0.19549637 0.053189836 0.10414773 0.004664243 0.11022905 0.105123565 0.25506788 0.14579774
-0.03907563 0.16087586 0.18549518 0.1331239 0.07457159 0.14135054 -0.018679509 0.17525297
0.25883627 0.19980678 -0.0023714781 0.11320009 -0.030789612 0.0511761 0.17081091 0.27836084
-0.048785362 0.05794361 0.2438123 0.08365256 0.1789398 0.039920796 0.104030766 0.07270328
0.1154529 0.069272265 0.3930148 0.12744689 0.15461871 -0.0057134693 0.13992193 0.114381745
0.15118906 -0.12349775 -0.021061344 0.104737416 -0.170919 0.16527356 0.027496984 -0.058814526
0.026800198 0.045250252

emb_layer.weight f4 [2, 50]
00000000: da5a 07be d93c a23d 2943 13be 35e3 0b3d
00000010: 91c1 cc3d 38be 67be 12c5 403c 43ff debd
00000020: a046 a6bc cd80 f73d 8e3a 5abe b469 893d
00000030: fcfa ee3d b7be c13d 2b74 ccbd 84e8 2fbd
00000040: dc37 10be 813d 713e d30b 20be e550 7ebd
00000050: 358e cb3c 810a 3d3e 1378 06be aad0 c63d
00000060: a140 923d afc8 423c 6531 be3d d266 cb3c
00000070: a623 2f3e c9ed afbd 5df6 a73c 3ad5 2a3d
00000080: a978 143e 5d44 a43c 28b0 9abc 2f61 d93c
00000090: d7ef 08be 6a30 15bd 11fa 52bd 8017 16bd
000000a0: f484 01be 9e67 8fbc e75f c7bd 3ddf 253e
000000b0: e2c3 8fbd c2d9 0b3e 35c9 043e 75a0 80bb
000000c0: 8012 b1bd da20 7d3d a864 6dbe 65ad 3dbd
000000d0: 7765 303c b10a 563d a664 7fbd d164 5bbd
000000e0: d794 13be c19d edbd c910 65bd eebd 833d
000000f0: 9529 11bd 3367 b6bd 1c0d 19be 499f 9c3d
00000100: 7501 033e 1dc1 1bbe d20e 44be d7b3 19be
00000110: dee2 7939 afc9 30be 1a3e e9bc c76e dd3d
00000120: 212e 4bbd 89fc 3ebe e736 f4bb 682f 50be
00000130: f59f 3abe 70fb 253d 81d1 30be f350 29be
00000140: 1c75 abbc 9b41 373c 2610 6d3d ef62 8b3d
00000150: f856 43be 40c0 ce3d 92fd de3d 21d0 d33d
00000160: 4275 24be c9ac 0abe 872d 74bc c370 da3a
00000170: 549a 58bd c335 0abd 4a6c cdbd 620a c3bd
00000180: 2678 c1bb 4def 0e3d d6d8 b43b cdd9 14bd
-0.13218251 0.07921762 -0.14381088 0.03415223 0.09997857 -0.22631156 0.011765735 -0.10888531
-0.020297348 0.12085114 -0.213114 0.067096144 0.11668965 0.09460204 -0.09983095 -0.042946354
-0.14083809 0.23558618 -0.1562951 -0.062088866 0.024848083 0.18461038 -0.13131742 0.09707768
0.07141233 0.011888667 0.09286765 0.024829302 0.17103443 -0.08590276 0.020503217 0.041707255
0.14499153 0.02005213 -0.018882826 0.026535599 -0.13372742 -0.036423124 -0.051508013 -0.036643505
-0.12648374 -0.017505463 -0.09735089 0.1619844 -0.070197836 0.13657287 0.1296738 -0.003925378
-0.08646107 0.061798908 -0.23182929 -0.04630794 0.010766379 0.05225629 -0.062351845 -0.053562943
-0.14412247 -0.11602355 -0.05592421 0.064327106 -0.035440046 -0.089064024 -0.14946407 0.07647569
0.12793525 -0.15210386 -0.19146279 -0.1501001 0.00023831005 -0.17264436 -0.028471995 0.10812145
-0.04960454 -0.18651022 -0.007452834 -0.20330584 -0.18225081 0.040522993 -0.1726742 -0.16534786
-0.020929866 0.011185075 0.05787673 0.068059795 -0.19076145 0.100952625 0.108882084 0.10342432
-0.16060355 -0.13542475 -0.014903433 0.0016665686 -0.052881554 -0.033742677 -0.1003042 -0.09523465
-0.0059042154 0.034896184 0.005519013 -0.036340524

emb_layer.bias f4 [2]
00000000: 77b6 0fbc 0806 f9bd
-0.00877153 -0.121593535

class_layer.weight f4 [10, 50]
00000000: 17ae 81bd 803c adbb d488 0fbe fc8f d7bd
00000010: f403 d83d a496 963d c049 71bb 58b1 503d
00000020: a462 bebc 207b bfbc 785d b33d 38ac 753d
00000030: 9eed d63d 5622 c33d 2013 843c 667c 2ebd
00000040: 8835 a7bc d04c 16bd 8c04 edbc 5a51 f63d
00000050: e5cd b4bd a4bd acbc 8a0d 973d 0c8f fbbc
00000060: 59f3 fdbd d892 c13c bd6c a9bd 1a1d a13d
00000070: 80b8 b03d ac05 6c3d 1f52 f0bd 2e23 95bd
00000080: 5c11 3c3d 929b e73d 64c0 3ebd 40c4 cfbb
00000090: 6265 ecbd 7dd1 08be b6ab 85bd 5982 ecbd
000000a0: 487e 48bd e883 debd 4c80 74bd bae1 2ebd
000000b0: 0d1a eabd 8ee4 833d 67a3 fbbd a2d7 e1bd
000000c0: 01fa 043e 8c10 513d e0b7 f33b 0024 ccbd
000000d0: d496 783d dfd9 c0bd 8503 0b3e e7e7 c6bd
000000e0: aef0 d63d 8ac9 cc3d 00c2 95ba 6fbd 073e
000000f0: 98a3 893d 4ea2 e5bd a3e8 053e 7870 a4bc
00000100: 1201 e23d 5075 84bc 9a37 f63d a099 543d
00000110: e08d 47bc 0075 a03a 664a b83d 503b ebbd
00000120: 0e22 bb3d 70cc c03c 48e1 af3c 1c9f d9bd
00000130: 5896 523d 210c 013e 3072 1a3c 9ef5 3abd
00000140: cc0a a93d 0cec a7bd 0650 953d 2063 debd
00000150: c949 00be 6e7a f83d bc2c cc3d b26c b1bd
00000160: 85eb c4bd aca0 8e3d 759f 083e 7e64 b63d
00000170: 207b 3abc d8f0 c7bc 60db e8bd ef5a fbbd
00000180: c07e a9bb 0c49 56bd f858 23bd 3016 823c
00000190: d89b e13c 90f2 b33d a91b 0fbe 5089 c0bd
000001a0: 02b1 35bd 685b 9c3d 0cf0 0ebe 2c79 a4bd
000001b0: 6403 413d 0e89 ec3d a21f fbbd 8c65 d43d
000001c0: da2e b33d 8a44 f23d 2cfc 40bd 008b 47bc
000001d0: 1019 c5bc 2772 05be 003f 72bd 5aa7 55bd
000001e0: f6a4 ff3d d4d0 56bd 6d38 fbbd 154d 0e3e
000001f0: cae1 f13d 12cc 863d 6621 c5bd 4821 e1bd
00000200: a8a5 953c d2b6 69bd 48fd d53d 9a79 efbd
00000210: bcaf 263d d8fc ca3c 43f0 b3bd 5483 f5bd
00000220: 771b 0dbe 1e8e ae3d 1813 533d 143f 71bd
00000230: 0ec4 36bd 8c16 cdbd 781b 943c eeaf e63d
00000240: 04f7 edbc 90b7 443c 0629 17bd 9ecb 33bd
00000250: 248a 85bd b8d6 7f3d 1c1e 2e3d 48f2 d1bd
00000260: 2e21 97bd 10a2 553d f07c 0b3c 60de be3b
00000270: ac21 5e3d 29cb b8bd 8060 4fbd 0809 0c3d
00000280: 4ab3 58bd b47c b93d 3027 a43d 10bb 7b3d
00000290: 012f 8dbd d807 c9bd 3462 b73d 76b2 c33d
000002a0: f032 863c 0541 053e 5470 e2bc 00fd 153d
000002b0: f82f 453d 509d 52bc a3b9 003e 2912 0b3e
000002c0: a0f2 ad3d 4063 883c faf5 1ebd 382e 06be
000002d0: 90be 523c b554 0bbe c46f 873d 3215 8cbd
000002e0: 6a4b c83d 9835 153d 363e fe3d f891 9d3d
000002f0: 32ad 9a3d a00a 183d b8d3 d23c f87e 8d3d
00000300: 58f6 033d 6043 1f3d b8bf ebbd d047 383c
00000310: 3caf a5bd ecb6 bcbc 5e08 f23d 849f 2e3d
00000320: 73cf ecbd 2a85 8b3d 3cbf 1d3d 3c44 babd
00000330: e0ff e2bb 90b4 12bc 8814 b4bc a818 c5bd
00000340: c0c8 52bc e297 e23d 3fe2 fcbd 8ce4 193d
00000350: ccff 053d 889c 2bbd b844 973c 1014 7fbd
00000360: 0106 053e fe79 a43d ea65 f93d 507b 7dbc
00000370: 3a4d debd de38 b83d 804f 0ebc 883b b33c
00000380: a062 c33d 6074 ecbd 6e77 dd3d e27d db3d
00000390: 7e02 75bd 169c e83d 241b 77bd 7ec0 2cbd
000003a0: fc5a d53d fc80 713d da62 cfbd 4a08 d33d
000003b0: 02b3 b1bd 5ee8 e33d 9003 d53d 56b2 42bd
000003c0: 49d0 0bbe 00e2 2ebc dfe1 0fbe c0d6 5f3c
000003d0: 2eda d23d e5c5 013e cd8f 06be b4b9 35bd
000003e0: c0b2 1d3b 1e6b 97bd 99f0 063e 90ee 58bd
000003f0: 54dd 95bd 8e83 d53d 688f ce3c 68a9 aa3d
-0.06332033 -0.005286753 -0.1401704 -0.1052551 0.10547629 0.07352951 -0.003681764 0.05095038
-0.023240395 -0.02337414 0.08758062 0.059978694 0.10494541 0.095280334 0.0161224 -0.042599104
-0.020411268 -0.036694348 -0.028932832 0.12027235 -0.08828334 -0.021086521 0.07375629 -0.030707859
-0.123999305 0.02362959 -0.08272693 0.07866879 0.086289406 0.057622597 -0.11734413 -0.072821006
0.045914993 0.113089696 -0.046570197 -0.0063405335 -0.11542775 -0.13361163 -0.06526892 -0.11548299
-0.048948556 -0.10865003 -0.059692666 -0.04269574 -0.1143075 0.06440078 -0.12287026 -0.11027457
0.12985994 0.05104117 0.007437691 -0.09967804 0.060690716 -0.094165556 0.13575561 -0.097122006
0.10495125 0.09999378 -0.0011425614 0.13255857 0.06720656 -0.11212598 0.13077025 -0.02007316
0.110353604 -0.01616922 0.12022324 0.05190432 -0.012179822 0.00122419 0.089985654 -0.11485922
0.09137355 0.023534983 0.021469727 -0.10626051 0.05141291 0.12602283 0.0094266385 -0.045644395
0.082540125 -0.08199319 0.07290654 -0.1085875 -0.12528147 0.121327266 0.0996947 -0.0866331
-0.09615234 0.069642395 0.13342078 0.08905886 -0.011381894 -0.024406835 -0.113699675 -0.122732036
-0.0051725805 -0.052315757 -0.03987977 0.01587972 0.027540132 0.087864995 -0.13975395 -0.0940119
-0.04435826 0.07634622 -0.13958758 -0.08030924 0.047122374 0.115495786 -0.12261893 0.10370931
0.087491706 0.11829479 -0.04711549 -0.012179136 -0.024059802 -0.13031827 -0.059142113 -0.052161552
0.12482636 -0.052445248 -0.12266622 0.13896592 0.11810644 0.06581892 -0.09625511 -0.10992676
0.018267468 -0.057059117 0.104487 -0.116931155 0.040694937 0.024778768 -0.08786061 -0.119879395
-0.13780008 0.085232005 0.05153188 -0.058898047 -0.044620566 -0.10014066 0.018079504 0.11264025
-0.02904845 0.012006655 -0.036904357 -0.043895356 -0.06520489 0.06246063 0.042509183 -0.102512896
-0.073793754 0.052156508 0.008513674 0.005824849 0.05423133 -0.09023125 -0.05062914 0.0341883
-0.05290536 0.09056988 0.08015287 0.061457694 -0.06893731 -0.09815949 0.08954278 0.09555523
0.01638171 0.13013084 -0.027641453 0.036618233 0.04814145 -0.012854889 0.12570815 0.13581146
0.08493543 0.016648889 -0.0388088 -0.13103569 0.012862816 -0.13606532 0.066131145 -0.0683998
0.09780009 0.036428064 0.124142095 0.07693857 0.07552566 0.037119508 0.025735721 0.06908983
0.032217354 0.038882613 -0.11511177 0.01124759 -0.08090064 -0.023036443 0.11818002 0.042632595
-0.11563005 0.068125084 0.038512453 -0.09095046 -0.0069274753 -0.008954182 -0.021982446 -0.096238434
-0.012865245 0.110641256 -0.123478405 0.037571475 0.03271465 -0.041897327 0.018465385 -0.062274992
0.12990572 0.08031081 0.12177642 -0.0154712945 -0.108545735 0.089952216 -0.008685946 0.021878973
0.095402956 -0.11545634 0.10813795 0.107173696 -0.05981683 0.11357896 -0.060328618 -0.042175762
0.104177445 0.0589609 -0.10126276 0.103043154 -0.08676721 0.11128305 0.1040107 -0.047533356
-0.13653673 -0.010674 -0.14051007 0.01366204 0.10295521 0.12673147 -0.13140793 -0.044366553
0.0024062842 -0.07393478 0.13177718 -0.052961886 -0.073176056 0.10425483 0.025214866 0.08333093

class_layer.bias f4 [10]
00000000: f075 143d cad4 26bd 3081 b9bc 2e86 73bd
00000010: d823 a2bc 2ee5 10bd d7a5 9cbd f88a 833d
00000020: 587b a73c fc9c 8dbd
0.036245286 -0.040730275 -0.02264461 -0.059454136 -0.019792482 -0.035374813 -0.07648819 0.064229906
0.020444557 -0.06914708
